GSF-100-hidden-2-input-1-layer.pth (torch, 128494 bytes, 6 tensors)

gru.weight_ih_l0 f4 [300, 2]
0	0xbdb4ba26	-0.088245675
1	0xbd7a2302	-0.061068542
2	0xbdc2295d	-0.09480546
3	0xbd36a97e	-0.044595234
4	0x3da92099	0.08258171
5	0xbd853e20	-0.0650599
6	0xbdfade75	-0.122494616
7	0x3c36cd53	0.011157352
8	0xbe0a8862	-0.13528588
9	0x3e2146da	0.15749684
10	0x3e12086b	0.14261024
11	0x3e09d35c	0.13459533
12	0x3d905074	0.07046595
13	0xbd29bce3	-0.041439902
14	0xbe354fa8	-0.17706168
15	0x3d772ce1	0.060345534
16	0x3dc57500	0.096414566
17	0xbd938079	-0.072022386
18	0xbd43cc9a	-0.047802545
19	0xbd2aa5ac	-0.041661903
20	0x3d82ab1e	0.06380294
21	0xbd2bfe8a	-0.041990794
22	0x3dc9024f	0.098148935
23	0x3d55cddc	0.052198276
24	0xbdc7a2da	-0.09747858
25	0x3df3038c	0.11865911
26	0xbd9cfc77	-0.07665341
27	0xbdc3746b	-0.09543689
28	0xbdeaae96	-0.11459081
29	0xbe2c55d5	-0.16829617
30	0xbe1c8ac6	-0.15287313
31	0xbe380a62	-0.1797271
32	0xbcf69b32	-0.0301033
33	0xbddddd99	-0.10833282
34	0xbd090f4a	-0.033461846
35	0xbe23b8ba	-0.15988436
36	0x3dd1fb97	0.10253065
37	0xbd3c0be1	-0.045909766
38	0xbdeb21ae	-0.11481033
39	0xbcc21efc	-0.023696415
40	0x3d29f294	0.041491106
41	0xbe47383b	-0.19455044
42	0xbe064786	-0.13113222
43	0xbcc7b7b1	-0.024379583
44	0xbd1ca294	-0.038240984
45	0x3c370604	0.011170868
46	0x3db5bf11	0.08874334
47	0xbdd782f5	-0.10523025
48	0xbe07c07a	-0.13257018
49	0x3dc64761	0.09681583
50	0xbb9bc634	-0.0047538523
51	0xbe01944a	-0.12654224
52	0xbcfd0b28	-0.030889109
53	0x3e74d93a	0.2391099
54	0xbe097d90	-0.13426805
55	0x3d36b288	0.044603854
56	0xbd7c3e06	-0.061582588
57	0x3caffcff	0.021482943
58	0x3ce97be2	0.028501455
59	0xbceb42a1	-0.028718295
60	0x3df2aa85	0.1184893
61	0x3da6216f	0.08111846
62	0xbe0c5eaf	-0.13707994
63	0x3c835ddb	0.016035965
64	0x3c566ff2	0.013088213
65	0x3d8257ad	0.06364379
66	0xbd979936	-0.074022695
67	0x3e40da35	0.1883324
68	0xbced4fb7	-0.028968675
69	0xbced1acd	-0.028943444
70	0xbe09fe11	-0.13475825
71	0x3cff7b12	0.031186614
72	0x3c5500fa	0.013000721
73	0x3dd94728	0.10609275
74	0x3e4858c7	0.19565116
75	0xbd82c0c1	-0.06384421
76	0x3d5bf906	0.053704284
77	0x3b51cbef	0.0032012423
78	0x3cbd930e	0.02314141
79	0xbe2e2182	-0.1700497
80	0x3d8a8ee2	0.06765534
81	0xbdf7be70	-0.1209687
82	0xbe319958	-0.17343652
83	0x3ccf65d4	0.02531711
84	0xbd6e7699	-0.058218572
85	0xbe452eff	-0.19256209
86	0xbc6d3d00	-0.014479876
87	0x3dbe60e8	0.09295827
88	0x3cf411ae	0.029793587
89	0xbd15a6d9	-0.03653607
90	0xbd8940f5	-0.06701843
91	0x3e4ef51b	0.20210688
92	0xbca963e1	-0.020677509
93	0xbde0c930	-0.109758735
94	0xbd62f4a8	-0.055409104
95	0x3d585a0a	0.052820243
96	0xbe273af8	-0.16331089
97	0x3dd70599	0.104991145
98	0xbda330e9	-0.07968313
99	0x3d7cbb71	0.061702196
100	0x3dadfb45	0.084951915
101	0xbe38bb94	-0.18040305
102	0x3d89d437	0.0672993
103	0xbbf5fcc6	-0.0075069396
104	0xbe55b209	-0.20868696
105	0xbc765e85	-0.015037184
106	0x3d434a37	0.0476782
107	0xbdc69e58	-0.096981704
108	0x3dbb31a0	0.091403246
109	0xbe016ccb	-0.12639157
110	0xbe2f1c19	-0.17100562
111	0x3ddffc23	0.10936763
112	0x3cfb406b	0.030670365
113	0xbe2361cb	-0.15955274
114	0xbda5ba19	-0.08092136
115	0xbe14a358	-0.14515436
116	0x3d9a3a98	0.07530707
117	0xbe20047b	-0.15626709
118	0xbdd03d4c	-0.101679415
119	0xbc92fd09	-0.017942922
120	0xbd907c12	-0.070549145
121	0x3e138e9d	0.14409871
122	0xbde3b2ff	-0.11118125
123	0x3e0892f3	0.13337307
124	0xbd069954	-0.03286107
125	0xbc72ca87	-0.014818794
126	0xbe10d982	-0.14145473
127	0xbdc2b2ce	-0.095067605
128	0xbe272969	-0.1632439
129	0xbd20ec79	-0.039288018
130	0xba9f5b42	-0.0012157934
131	0x3c81e5d8	0.015856668
132	0x3d59db3a	0.053187586
133	0xbd057afb	-0.032587986
134	0x3b58d04a	0.0033083134
135	0xbe22a3e8	-0.15882838
136	0xbd93f216	-0.072239086
137	0x3db0a8fc	0.08625981
138	0xbd2ef67e	-0.042715542
139	0xbd1a43f1	-0.03766245
140	0xbe279d7f	-0.16368674
141	0x3dce4e5e	0.10073541
142	0xbd39b0df	-0.045334693
143	0x3cafced0	0.02146092
144	0x3d919179	0.07107825
145	0x3d0f8a5b	0.035044055
146	0x3d999b5a	0.07500334
147	0x3db1fdb9	0.08690972
148	0xbd87f756	-0.066389725
149	0xbdf7523e	-0.12076233
150	0xbc805de5	-0.015669772
151	0x3d74a12d	0.05972402
152	0xbc1da679	-0.00962221
153	0xbd9dc5ab	-0.07703718
154	0xbe4ddb4c	-0.20103186
155	0x3da25b7d	0.07927606
156	0x3d8bf2a0	0.068333864
157	0xbe3c2f25	-0.18377359
158	0x3dd750b0	0.10513437
159	0x3ccacf4c	0.02475705
160	0x3d039f95	0.03213461
161	0xbdae439c	-0.08508989
162	0xbe02e2ee	-0.1278188
163	0xbd19f921	-0.037591103
164	0x3dbcfa37	0.09227412
165	0xbe307038	-0.17230308
166	0xbccf3fa0	-0.025298893
167	0xbe00b73d	-0.125699
168	0x3dc4720b	0.095920645
169	0xbd228a7b	-0.039682847
170	0xbdd38fd2	-0.10330166
171	0xbe13260b	-0.14369981
172	0x3db32aa2	0.08748366
173	0xbc6f813f	-0.014618217
174	0x3d9bc22c	0.07605395
175	0x3cc2ecf5	0.02379463
176	0xbc8f9dbb	-0.017531266
177	0xbd895825	-0.06706265
178	0x3d59eb12	0.053202696
179	0x3bea4d3a	0.0071503194
180	0x3d4801a9	0.04882971
181	0xbd9ca7d7	-0.076492004
182	0x3d8616fa	0.06547351
183	0x3dc3a2c3	0.09552529
184	0x3d4b0172	0.049561925
185	0xbdebf795	-0.11521832
186	0xbe038fb5	-0.12847789
187	0xbc06786e	-0.008207424
188	0xbd7ff2c5	-0.062487382
189	0x3cca84ea	0.024721581
190	0xbe134ff5	-0.1438597
191	0xbe5df89b	-0.21676867
192	0xbdeb9209	-0.11502463
193	0xbdebdd32	-0.11516799
194	0x3cee6a8b	0.029103538
195	0xbd952ba6	-0.07283716
196	0x3dc2cb0c	0.09511384
197	0xbe2040b3	-0.15649681
198	0xbdafed96	-0.08590238
199	0xbe134fad	-0.14385863
200	0xbe1144f9	-0.14186467
201	0x3b118e84	0.002221019
202	0xbb7a4180	-0.0038186014
203	0xbd09a01f	-0.03359997
204	0xbd212a1d	-0.039346803
205	0xbd483f22	-0.048888333
206	0x3d7bbd67	0.061459925
207	0x3dd93b74	0.10607043
208	0xbe57587a	-0.21029845
209	0xbe37b463	-0.17939906
210	0xbdde89ff	-0.108661644
211	0xbe8e9ca1	-0.27853873
212	0x3d058aed	0.032603193
213	0x3d8b4a98	0.06801337
214	0x3ce40f38	0.027839288
215	0xbe680d9d	-0.22661443
216	0x3e6c9c45	0.23106487
217	0x3e826286	0.25465792
218	0xbc36778a	-0.011136899
219	0xbe3b4670	-0.18288589
220	0xbd7160a7	-0.058930065
221	0xbd22ddb1	-0.039762203
222	0x3b4a068b	0.0030826654
223	0xbd181d67	-0.037137415
224	0x3b94b382	0.0045380006
225	0xbe20d13d	-0.15704818
226	0xbc346095	-0.011009355
227	0x3e255647	0.16146193
228	0xbe066e0d	-0.13127919
229	0x3d7acad7	0.0612286
230	0x3da8b33a	0.0823731
231	0x3e175f35	0.14782412
232	0xbd890de3	-0.06692102
233	0xbe4f369a	-0.20235673
234	0xbe8ed174	-0.27894175
235	0xbe934f94	-0.2877165
236	0xbd9bb10c	-0.076021284
237	0x3ce26e20	0.027640402
238	0xbb2c93f9	-0.0026333316
239	0x3ddc7668	0.10764772
240	0xbdfa3ace	-0.12218247
241	0xbdaf6d0b	-0.0856572
242	0x3dede163	0.11615255
243	0xbd288768	-0.04114476
244	0x3dc85f37	0.09783786
245	0x3e4b1a93	0.19834356
246	0x3da85b53	0.08220544
247	0x3dfd864d	0.123791315
248	0x3db4a439	0.088203855
249	0x3def6ff4	0.11691275
250	0xbda9018c	-0.08252248
251	0x3cff7d7d	0.031187767
252	0x3e143b64	0.1447578
253	0x3e7c8f02	0.24663928
254	0x3db05d9a	0.08611603
255	0xbd990f1c	-0.07473585

gru.weight_hh_l0 f4 [300, 100]
0	0x3e52c771	0.20583893
1	0xbd8e2ce5	-0.06942157
2	0x3e07f842	0.13278297
3	0x3e099675	0.13436301
4	0x3b5b0caf	0.0033424308
5	0xbe04c886	-0.12967119
6	0xbdf48fd8	-0.119414985
7	0xbca949e4	-0.020665117
8	0xbd8fcf01	-0.07021905
9	0x3da0d0a6	0.078522965
10	0x3d699942	0.057030924
11	0x3dcd7f4c	0.100340456
12	0xbc75e1f4	-0.015007485
13	0xbe0dcb57	-0.13847099
14	0x3d0fbb4a	0.035090722
15	0xbd07721d	-0.03306781
16	0xbd7ff3dc	-0.06248842
17	0x3d905905	0.07048229
18	0x3ddadf90	0.106871724
19	0x3ce25363	0.027627653
20	0xbc2080f5	-0.009796371
21	0xbd983e36	-0.07433741
22	0x3b3a5f6c	0.0028438224
23	0x3aafa886	0.0013401664
24	0xbce1c036	-0.027557474
25	0x3d35c1d5	0.044374306
26	0x3d20ee7f	0.039289948
27	0x3de8fd69	0.11376459
28	0xbd6d7c79	-0.057980035
29	0xbdc17ed3	-0.09448018
30	0xbd18a7ef	-0.03726953
31	0xbcefe489	-0.029283779
32	0xbdb7685a	-0.0895545
33	0xbd5659db	-0.052331787
34	0x3e209762	0.15682748
35	0xbe2c31fb	-0.16815941
36	0x3ce2b564	0.027674384
37	0x3cfad891	0.030620845
38	0x3c046801	0.008081437
39	0x3e022ca8	0.12712348
40	0xbd9c43f9	-0.07630152
41	0x3dfe2b56	0.124106094
42	0x3d856b9b	0.06514665
43	0x3ddc59f6	0.10759346
44	0x3de0351e	0.10947631
45	0x3d9fc2ce	0.07800828
46	0xbdf48010	-0.119384885
47	0xbe021b28	-0.12705672
48	0x3dad443e	0.08460282
49	0xbc582a28	-0.013193645
50	0x3dca0b11	0.09865392
51	0x3e1f80b6	0.15576443
52	0x3e27c85f	0.1638503
53	0xbbcab327	-0.0061859074
54	0xbe03da0b	-0.12876146
55	0x3dea264a	0.11433084
56	0xbc9c6b1e	-0.019094046
57	0x3ddb8aca	0.10719831
58	0x3deae4b0	0.114694
59	0x3cd2833c	0.025697343
60	0xbde3df9d	-0.11126635
61	0xbdac50ea	-0.08413871
62	0x3d85d6bd	0.06535099
63	0xbc6be04c	-0.014396738
64	0x3cf6597c	0.030071966
65	0xbded1e84	-0.11578086
66	0x3a847c2d	0.0010107808
67	0x3cef21d5	0.029190937
68	0x3d7f714b	0.062363904
69	0xbd83d3ff	-0.064369194
70	0x3c8211de	0.01587766
71	0xbe30308f	-0.17206024
72	0xbd97b685	-0.0740786
73	0xbd980983	-0.07423689
74	0xbd87ae0e	-0.06624995
75	0xbd17f96e	-0.03710311
76	0x3e21dd58	0.15807092
77	0x3d3b0ec9	0.045668397
78	0x3c224273	0.009903538
79	0xbe51ab3a	-0.20475474
80	0x3c109652	0.008824902
81	0xbdf6841f	-0.12036919
82	0xbd9d4a0d	-0.0768014
83	0x3abcbbe2	0.0014399255
84	0x3da6a418	0.08136767
85	0x3b8bd91c	0.004267825
86	0x3cfcd64f	0.030863909
87	0xbc65f6fd	-0.014035937
88	0x3e369b21	0.17832614
89	0x3daa313a	0.083101705
90	0x3d5845c9	0.052800927
91	0xbe10ff79	-0.14159955
92	0x3e04e25d	0.12976976
93	0x3c800f64	0.015632339
94	0xbdc6ac3a	-0.09700818
95	0xbe17be23	-0.14818625
96	0x3e0926cc	0.13393706
97	0xbd397e91	-0.04528672
98	0x3e13db1c	0.14439052
99	0xbd94190e	-0.07231341
100	0xbd91d6ee	-0.07121073
101	0xbdfa5841	-0.12223864
102	0x3cc82c66	0.024435233
103	0x3e0e8260	0.13916922
104	0x3d10eb51	0.035380665
105	0xbdb3a7e9	-0.08772261
106	0xbd6e512d	-0.058182884
107	0x3d7cbfa3	0.061706197
108	0x3d2c697d	0.04209279
109	0x3e0cb55d	0.1374106
110	0x3e073777	0.13204752
111	0xbd6f32af	-0.058397945
112	0xbdbc7e7b	-0.09203812
113	0x3d6b6604	0.057470337
114	0x3e1b0de2	0.15142015
115	0xbce36287	-0.027756942
116	0xbe28ff3f	-0.16503619
117	0xbb9ff89c	-0.0048819315
118	0x3dedd264	0.116123945
119	0xbd88f2c8	-0.06686932
120	0x3d8fb8e2	0.070176855
121	0xbe2496f2	-0.16073206
122	0x3d8b00c0	0.067872524
123	0x3e062098	0.13098371
124	0xbde65abb	-0.11247774
125	0xbc91d768	-0.017802909
126	0xbdfb565d	-0.12272332
127	0xbd814b96	-0.06313245
128	0xbb8b0acf	-0.004243232
129	0x3d201973	0.03908677
130	0x3d306479	0.04306457
131	0xbd67ffd6	-0.05664047
132	0xbd9fe665	-0.07807616
133	0xbdc83c67	-0.09777146
134	0x3cdff450	0.027338177
135	0xbd8d90a3	-0.06912353
136	0x3d99394d	0.074816324
137	0xbc031d55	-0.008002599
138	0x3d899b24	0.06719044
139	0x3cb2d3a7	0.02182944
140	0xbe0c53a5	-0.13703783
141	0x3df1560d	0.11783991
142	0x384433b0	4.677818e-05
143	0xbd9e30e6	-0.077241704
144	0xbd61528c	-0.055010363
145	0x3dfd36e5	0.12363986
146	0xbcbaeb73	-0.022817349
147	0xbdc932ec	-0.09824166
148	0xbd439919	-0.047753427
149	0x3dce5467	0.10074692
150	0x3e0be041	0.13659765
151	0xbca48acc	-0.020085715
152	0xbce79382	-0.02826858
153	0x3e096df6	0.13420853
154	0x3bb2264c	0.0054366942
155	0x3d41e17e	0.047334187
156	0x3e14883a	0.14505091
157	0xbd4476d8	-0.0479649
158	0x3d617f8d	0.055053283
159	0xbe19f742	-0.15035728
160	0xbdbbfd6a	-0.09179194
161	0x3ba0ae50	0.004903592
162	0xbd767de2	-0.060178645
163	0xbde7cbee	-0.113181934
164	0x3cbf1512	0.023325477
165	0xbe203895	-0.15646584
166	0xbe199e0a	-0.15001693
167	0x3c27a428	0.010232009
168	0x3d10dedb	0.03536878
169	0xbe2731b8	-0.1632756
170	0x3d985574	0.07438174
171	0xbdc96bc4	-0.09835008
172	0x3e15b34c	0.14619178
173	0x3bb9ece6	0.0056739924
174	0x3d92d187	0.071688704
175	0xbd160412	-0.036624976
176	0x3de77964	0.1130245
177	0xbd26bec6	-0.04070928
178	0xbe1233c0	-0.14277554
179	0x3d35f6c0	0.044424772
180	0xbdddc1f2	-0.10828008
181	0xbd79b88b	-0.06096701
182	0x3d2ce244	0.04220797
183	0x3c5fb7cd	0.013654661
184	0xbd7d7c8a	-0.061886348
185	0xbcee5710	-0.029094249
186	0xbd09f0e6	-0.033677004
187	0xbd8b4b27	-0.068014435
188	0x3e1118ba	0.14169589
189	0xbd8f9a3f	-0.07011842
190	0xbe053c49	-0.13011278
191	0xbd906918	-0.07051295
192	0xbd7beec1	-0.06150699
193	0xbcfcaf4a	-0.030845303
194	0x3d9b2989	0.075762816
195	0xbdda96e3	-0.106733106
196	0x3e0208f5	0.1269873
197	0x3d2a8508	0.041630775
198	0x3d02dc4a	0.031948365
199	0x3c9ee53a	0.019396413
200	0xbd9fa3ea	-0.07794936
201	0x3d250122	0.040284283
202	0xbce72f32	-0.028220747
203	0x3ddd7214	0.10812774
204	0x3c27c57a	0.010239953
205	0xbcf03c75	-0.029325703
206	0x3e3dc0e4	0.18530613
207	0x3db164dd	0.08661816
208	0x3dd266ad	0.1027349
209	0x3d9596d9	0.073041625
210	0xbc73c4b4	-0.014878441
211	0xbda8a268	-0.082341015
212	0xbd5e77b4	-0.054313377
213	0x3da98f23	0.08279254
214	0x3da2e751	0.07954276
215	0xbe281e36	-0.16417775
216	0x3d3abc00	0.045589447
217	0xbb823493	-0.0039735525
218	0xbc099a00	-0.008398533
219	0xbd2a4e03	-0.041578304
220	0x3d1a91eb	0.037736814
221	0xbda94397	-0.08264845
222	0x3cd9497e	0.026524302
223	0x3db89094	0.09011951
224	0xbd275378	-0.040851086
225	0x3db124b3	0.08649578
226	0xb99550f2	-0.00028479804
227	0x3e081c60	0.13292074
228	0xbc1ee5ff	-0.00969839
229	0x3beec5ad	0.0072867484
230	0xbd8f66b7	-0.07002013
231	0xbd951cf9	-0.07280917
232	0x3cd16d73	0.025564885
233	0x3db64573	0.08899965
234	0x3d34ca69	0.044138346
235	0xbd97108a	-0.073762015
236	0xbcb2a1bf	-0.021805642
237	0xbe02cd6b	-0.12773673
238	0xbda79850	-0.08183348
239	0x3db88c15	0.090110935
240	0xbdfca090	-0.12335312
241	0xbcb34fbe	-0.02188861
242	0x3d7773b4	0.060413077
243	0x3dc27c65	0.094963826
244	0x3ddb540e	0.107093915
245	0xbc767fb6	-0.015045097
246	0x3d222866	0.03958931
247	0x3d22ba38	0.039728373
248	0x3cb4ca18	0.022069022
249	0x3aa596c6	0.0012633435
250	0xbd71bb5d	-0.059016574
251	0xbda0d1f1	-0.07852543
252	0x3ded04ef	0.11573207
253	0xbdde1d8f	-0.108454816
254	0xbd33dba1	-0.043910626
255	0x3db24c5a	0.08705969

gru.bias_ih_l0 f4 [300]
0	0xbbd1fc4d	-0.0064082504
1	0x3b22e717	0.0024856979
2	0xbc9cc005	-0.01913453
3	0xbcea53b9	-0.028604375
4	0xbcc9dfcd	-0.02464285
5	0x3d140e0d	0.036146212
6	0x3c788c59	0.01517018
7	0xbb86ea43	-0.0041172816
8	0x3c930674	0.017947413
9	0xbe300e14	-0.1719287
10	0xbd09ca2f	-0.033640083
11	0x3cf78c44	0.030218251
12	0xbdd21e3c	-0.10259673
13	0xbde647aa	-0.112441376
14	0x3d2d3607	0.042287853
15	0xbd6dcbf5	-0.058055837
16	0x3ba0ef08	0.0049113072
17	0xbbae9502	-0.0053278217
18	0x3bebc023	0.0071945353
19	0x3cdee4c5	0.027208695
20	0xbbb54836	-0.00553229
21	0xbbb4bfb0	-0.005516015
22	0x3cd612f3	0.026132083
23	0x3d8c1992	0.06840815
24	0xbda35724	-0.07975605
25	0xbe061b52	-0.1309636
26	0xbd69505e	-0.05696141
27	0xbde927a0	-0.11384511
28	0xbbdb07fa	-0.0066843005
29	0x3c0d7453	0.008633691
30	0x3d79c52c	0.060979053
31	0xbdea8d8e	-0.11452781
32	0xbdd52c23	-0.10408809
33	0x3d12917b	0.035783272
34	0xbdc53b57	-0.09630459
35	0xbdef4e0e	-0.116848096
36	0xbd68b921	-0.056817178
37	0xbd3d05d8	-0.04614815
38	0xbcf968c0	-0.030445457
39	0x3cf40173	0.029785847
40	0x3dc110c9	0.0942703
41	0x3d7f8f42	0.06239248
42	0xbd8494ea	-0.064737156
43	0xbdccb44a	-0.09995325
44	0xbcb497ec	-0.022045098
45	0xbd945758	-0.07243222
46	0xbdd8ff2f	-0.105955474
47	0xbd2f7635	-0.04283734
48	0x3cfa40f2	0.030548546
49	0x3cfbb5ff	0.030726431
50	0xbe655029	-0.2239386
51	0xbd916363	-0.07099035
52	0xbd09123b	-0.03346465
53	0x3d05c821	0.03266156
54	0xbd59f3a5	-0.053210873
55	0xbd646d55	-0.05576833
56	0xbdd2d055	-0.102936424
57	0xbde358b7	-0.111009054
58	0x3bb37773	0.005476886
59	0xbe005967	-0.12534104
60	0x3ce3b95f	0.027798353
61	0xbb4a23a8	-0.0030844007
62	0xbc20586b	-0.0097867055
63	0x3d3e4bcc	0.046459004
64	0x3d58a2c7	0.05288961
65	0xbdb3199a	-0.087451175
66	0xbd0781f0	-0.033082902
67	0xbb964da1	-0.004586891
68	0xbde65e57	-0.11248463
69	0xbd91a02b	-0.07110628
70	0x3d5baa56	0.053629242
71	0xbe3e1708	-0.18563473
72	0xbd1d65e6	-0.038427256
73	0xbdf9850c	-0.1218358
74	0x3d6379b7	0.055536
75	0x3d84969a	0.064740375
76	0x3d5a134b	0.053241055
77	0xbe2ce9d0	-0.16886067
78	0xbdf9f9bb	-0.122058354
79	0x3baa976e	0.00520604
80	0xbd9e8939	-0.07741017
81	0xbe125fb3	-0.14294319
82	0x3ceb16e1	0.028697433
83	0xbd131785	-0.0359111
84	0x3d654d94	0.055982187
85	0xbdbf86de	-0.09351896
86	0xbd93ba30	-0.07213247
87	0x3cad832a	0.021180708
88	0xbd131ad6	-0.035914265
89	0xbc352f5d	-0.011058656
90	0x3c282841	0.0102635035
91	0x3d2e0a6d	0.04249041
92	0xbc799f12	-0.015235679
93	0xbc6757a0	-0.0141200125
94	0xbde66664	-0.11249998
95	0xbcd9e7bb	-0.026599756
96	0xbd172aea	-0.03690616
97	0xbd6e2e23	-0.05814947
98	0xbdbdc639	-0.092663236
99	0xbde11644	-0.10990575
100	0x3e0f3dc1	0.13988401
101	0x3edf9ad4	0.43672812
102	0x3e124082	0.1428242
103	0xbdaf768a	-0.085675314
104	0x3ca1dad1	0.01975766
105	0x3e7d73a1	0.2475114
106	0xbc7e4da8	-0.015521444
107	0x3e05ef6c	0.13079613
108	0x3c5182d1	0.012787537
109	0x3e5a6b7c	0.21330065
110	0x3d0058b7	0.031334605
111	0x3db753e6	0.08951549
112	0x3d0635de	0.032766216
113	0xbe123850	-0.14279294
114	0x3da559e7	0.08073788
115	0x3d5c6823	0.05381025
116	0x3d933d7f	0.07189464
117	0xbd2982b7	-0.041384425
118	0xbd6bacb9	-0.057537768
119	0x3dd75bfd	0.10515592
120	0x3d76ec35	0.06028386
121	0x3d9e7ec6	0.07739024
122	0x3ed7ed30	0.42173147
123	0x3de7183c	0.11283919
124	0x3d860d0b	0.065454565
125	0x3db1fd17	0.08690851
126	0x3df57a37	0.11986201
127	0xbe0e96e5	-0.13924749
128	0xbd542248	-0.051790506
129	0x3c82873e	0.01593363
130	0x3e073550	0.13203931
131	0xbe3ea110	-0.18616128
132	0x3e71b6ba	0.23604861
133	0xbd7d1947	-0.061791684
134	0x3de00998	0.1093933
135	0xbd144e9d	-0.036207784
136	0x3e366d86	0.17815217
137	0x3d906f3b	0.070524655
138	0x3c3979b4	0.01132052
139	0x3e64ce3e	0.223443
140	0x3d9dae61	0.07699276
141	0xbe51c8db	-0.20486777
142	0x3bded09f	0.006799772
143	0xbe27891b	-0.16360895
144	0x3ae53733	0.0017487764
145	0xbda69bfc	-0.081352204
146	0x3e3045ca	0.17214122
147	0x3dd4c0a7	0.10388308
148	0x3e89f102	0.26941687
149	0x3d05c3c9	0.03265742
150	0x3e14d6df	0.14535092
151	0x3d80c384	0.06287292
152	0x3d4a226e	0.04934924
153	0x3d230748	0.039801866
154	0x3c2f0d3d	0.010684309
155	0x3d363def	0.04449266
156	0x3deb5a1f	0.114917986
157	0x3e180a63	0.14847712
158	0x3d58ddb8	0.052945822
159	0xbea7e279	-0.32789972
160	0x3d11b7a9	0.035575543
161	0x3c094f6d	0.008380753
162	0xbdfff8b4	-0.12498608
163	0x3d2080f7	0.03918549
164	0x3d8fca21	0.07020975
165	0x3e19c9b5	0.15018351
166	0x3c872a93	0.016499793
167	0x3e48d53f	0.19612597
168	0x3cfbabf4	0.030721642
169	0x3ca05f12	0.019576583
170	0x3d98ab17	0.07454508
171	0x3e42e4fe	0.19032666
172	0x3d1762f8	0.03695962
173	0x3e25583c	0.1614694
174	0xbd0bbbd3	-0.03411467
175	0x3e0b2c74	0.13591176
176	0x3cc55299	0.024087237
177	0x3e2d4ef5	0.16924651
178	0x3c635125	0.013874327
179	0xbbef702e	-0.007307074
180	0xbd89218a	-0.0669585
181	0xbd7b9508	-0.061421424
182	0xbd22c88d	-0.03974204
183	0x3dedb86f	0.116074435
184	0x3d9061a8	0.070498765
185	0x3e810537	0.2519929
186	0x3e6e00de	0.23242518
187	0x3d8286ed	0.06373391
188	0x3ea4d846	0.32196254
189	0x3eb43ff4	0.35205042
190	0xbd55c3ee	-0.052188806
191	0x3e675272	0.22590044
192	0x3d65be80	0.056089878
193	0x3ec5b31c	0.38613212
194	0x3dd672fd	0.10471151
195	0x3d230783	0.039802086
196	0x3d1773bf	0.03697562
197	0xbd4919e9	-0.049096975
198	0x3c648c33	0.013949442
199	0x3e21cad1	0.15800025
200	0xbd5a36cb	-0.05327491
201	0x3d01b509	0.03166679
202	0x3c95f52d	0.018305385
203	0xbd641e63	-0.05569304
204	0x3d1f7eba	0.038939215
205	0x3c4a114b	0.0123332245
206	0xbd5d07a0	-0.05396235
207	0xbd06a8b6	-0.03287574
208	0xbd464506	-0.04840567
209	0xbd317d6b	-0.0433325
210	0xbd23f39f	-0.040027257
211	0x3d115c86	0.035488628
212	0x3c2d48ff	0.010576486
213	0x3d929e20	0.07159066
214	0xbcf0121f	-0.029305516
215	0xbd82028c	-0.06348142
216	0x3d0bd7f6	0.034141503
217	0xbcfe1856	-0.031017464
218	0xbd230b08	-0.039805442
219	0xbd91294e	-0.07087956
220	0xbcce14c7	-0.025156392
221	0x3d47497a	0.048654057
222	0x3cafacd1	0.02144471
223	0xbcef59be	-0.029217597
224	0x3d80969e	0.06278728
225	0x3b7246d6	0.003696849
226	0xbd57012c	-0.052491352
227	0xbc9bc610	-0.019015342
228	0xbb8f6770	-0.0043763444
229	0x3d666e28	0.056257397
230	0xbd145e8f	-0.03622299
231	0x3d438313	0.047732424
232	0x3d073804	0.033012405
233	0xbd798c5e	-0.06092488
234	0xbd832280	-0.06403065
235	0x3d294490	0.041325152
236	0x3cbca86e	0.023029532
237	0xbcdef4ff	-0.027216433
238	0xbd9db24e	-0.077000245
239	0xbd7212b6	-0.059099875
240	0xbd4440c6	-0.047913335
241	0xbc227e11	-0.009917752
242	0xbcaed413	-0.02134136
243	0xbd1a48de	-0.037667148
244	0xbd891035	-0.06692544
245	0xbd02136b	-0.0317568
246	0xbc8dfc7c	-0.017332308
247	0x3cc8e9be	0.02452552
248	0xbd470d28	-0.04859653
249	0x3c63cf6d	0.013904435
250	0xbb820295	-0.003967593
251	0xbd6d0d92	-0.05787427
252	0x3d252b9c	0.040324792
253	0x3bd6b2aa	0.00655206
254	0x3d29d12b	0.041459244
255	0xbd481361	-0.048846606

gru.bias_hh_l0 f4 [300]
0	0xbe128d43	-0.143117
1	0xbbfd7ea2	-0.007736043
2	0x3d6bec57	0.057598438
3	0x3d85b8b8	0.06529373
4	0x3c02c607	0.007981784
5	0xbdcdc653	-0.10047593
6	0x3d726845	0.05918147
7	0xbd4350f0	-0.04768461
8	0xbdce37cf	-0.100692384
9	0xbd9ed012	-0.0775453
10	0xbe16a08a	-0.14709678
11	0xbc430b16	-0.011904499
12	0xbcb3df26	-0.021956991
13	0xbdc407b7	-0.09571784
14	0xbd79d51b	-0.06099425
15	0xbd8a8276	-0.06763165
16	0xbde54858	-0.11195439
17	0xbded0805	-0.11573795
18	0x3c8c86dc	0.01715415
19	0x3d24dd21	0.040249947
20	0xbd20456f	-0.039128717
21	0xbdf93d8f	-0.121699445
22	0xbd10e846	-0.035377763
23	0xbdb31d1a	-0.08745785
24	0xbd06c4e0	-0.0329026
25	0xbc9c6caf	-0.019094793
26	0xbd8c8aa9	-0.06862385
27	0x3d052e8b	0.03251509
28	0x3d39428d	0.045229483
29	0xbb3ca6b1	-0.002878588
30	0xbd871260	-0.06595302
31	0x3bf85487	0.007578436
32	0xbd68d05c	-0.056839332
33	0xbd7de83c	-0.061989054
34	0x3d60ee1b	0.054914575
35	0xbb9ac464	-0.0047231186
36	0xbd448d6d	-0.047986437
37	0xbdf0aedb	-0.11752101
38	0xbd2defb1	-0.042464916
39	0xbc166b73	-0.009180891
40	0xba5b534c	-0.0008366599
41	0x3d17839e	0.036990754
42	0xbd82dd7d	-0.06389902
43	0x3c593a40	0.013258517
44	0xbcaff080	-0.021476984
45	0xbca4e2f7	-0.020127757
46	0xbe10c066	-0.14135894
47	0x3c3afc19	0.011412644
48	0xbd72b44f	-0.059253987
49	0x3d410e67	0.047132876
50	0xbd503bd6	-0.050838314
51	0xbd64e612	-0.055883475
52	0x3d19b917	0.03753003
53	0xbd965e9f	-0.07342266
54	0xbd618eae	-0.05506771
55	0xbdc0858c	-0.09400472
56	0xbd65da49	-0.056116376
57	0xbba003ce	-0.004883266
58	0xbd967845	-0.07347158
59	0xbdaa5ebd	-0.08318851
60	0xbc4efb36	-0.012633136
61	0x3c17a2a2	0.009255083
62	0xbd97c197	-0.07409971
63	0x3c286989	0.010279068
64	0xbdb7980f	-0.0896455
65	0xbdce004f	-0.100586526
66	0x3d52cd28	0.051465183
67	0xbe1d7b93	-0.15379171
68	0xbd815ae6	-0.063161656
69	0x3d171064	0.036880866
70	0xbc48db09	-0.012259253
71	0xbdd81cd5	-0.10552374
72	0xbad6b53a	-0.0016380914
73	0xbde97968	-0.114001095
74	0xbd466066	-0.048431776
75	0x3bb4f4e0	0.0055223554
76	0xbd06761b	-0.032827478
77	0xbe006830	-0.12539744
78	0xbdb5e6f9	-0.08881945
79	0xbe079ecd	-0.13244171
80	0xbe151a0f	-0.14560722
81	0x3c00776d	0.007840973
82	0xbca52dac	-0.02016338
83	0xbd8c0514	-0.06836906
84	0xbdc60992	-0.09669794
85	0xbda963d9	-0.082709976
86	0x3cf11042	0.029426698
87	0x3d41cf15	0.04731663
88	0xbe0470c4	-0.12933642
89	0x3b73eeab	0.0037221115
90	0x3ddeec1d	0.10884879
91	0xbd9dc255	-0.077030815
92	0x3cffd94a	0.031231541
93	0x3d054eb0	0.032545745
94	0xbd430f8d	-0.047622252
95	0xbd0e17b7	-0.034690585
96	0x3d11d105	0.035599727
97	0x3d4ddd89	0.0502601
98	0xbdd4456e	-0.10364805
99	0x3c9111e4	0.017708726
100	0x3e3306e9	0.17483105
101	0x3ea0a3ef	0.3137507
102	0x3d4e3776	0.05034586
103	0xbddad135	-0.10684434
104	0x3e0851af	0.1331241
105	0x3e9d9068	0.30774236
106	0x3dfeb4a2	0.12436797
107	0x38dd56d8	0.00010554277
108	0x3dc4b963	0.09605672
109	0x3e1362b7	0.14393125
110	0x3b9460fd	0.0045281635
111	0x3dddb76c	0.108260006
112	0x3d96bdcc	0.0736042
113	0xbd3c8ac4	-0.046030775
114	0xbd6d32e7	-0.057909872
115	0xbce49f2b	-0.027907928
116	0x3ccf49a7	0.025303675
117	0x3dab9601	0.0837822
118	0x3dde1fcd	0.10845909
119	0x3e285cd3	0.1644166
120	0x3d408c6b	0.047008913
121	0x3e7fc91a	0.24979058
122	0x3ee7f327	0.45302698
123	0x3de251c6	0.11050753
124	0x3cad4e81	0.021155598
125	0x3c110e4a	0.008853504
126	0x3da905bb	0.08253046
127	0xbc1cd413	-0.009572047
128	0x3bcf658a	0.006329243
129	0xbdb83596	-0.08994596
130	0x3dd7f8f4	0.10545531
131	0xbe40885e	-0.1880202
132	0x3e993efe	0.29930872
133	0x3dc659ba	0.09685083
134	0x3dbc85c9	0.09205205
135	0xbdb4aacc	-0.088216394
136	0x3db5ded7	0.08880394
137	0x3e23548f	0.15950225
138	0xbc490ec8	-0.0122715905
139	0x3eb13e3c	0.34617794
140	0xbd8a9cea	-0.0676821
141	0xbdf6ff91	-0.12060464
142	0xbe001f7b	-0.12512009
143	0xbe5499b3	-0.20761757
144	0xbd809e1b	-0.06280156
145	0xbe10702c	-0.1410529
146	0x3d177275	0.03697439
147	0x3dc863e9	0.09784681
148	0x3e118647	0.14211379
149	0x3d77b1f6	0.06047245
150	0x3e4cc2e5	0.19996221
151	0xbb892444	-0.0041852314
152	0xbd85e9ac	-0.0653871
153	0xbd02869e	-0.031866662
154	0x3e1db953	0.15402727
155	0xbd4501b7	-0.04809734
156	0x3d06e2ee	0.03293126
157	0x3e5d10c1	0.21588422
158	0x3dd57028	0.10421783
159	0xbe83f457	-0.25772354
160	0x3cbd6ca1	0.023123087
161	0x3c064c6e	0.008196933
162	0x3d8b0fc2	0.06790115
163	0x3dc6e045	0.09710745
164	0xbd436c7d	-0.047710884
165	0x3c3d014b	0.011535953
166	0x3dd2e1a8	0.10296947
167	0x3e247246	0.16059217
168	0x3ca3f6da	0.020015169
169	0x3d41d3c5	0.0473211
170	0xbd161d3d	-0.036648978
171	0x3e62ac27	0.22135983
172	0xbc5cfb16	-0.013487598
173	0x3dfab8e0	0.12242293
174	0xbdd42cac	-0.10360083
175	0x3dc56fdb	0.09640475
176	0xbbdd8a97	-0.006760906
177	0x3e0d2112	0.13782147
178	0x3c1af7da	0.0094585065
179	0xbdc3c13f	-0.09558343
180	0x3db24f1e	0.08706497
181	0xbd24e147	-0.040253904
182	0x3ddfe801	0.10932923
183	0xbc36a002	-0.011146547
184	0x3c16f84b	0.009214471
185	0x3db462b3	0.08807888
186	0x3d3e2d90	0.04643017
187	0x3deb4cfd	0.11489294
188	0x3e621369	0.22077717
189	0x3e8d23c4	0.2756635
190	0xbdf31cc5	-0.11870722
191	0x3e80daec	0.25167024
192	0xbb825ca2	-0.003978328
193	0x3eaa4d2d	0.33262005
194	0x3d87c34f	0.06629049
195	0x3e275135	0.16339572
196	0xbd8e5665	-0.06950072
197	0x3cb32db6	0.021872383
198	0x3c646e60	0.013942331
199	0x3bea5b38	0.0071519874
200	0xbd183808	-0.03716281
201	0x3d184e9f	0.037184354
202	0x3c6a42f0	0.014298186
203	0xbd8b1f66	-0.06793098
204	0xbd5bd761	-0.0536722
205	0x3d69497f	0.056954857
206	0x3da7d017	0.08193987
207	0x3d8dcd65	0.069239415
208	0x3dc85c07	0.09783178
209	0xbd52eabb	-0.051493388
210	0x3dcbf388	0.09958559
211	0xbc05e7c8	-0.008172937
212	0x3b410971	0.002945509
213	0x3c6dd054	0.014515001
214	0xbd8fbb4e	-0.070181474
215	0x3db8e179	0.090273805
216	0xbdcfbd53	-0.101435326
217	0x3d94c134	0.07263413
218	0x3da57aa2	0.08080031
219	0x3dad107b	0.08450409
220	0xbb8a8e17	-0.004228364
221	0xbdb10eb0	-0.086453795
222	0x3d601744	0.054709688
223	0xbd2ce142	-0.04220701
224	0xbe054abf	-0.13016795
225	0xbb1ebc62	-0.0024221172
226	0x3da3487c	0.0797281
227	0x3d7dc524	0.061955586
228	0x3cb6b7a4	0.022304364
229	0xbcff57ed	-0.031169856
230	0x3d811bb2	0.063041106
231	0x3d669e76	0.056303464
232	0x3d7fc615	0.062444765
233	0x3d64a650	0.05582267
234	0x3d6d8676	0.05798956
235	0xbd0a8778	-0.0338206
236	0xbdd9f789	-0.10642917
237	0x3d8a56e4	0.06754854
238	0xbd40a790	-0.0470348
239	0xbce4fbe4	-0.027952142
240	0x3d9f0efe	0.077665314
241	0xbd9c6abc	-0.076375455
242	0x3d90e32d	0.0707458
243	0xbc9de178	-0.019272551
244	0x3decb6f4	0.11558333
245	0x3dba8f77	0.09109395
246	0x3d43c20a	0.047792472
247	0xbc69c0d8	-0.014267169
248	0x3cebcd39	0.028784381
249	0x3c4b6879	0.012415045
250	0x3d5ccc7c	0.05390595
251	0x3d79ae2d	0.060957123
252	0xbdae6b76	-0.0851659
253	0x3ca95091	0.0206683
254	0xbdd5a865	-0.10432509
255	0x3ddea27f	0.108708374

fc.weight f4 [2, 100]
0	0x3d1ab258	0.037767738
1	0xbe302beb	-0.17204253
2	0x3d233ac7	0.039850976
3	0xbe62b434	-0.22139055
4	0xbe10392c	-0.1408431
5	0xbe2d7584	-0.1693936
6	0x3dec0dd2	0.115260735
7	0x3ac8f501	0.0015331806
8	0xbe429071	-0.19000413
9	0x3e353123	0.17694525
10	0x3d156bde	0.036479823
11	0x3d5dd263	0.05415572
12	0x3e568a3e	0.20951173
13	0x3d9eb257	0.077488594
14	0x3d4039b7	0.04693004
15	0x3dc4ad7a	0.096034005
16	0xbe2ac2ee	-0.16675922
17	0x3d8b0903	0.06788828
18	0xbd831a03	-0.06401446
19	0x3e05b616	0.13057742
20	0x3e106c88	0.14103901
21	0xbe1aa6c9	-0.15102686
22	0xbe38c5b7	-0.18044172
23	0x3b10b193	0.0022078499
24	0xbdb09800	-0.08622742
25	0xbc7b92b7	-0.015354804
26	0x3c1928fa	0.0093481485
27	0x3dddbdd7	0.10827225
28	0xbceb5538	-0.028727159
29	0x3e15fac7	0.14646445
30	0xbd8d5ae2	-0.069021
31	0x3e5a1b14	0.21299392
32	0xbe2bd5b3	-0.16780739
33	0x3df187bb	0.11793467
34	0x3c23a748	0.009988613
35	0x3db6b1de	0.08920644
36	0xbe10453a	-0.14088908
37	0xbdf4d76e	-0.119551525
38	0xbdd652f1	-0.104650386
39	0x3df02056	0.117249176
40	0xbd79956a	-0.060933508
41	0xbe62838c	-0.22120494
42	0xbda38279	-0.0798387
43	0xbe2991be	-0.16559502
44	0x3dfcfbce	0.123527154
45	0x3e153c42	0.14573768
46	0xbd9dac39	-0.076988645
47	0xbbd6a8ea	-0.006550898
48	0x3e002e21	0.12517597
49	0x3d39579d	0.04524957
50	0xbe27d067	-0.16388093
51	0xbd889b72	-0.06670274
52	0xbe1f72dc	-0.15571159
53	0x3d271ec4	0.040800825
54	0x3e5e13cb	0.21687238
55	0xbdb25dab	-0.08709272
56	0xbd5b3be3	-0.05352391
57	0xbe22842d	-0.15870734
58	0x3df3e27a	0.11908431
59	0x3b89fbe7	0.0042109373
60	0xbdf1f11e	-0.118135676
61	0x3e01b288	0.1266576
62	0xbe20962a	-0.15682283
63	0x3e0fe42a	0.14051881
64	0x3d40a309	0.047030482
65	0xbb3e25df	-0.0029014272
66	0xbd29ac4c	-0.04142408
67	0xbc6c57fb	-0.014425273
68	0xbdd26594	-0.10273281
69	0x3e1112ef	0.14167379
70	0x3aa014fb	0.0012213284
71	0xbdb8ff5e	-0.090330824
72	0x3df265c5	0.11835817
73	0xbde3601a	-0.11102314
74	0xbc978412	-0.018495593
75	0xbe0c9e4b	-0.13732259
76	0xbe05b337	-0.13056646
77	0xbe27362d	-0.1632926
78	0x3e60680a	0.21914688
79	0x3d4ab016	0.049484335
80	0x3ce28f37	0.02765618
81	0x3e090e9d	0.13384481
82	0xbe4717ed	-0.1944272
83	0x3e1a8073	0.15088062
84	0xbd3800f7	-0.044922795
85	0x3e2085a7	0.15675984
86	0x3d856b09	0.06514556
87	0x3da0ffb3	0.07861271
88	0x3e2f40c2	0.17114547
89	0x3e48c52a	0.19606462
90	0x3db95a6b	0.09050449
91	0xbc4850bc	-0.01222628
92	0xbd9c3349	-0.07626969
93	0x3e13ea44	0.14444834
94	0x3d974d33	0.073877715
95	0x3e02d8e6	0.12778053
96	0x3d87f1e0	0.06637931
97	0xbd2cf2db	-0.042223793
98	0xbdf49ed9	-0.1194436
99	0xbe287a46	-0.16452894
100	0x3e41436f	0.1887338
101	0xbe19134e	-0.1494877
102	0xbe0a49c3	-0.135047
103	0x3dcedb4a	0.1010042
104	0x3dd31e30	0.10308492
105	0xbad52e01	-0.0016264321
106	0x3e4bde9a	0.19909135
107	0x3dcada5e	0.099049315
108	0x3dda5a50	0.10661757
109	0xbe110baa	-0.14164606
110	0xbe01ca12	-0.1267474
111	0xbd9a0f31	-0.07522429
112	0xbe286423	-0.16444449
113	0x3e484d1e	0.19560668
114	0xbe1b9cd1	-0.1519654
115	0x3cc00f30	0.023444742
116	0x3e4e319a	0.20136109
117	0xbe12903f	-0.14312838
118	0xbdcde1d8	-0.10052842
119	0xbe345383	-0.17609982
120	0xbe7a4e7b	-0.24444
121	0xbd67eb3c	-0.05662082
122	0xbdd66f74	-0.10470477
123	0x3c2cbdcc	0.010543298
124	0xbd4fd66e	-0.050741605
125	0xbdb98137	-0.09057849
126	0x3d8d0aa1	0.06886793
127	0x3d2e2e2e	0.04252451
128	0xbde8fedd	-0.11376736
129	0x3e25fc73	0.16209583
130	0x3e5da66f	0.2164552
131	0xbde75487	-0.11295419
132	0x3d4d5f71	0.05013985
133	0xbd189b02	-0.037257202
134	0x3c3cc25e	0.01152095
135	0xbcf44e61	-0.02982253
136	0x3e437001	0.19085695
137	0xbd888b62	-0.0666721
138	0x3d8d1d5d	0.06890366
139	0x3e1688c0	0.14700603
140	0x3d58cf06	0.052931808
141	0xbe48d822	-0.19613698
142	0x3e06c4cf	0.13161014
143	0xbe33cf77	-0.1755961
144	0xbe4b84fe	-0.19874951
145	0xbb282eb1	-0.0025662596
146	0x3db04cb7	0.08608382
147	0xbd1ff3e4	-0.03905095
148	0x3de2742c	0.11057314
149	0xbdc8e29b	-0.098088466
150	0x3da5ad84	0.08089736
151	0xbdf4adc2	-0.11947204
152	0x3d90c1a3	0.07068183
153	0x3ca87c71	0.02056715
154	0x3e499abb	0.19687931
155	0x3e049abc	0.12949651
156	0x3db1ec70	0.08687675
157	0xbda59828	-0.08085662
158	0xbe1f3e7a	-0.15551177
159	0xbe7fee37	-0.24993216
160	0x3e176de7	0.14788018
161	0xbe6a16b5	-0.22860225
162	0x3c8f9f0d	0.017531896
163	0xbdb48b84	-0.08815673
164	0xbd61d804	-0.05513765
165	0xbd91af07	-0.07113462
166	0x3e106242	0.14099982
167	0xbdbd4022	-0.09240748
168	0x3e01f6f2	0.12691858
169	0xbd948c5c	-0.07253334
170	0xbdc5419a	-0.09631653
171	0xbe464c34	-0.19365007
172	0xbe121063	-0.14264064
173	0x3d9d61b7	0.07684653
174	0xbe34a775	-0.17642005
175	0x3d18c0b7	0.037293162
176	0xbe2c1d92	-0.16808155
177	0x3da6c284	0.0814257
178	0x3dc8337e	0.09775446
179	0xbd8de53f	-0.06928491
180	0xbd9290de	-0.071565375
181	0xbc896dc2	-0.01677597
182	0x3cf7179c	0.030162625
183	0xbe20f1a4	-0.15717179
184	0xbd89d45b	-0.06729957
185	0x3deedf7d	0.11663721
186	0x3ddb9e79	0.10723586
187	0xbd8da049	-0.069153376
188	0x3d3e5e48	0.046476632
189	0x3e5fb4d1	0.2184632
190	0xbe6b1d0f	-0.22960304
191	0xbe36ae85	-0.17840011
192	0xbde0b470	-0.10971916
193	0xbd529d44	-0.05141951
194	0x3e32a162	0.17444375
195	0x3e179bfb	0.14805596
196	0xbca63044	-0.020286687
197	0x3d299e87	0.04141095
198	0x3dcd676a	0.1002949
199	0x3df3e98b	0.11909779

fc.bias f4 [2]
0	0xbb30a666	-0.002695465
1	0xba865464	-0.0010248539
