GSF-model.pth (torch, 2844 bytes, 5 tensors)

gru.weight_ih_l0 f4 [15, 1]
00000000: 6171 373f 8aac 20bf b8f2 013f 4324 f7be
00000010: 1886 b0bd a552 edbd d49f ab3d 2bef b83e
00000020: e621 4dbf c589 383e d603 9ebd 304c ccbd
00000030: e319 0e3e 9c8e b73e 08cb c23e
0.7165738 -0.62763274 0.50760984 -0.48269853 -0.08619326 -0.11588029 0.08380094 0.3611997
-0.8012985 0.18021305 -0.077155754 -0.09975469 0.13877062 0.3585099 0.38045526

gru.weight_hh_l0 f4 [15, 5]
00000000: 54bf 7ebe 354d edbd d07c cbbd 1696 f0be
00000010: f368 d9be 3e94 8cbd 742a 29be 36ca c7bd
00000020: 5711 2ebd c78d c03d 0dcf 6c3d 76d5 fdbe
00000030: ef88 f3be b253 97be 74eb 5ebd d3a7 e53e
00000040: a714 94be b7e0 8d3e 8d01 a43e 6ad0 d43d
00000050: 9552 8bbe ac23 f83e 1e7a f0bd dd8b 163d
00000060: daf2 bbbd 35c6 b5bd aad5 b2be f687 c43e
00000070: be49 d5bd df24 ecbe a41f f0bd cbb6 6ebe
00000080: 74cb 09bb 091f 283c 27fe 973e b426 cd3e
00000090: 9e2e 94be a27d a6bc 2fa3 b03e 9e43 de3e
000000a0: 42ba 0abe 63d3 aabd 8bb6 273f 0b9b ea3d
000000b0: 8025 0cbf ca0b df3e e761 3a3f a358 d03d
000000c0: f93b 893e 6a98 41bf 206e c73e 777b 0bbf
000000d0: 9517 bbbe 81c1 01bf 5b2f 0e3f 749a c23e
000000e0: bf4e 94be 7625 ae3e 49e2 2abe a939 c93d
000000f0: aa0d 753e 1c4c be3c 425f 363e 4b21 873e
00000100: bae1 f33e 7067 adbe 478c aebe 2644 fb3e
00000110: c7f1 a6be 7e4e 853e 963f 3c3e fa00 603c
00000120: 3a67 e5bd 80c6 ee3e 955d debe
-0.24877673 -0.11586992 -0.099359155 -0.46989506 -0.42462882 -0.068642125 -0.16520101 -0.097553656
-0.042497005 0.09402042 0.057814647 -0.4957692 -0.4756541 -0.29556042 -0.054423764 0.44854602
-0.28922006 0.27710506 0.32032433 0.10391314 -0.27211443 0.48464715 -0.11742042 0.036754478
-0.0917718 -0.088756956 -0.34928638 0.3838498 -0.10414456 -0.4612188 -0.11724785 -0.23311917
-0.0021025809 0.010261306 0.2968609 0.4006859 -0.28941816 -0.020323578 0.344995 0.43410963
-0.13547614 -0.083411 0.65512913 0.11455353 -0.5474472 0.43563682 0.7280564 0.10173156
0.26803568 -0.7562319 0.38951206 -0.5448527 -0.3654143 -0.5068589 0.5554101 0.38008463
-0.28966329 0.34012955 -0.16687883 0.09825451 0.23930994 0.023229651 0.17809775 0.26392588
0.47633153 -0.3386798 -0.34091398 0.4907543 -0.32606336 0.26036447 0.18383631 0.013672108
-0.112013295 0.46635818 -0.43430772

gru.bias_ih_l0 f4 [15]
00000000: 7544 793d b989 2f3c 0528 aabd 6722 08be
00000010: 4fc0 00bd 1542 a73d 1178 f1be 8f97 d83e
00000020: 50c1 5dbd 1723 cdbd 03c3 bd3e 87ea 9b3e
00000030: a70e 73bd b6b9 c1be 5938 c4be
0.0608563 0.010713988 -0.08308414 -0.13294373 -0.0314334 0.08166901 -0.47161916 0.4230313
-0.054139435 -0.100164585 0.37062845 0.30452368 -0.059340145 -0.37837 -0.3832424

gru.bias_hh_l0 f4 [15]
00000000: d616 b23e 4541 83be afb2 0c3c e45b 44be
00000010: 24ae 4a3e 3b5a ccbe a61b 4abe cf85 203e
00000020: e5bc 2dbe 862a a63e b27f 48be 2c44 51be
00000030: 5dc7 a33e 72bb 98bd 6163 bb3e
0.34783047 -0.25635734 0.008587523 -0.19175678 0.19792992 -0.3991259 -0.1973711 0.15676044
-0.16966589 0.32454318 -0.19579962 -0.20436162 0.3198804 -0.07457627 0.36599258

fc.weight f4 [1, 5]
00000000: 4063 5fbf a46c 99be 59f1 1f3f b673 fcbe
00000010: 9882 adbe
-0.8726082 -0.299657 0.6247764 -0.4930703 -0.33888698
