models/FFSD-20-hidden-1-input-1-layer-2-disc.pth (torch, 3264 bytes, 4 tensors)

feed.0.weight f4 [20, 5]
00000000: 8b42 6f3a 918c a1be 2fa8 efbe 03bf 29bd
00000010: 02fe f7bd 4567 ba40 3bef 1641 b585 2541
00000020: 3ff1 6a41 59b9 4d41 7843 a740 61ec 19c0
00000030: 2b76 44c1 714e a340 ef07 c1c0 1fff 0cc0
00000040: 8c74 0840 9c16 fabf fae1 3840 4555 953e
00000050: fc53 09be bcbe 9d40 97f1 7c40 af01 1a41
00000060: 7fd3 5ac0 9e0f ae40 7bc6 3e3f a6a3 dfc0
00000070: f8ad 33bf 0cf7 1d40 e691 93c0 9ff7 c83f
00000080: e5b5 45c0 521f f340 5e6b 31c1 009d c83e
00000090: e89d 843e 39bc 56be 8111 b0be e0fa b2bd
000000a0: cdee 7640 3864 ebbf 6fd6 d83f a322 b5c0
000000b0: 635b b53f fd37 fd40 2db5 bdc0 d974 8e40
000000c0: 4030 27c1 b5fc 9b40 effd a1be b186 873e
000000d0: 10da cebc 98bf 8ebe ac93 0ebe 293f 5bc0
000000e0: a3c3 8d40 cb05 ac3f 8664 e1c0 55c8 8a3f
000000f0: 5b31 4b3c 56bc 6bbe c5f2 dc3d e6b2 3d3e
00000100: 25e0 7abe 3b6a 1b40 8680 883e 12e0 4c40
00000110: 681d 5d40 f537 5940 5522 d33d ed95 af3d
00000120: 3308 843e c486 adbd fcfc d3bd 846c b6bf
00000130: 7170 07c0 87e9 43c0 ddec 67c0 0387 83c0
00000140: b12c cbbe 37b3 3c3e fb67 8cbd 9fa8 c1be
00000150: 8174 b9bd 6b66 44be 9c6b e6bd 8522 573e
00000160: 9eac 87bd 2de5 94be 89f3 9e40 040c 61c0
00000170: 6e78 e040 06e1 d63f 272a dabf d8bf cbc0
00000180: 0364 31c0 8c4d 593f 8f07 16c1 1b3f 0640
0.0009127042 -0.31552556 -0.46808 -0.04144193 -0.12108995 5.825106 9.433406 10.345143
14.683898 12.857751 5.226986 -2.4050524 -12.27885 5.1033254 -6.0322185 -2.2030714
2.1321135 -1.953815 2.8887925 0.29166618 -0.13410944 4.929533 3.9522455 9.625411
-3.4191587 5.4394064 0.7452161 -6.9887266 -0.7018733 2.4682035 -4.61156 1.5700568
-3.089227 7.5975733 -11.088713 0.39182281 0.25901723 -0.20970239 -0.34388354 -0.08739257
3.8583252 -1.8389959 1.694044 -5.660478 1.4168514 7.9130845 -5.928366 4.4517636
-10.44928 4.874598 -0.31639048 0.2646995 -0.025250465 -0.2788055 -0.1392352 -3.42573
4.4301314 1.3439268 -7.043521 1.0842386 0.012401904 -0.23021063 0.10788492 0.18525276
-0.24499567 2.4283588 0.26660556 3.2011762 3.4549198 3.3940403 0.10309283 0.08573518
0.25787506 -0.0847297 -0.10350987 -1.4251866 -2.1162379 -3.0611284 -3.623832 -4.110231
-0.39682534 0.1842774 -0.0685577 -0.3782396 -0.090554245 -0.19179694 -0.112509936 0.21009262
-0.06624721 -0.29081097 4.9672284 -3.5163584 7.014701 1.6787422 -1.7044114 -6.3671684
-2.7717292 0.8488395 -9.376845 2.0976017

feed.0.bias f4 [20]
00000000: 7a61 33be ad82 00bf f3fe c1bf fcf3 adbe
00000010: b341 5abf dfd1 1bbf b555 cbbf 14d3 74be
00000020: 93b8 93bf cb22 0ec0 a0f1 32be 643b 72bf
00000030: 32b0 63be 7867 74be 3efd 67be 461d d03c
00000040: ca3b 56be 2495 2bbe d780 52bf efbf 6fbf
-0.17517653 -0.50199395 -1.5155929 -0.33975208 -0.852565 -0.6086711 -1.5885531 -0.23908645
-1.1540703 -2.2208736 -0.17474985 -0.9462187 -0.22235182 -0.23867595 -0.22655198 0.025404584
-0.20921245 -0.16756111 -0.82227844 -0.9365224

fc.weight f4 [5, 20]
00000000: b1d5 58bd e358 cd3f 430a eac1 ca1e 89c2
00000010: cff8 b0c1 4d1f 69c2 a39e 84c2 00df bb3c
00000020: 736f a6c2 4a3c 59c2 88fd 1abb b7e3 03c2
00000030: f7f7 353e feb0 6cc1 72b8 14bd 4e6f e3c2
00000040: f1e9 c03c b407 9a3e 93d1 bfc2 e8b7 a8c2
00000050: d897 8fbd ec37 95c0 8531 03c2 172d 25c2
00000060: 3841 fcc1 0c43 eec1 abfc 54c2 ca52 0f3e
00000070: be6d f3c1 bbb4 92c1 2b68 82bc 0c52 c0c1
00000080: ab4b 8abe 4b68 6cc1 27f6 8a3d 5eef a6c2
00000090: cff8 113e 6fc8 07bf 09d8 27c2 5780 fdc1
000000a0: a410 d4bd 0240 e1c1 0b60 063e 8782 9fc1
000000b0: 49df ab40 7f68 64c1 794f 7ac1 9ccb 2abe
000000c0: a98a 81c1 6622 e1c0 8d3d 42be 58ce 8b40
000000d0: 7f3f 22bd 7cc8 04c2 90ee 84be 04ed 36c2
000000e0: 9e62 b9be 9192 77be 147a 3ac1 4718 f1c0
000000f0: ef1b 63bd 054b e9c2 11ea 94c1 12e1 0fc2
00000100: 7c7a 74c1 914b 70c2 5fd5 d1c0 069d cbbc
00000110: 6d69 ebc1 4df9 0dc2 0a62 2abd fe00 d9c1
00000120: c540 adbd be80 74c2 26b7 b73e c51e d4c1
00000130: 7035 59be 0225 793e 3ebd 18c2 9aff 2dc2
00000140: 6e30 82bd 4bc7 f5c2 e958 05c2 2bfc 04c3
00000150: 65bb 15c2 0d64 e7c2 fb6a 4bc2 bbdd 3dbd
00000160: bb64 46c2 22a8 78c2 0b1a 77be 1497 15c2
00000170: d6f6 11bf 2be7 a7c2 b844 16bf 2f0c b2c1
00000180: e5c1 09bf 29a3 20bf b776 a1c2 ed30 6ec2
-0.052938167 1.6042751 -29.25501 -68.560135 -22.121489 -58.280567 -66.30984 0.022933483
-83.217674 -54.308876 -0.0023649652 -32.972378 0.17770372 -14.793211 -0.036308713 -113.71739
0.023549052 0.30084002 -95.909325 -84.35919 -0.07011384 -4.6630764 -32.79836 -41.294033
-31.531845 -29.782738 -53.246746 0.13996425 -30.428585 -18.338247 -0.015918812 -24.040062
-0.27010855 -14.775462 0.06785231 -83.467514 0.14255069 -0.5304021 -41.96097 -31.687666
-0.103547364 -28.156254 0.13122575 -19.938734 5.3710065 -14.275512 -15.6444025 -0.16679233
-16.192705 -7.035449 -0.18968792 4.3689384 -0.039611336 -33.195786 -0.2596326 -45.73146
-0.3620805 -0.24177004 -11.654804 -7.5342135 -0.05544656 -116.64652 -18.61429 -35.969795
-15.279903 -60.073795 -6.5572963 -0.024855148 -29.426477 -35.493458 -0.041597404 -27.125484
-0.084596194 -61.125725 0.3588192 -26.515024 -0.21211791 0.24330524 -38.184807 -43.49961
-0.063568935 -122.889244 -33.336826 -132.98503 -37.433002 -115.69541 -50.854473 -0.046354037
-49.59837 -62.164192 -0.24131028 -37.397537 -0.57017267 -83.9515 -0.58698606 -22.255949
-0.53811485 -0.6274896 -80.731865 -59.54778

fc.bias f4 [5]
00000000: 649a e1c1 dfbe dbc1 00dc d1c1 b25c e5c1
00000010: b548 ecc1
-28.200386 -27.468199 -26.232422 -28.670261 -29.535501
