models/FFSD-4-hidden-1-input-3-layer-2-disc.pth (torch, 3996 bytes, 8 tensors)

feed.0.weight f4 [4, 10]
-1.1275318 0.97670156 4.075069 9.626464 8.080612 9.935542 12.705956 7.9089403
17.339523 14.176254 -7.001089 -5.429824 -5.9908223 7.029358 -4.378666 -1.5732758
4.378786 -16.06702 5.436976 -6.538287 -7.7785573 1.818745 2.8049943 -6.1301785
2.6584911 -5.197891 2.7906613 -12.228231 -16.411787 -17.41428 5.0574894 16.14304
14.889158 7.329803 17.921116 10.476736 19.195593 19.982534 15.004697 16.724274
00000000: f652 90bf 1d09 7a3f f766 8240 ff05 1a41
00000010: 304a 0141 fbf7 1e41 994b 4b41 0a16 fd40
00000020: 58b7 8a41 f0d1 6241 ec08 e0c0 1ec1 adc0
00000030: d1b4 bfc0 80f0 e040 081e 8cc0 1a61 c9bf
00000040: 041f 8c40 4289 80c1 b5fb ad40 a639 d1c0
00000050: f1e9 f8c0 a3cc e83f 0785 3340 6c2a c4c0
00000060: b824 2a40 2055 a6c0 329a 3240 d6a6 43c1
00000070: 574b 83c1 7250 8bc1 f4d6 a140 f224 8141
00000080: fe39 6e41 bf8d ea40 725e 8f41 b6a0 2741
00000090: 9390 9941 3bdc 9f41 3d13 7041 50cb 8541

feed.0.bias f4 [4]
0.2096599 -0.08273402 0.55711144 0.46107143
00000000: 16b1 563e 7470 a9bd db9e 0e3f 8e11 ec3e

feed.2.weight f4 [4, 4]
3.6491005 5.113886 1.4219813 -0.59462273 -6.874761 4.619711 2.748751 -1.9874846
-7.6810813 13.870999 12.267454 4.3944154 18.767323 -1.5331273 -0.7839015 10.098425
00000000: dd8a 6940 f4a4 a340 7c03 b63f 3239 18bf
00000010: 0bfe dbc0 acd4 9340 89eb 2f40 e565 febf
00000020: 6bcb f5c0 9def 5d41 7e47 4441 0d9f 8c40
00000030: 7a23 9641 843d c4bf c5ad 48bf 2693 2141

feed.2.bias f4 [4]
-1.2696164 6.9431944 -0.561124 3.3871684
00000000: ca82 a2bf a62e de40 d3a5 0fbf 5ec7 5840

feed.4.weight f4 [4, 4]
-0.32488096 13.014664 5.323347 -1.2533303 13.801638 -2.5607848 -1.4949877 11.691539
-7.1793 -2.9448838 3.8741136 -0.4618183 5.8959975 4.9160104 -1.139394 -0.786045
00000000: cc56 a6be 103c 5041 dc58 aa40 216d a0bf
00000010: 82d3 5c41 e6e3 23c0 c25b bfbf 8b10 3b41
00000020: d3bc e5c0 fa78 3cc0 7af1 7740 7373 ecbe
00000030: 03ac bc40 f54f 9d40 aad7 91bf 3f3a 49bf

feed.4.bias f4 [4]
0.316751 1.5216632 -5.775945 2.0631945
00000000: 302d a23e dcc5 c23f 8bd4 b8c0 610b 0440

fc.weight f4 [5, 4]
-31.732306 0.6988649 -13.16886 -4.9580083 -3.4156914 0.5985771 -6.0081224 -9.008915
-1.5452111 -0.3901377 -4.70915 -4.752743 -1.3080316 -5.0717406 0.7280305 -2.028896
-0.72072345 -41.178596 -0.81830746 -3.5757864
00000000: c3db fdc1 cfe8 323f a7b3 52c1 01a8 9ec0
00000010: b09a 5ac0 593c 193f 8a42 c0c0 8424 10c1
00000020: 7ac9 c5bf 21c0 c7be 5bb1 96c0 7816 98c0
00000030: 946d a7bf b34b a2c0 3560 3a3f 6fd9 01c0
00000040: 5581 38bf e2b6 24c2 997c 51bf afd9 64c0

fc.bias f4 [5]
-3.8421752 -6.586354 4.451597 -17.603376 -1.1999351
00000000: 33e6 75c0 69c3 d2c0 7c73 8e40 b7d3 8cc1
00000010: 7997 99bf
