models/FFSD-10-hidden-1-input-2-layer-2-disc.pth (torch, 4148 bytes, 6 tensors)

feed.0.weight f4 [10, 10]
00000000: 1579 cbc0 e4ef 64c0 1012 5440 a761 3940
00000010: 024a 0040 2c14 37c0 c387 b740 ce1c 28c0
00000020: 77c7 4ac0 04a9 dd40 1f7b c03f 6ca3 cebf
00000030: 24a7 3b40 2b62 0240 b385 0340 993a fe3f
00000040: 3bfc d540 05ce 6440 eb01 2d41 ef08 3640
00000050: b9e7 9940 63fc fc3e d69b 02c0 0484 0a40
00000060: c7ef 9f40 7737 2abe bb7c 59c0 1d70 5c41
00000070: f44f 943f 76b0 d040 f838 c640 db35 33bf
00000080: 53c0 a6bf 60af 39c0 2f95 d03f 1ae0 9ac0
00000090: bbce dbc0 4b12 ecbf 994c aabf 3750 5bc0
000000a0: 9654 e93f ed6d c5be 4218 41c1 7843 c640
000000b0: 96db 3fbf 5c3c c340 9ecd 0e3f c706 8bbf
000000c0: 3c09 8c40 8c33 c9bf a658 dd3f 1687 a840
000000d0: 0d1b 9640 6881 eebf 6b73 8640 51da 6d3f
000000e0: 0f36 9e3f 4700 9540 7bc3 bf40 5484 d740
000000f0: 1d6e d7be 8b83 4e40 1e1f 0f40 ea25 9f40
00000100: de07 2040 1bf7 ff40 f100 af40 1e51 7540
00000110: 636d 8840 d72a ae40 3cb0 63c0 8fb1 ffbf
00000120: 6d33 293f e619 ccbe 8494 5cc0 f9bf 63c0
00000130: a29b 8d3f 7913 0cc1 685b e9bd f41e e7c0
00000140: 21fe 9fbf 1c04 4cc0 1ea8 4a40 e497 c9c0
00000150: a8cb fdc0 3ff5 a53f 165e d7c0 0f3b ccbf
00000160: efb2 18c0 e86e bfc0 4bd7 3ac0 bdb1 f4bc
00000170: 3157 02c0 5cc8 81c0 de9d 0fc0 07a5 4ac0
00000180: cd76 56c0 c4fb 8dbf c643 0dc1 35f5 bac0
-6.3585305 -3.5771418 3.3136024 2.8965852 2.004517 -2.8606062 5.7353225 -2.626758
-3.1684244 6.926882 1.5037574 -1.6143622 2.9320765 2.0372417 2.0550354 1.9861633
6.68704 3.5750744 10.812968 2.8442953 4.8095365 0.49411306 -2.0407615 2.1643076
4.9980197 -0.1662272 -3.398238 13.777371 1.15869 6.5215406 6.194454 -0.7000405
-1.3027443 -2.901329 1.6295527 -4.839856 -6.8689857 -1.8443083 -1.3304626 -3.426771
1.8228939 -0.3856043 -12.068422 6.195736 -0.74944437 6.101118 0.55782497 -1.0861443
4.3761272 -1.5718856 1.7292678 5.26649 4.690802 -1.8633242 4.201589 0.9291125
1.2360247 4.656284 5.9926124 6.7349033 -0.42076197 3.2267787 2.2362742 4.973378
2.5004802 7.9989142 5.468865 3.833076 4.263353 5.4427295 -3.5576315 -1.9976062
0.66094095 -0.3986351 -3.4465647 -3.558592 1.106312 -8.754754 -0.113943875 -7.2225285
-1.2499429 -3.1877508 3.166511 -6.2997913 -7.9311104 1.2965468 -6.730235 -1.5955523
-2.3859212 -5.9822884 -2.9193904 -0.029869908 -2.0365717 -4.055708 -2.2440104 -3.1663225
-3.351001 -1.1092458 -8.829046 -5.8424325

feed.0.bias f4 [10]
00000000: 27ec 193e c164 063e da91 8fbc 6d39 d33d
00000010: bcc7 99bd bfab c93d 2190 873e dd0e 593d
00000020: a515 013e f97c 183e
0.15031491 0.13124372 -0.017525602 0.103136875 -0.075087994 0.09847211 0.2647715 0.05299269
0.12605913 0.14891423

feed.2.weight f4 [10, 10]
00000000: 4e5d 8840 47a9 fd40 62b1 4f40 24bf 33c0
00000010: 6e46 7b40 bf5b dc40 4a00 0641 cd60 7ec0
00000020: 6afe 05c0 3300 75be 9219 b83f b1cf 4bbe
00000030: 8a58 1441 030f be3f 852f 16c0 7e88 9dbe
00000040: b541 d23f 78b9 fb3f 6dd9 90c1 1d26 3040
00000050: 1192 ab3f c515 adc0 3a82 1bc0 4d1a 4441
00000060: c489 0140 8dd5 45bf 3a67 c23d d2de e040
00000070: 9058 b740 3c59 0641 8380 2fbf 6e88 613d
00000080: c9db 97be b5d0 1a3e 0313 91be 3293 14bf
00000090: 4a8c 08bf ec4e 843d 3c2b a4be 917c 07bf
000000a0: b3f8 913f 06dc d740 82c1 da40 a424 0840
000000b0: 3abd c940 6b24 0041 b0f8 b83e 54f8 f73f
000000c0: 8c84 9a40 2355 863e 8e13 9fbd a91c 693e
000000d0: 0811 f7be 4e90 303d 7854 093d 58d4 cd3d
000000e0: 5e5f 92be 6103 fdbe 0840 c7be c511 ddbe
000000f0: 3de9 4140 83dc f840 e416 e540 3e6e 03c0
00000100: 9056 96bf c517 2641 e046 bd40 2298 2dc0
00000110: c3cd 313f 0961 95c0 03f8 0840 25b5 12c0
00000120: 7ac0 05c1 f5e6 8e40 4842 1340 6648 3540
00000130: d8d8 9e3e dbb5 2041 59a2 b13f fbbd 2841
00000140: 7007 5940 b422 67bf 190f 2140 98af e43f
00000150: 98f0 b640 b1e1 8dc0 779d 55c0 2574 3f40
00000160: 1b29 8a40 e0b5 1e40 f162 1bc1 0c39 1540
00000170: 428e 0240 8636 2840 92b0 4a3f 4c05 32c0
00000180: 849f 1840 ef76 1f3f 4b61 c4c0 f11f ef3e
4.2613897 7.9269137 3.2452016 -2.8085413 3.9261737 6.8861995 8.375071 -3.9746583
-2.0936532 -0.23925857 1.4382803 -0.19903447 9.271616 1.4848331 -2.3466504 -0.30768198
1.6426302 1.9665976 -18.106165 2.7523263 1.3403951 -5.4089074 -2.4298234 12.256421
2.0240335 -0.7727898 0.09492345 7.0271997 5.729561 8.396786 -0.6855547 0.05506175
-0.2965987 0.15118678 -0.28334817 -0.580371 -0.53339064 0.06460366 -0.32064235 -0.5292445
1.1404022 6.7456083 6.8361216 2.1272364 6.304349 8.008891 0.36127234 1.9372659
4.82868 0.2623683 -0.07767402 0.22764839 -0.4825518 0.04310637 0.03352782 0.10050267
-0.28588384 -0.4941664 -0.3891604 -0.4317762 3.0298607 7.776918 7.1590443 -2.0536036
-1.1745167 10.380803 5.9149017 -2.7124104 0.6945459 -4.668095 2.1401374 -2.2923062
-8.359491 4.465693 2.3009205 2.8325438 0.31024814 10.044398 1.387767 10.546382
3.391079 -0.9028733 2.5165465 1.7866087 5.7168694 -4.4338 -3.337736 2.991464
4.3175178 2.4798508 -9.711656 2.3316069 2.0399327 2.6283278 0.79175675 -2.7815733
2.384736 0.62290853 -6.1368766 0.46704057

feed.2.bias f4 [10]
00000000: 8c33 32bf 38f3 38be 9c2d a73d ab11 5fbe
00000010: 6d6a 0ec0 3eed 4bbe 278d 98bf ff41 3740
00000020: 349e 44bf 9e34 a3bf
-0.69609904 -0.1806153 0.08162996 -0.21784084 -2.2252457 -0.1991472 -1.1918076 2.863403
-0.768039 -1.2750432

fc.weight f4 [5, 10]
00000000: 0610 8f40 212e d3c0 377e 9ec1 1a19 853e
00000010: 17ef 0b3e 8092 85be 743e 8840 c3f1 3cc1
00000020: 6eaf 3ec1 b970 6741 f6d0 ae3f 9679 61bf
00000030: d9e7 efbf 0879 21bf a8dc 00bf dae2 963e
00000040: 815f da3f d9ab 44c0 d55b 51c0 2fbd e83f
00000050: aa5d 12c0 c4ea d83f b8ff 183d 53ab 5e3d
00000060: 3bc2 c33f ac00 6ebe a14c 9ebf 02a1 2d3e
00000070: f938 f03f 7545 90c0 d714 cfc0 488b ce40
00000080: dc9a f43f 345c 623e 365d 5a40 a55f bbbc
00000090: eab5 50c1 1b0e bebe e042 903f 5b45 d4c0
000000a0: 07c3 50c1 2148 80c1 bbf4 2040 dce9 56be
000000b0: c130 4ac1 fa81 62be d3a0 93c1 c5cc 9e40
000000c0: 2a89 0ac0 31a4 5341
4.470706 -6.599381 -19.811628 0.25995713 0.13665424 -0.26088333 4.2576237 -11.809024
-11.9178295 14.46502 1.365752 -0.8807615 -1.8742629 -0.63075304 -0.50336695 0.2946995
1.7060395 -3.0729887 -3.27123 1.8182734 -2.2869668 1.6946645 0.037353247 0.054362606
1.529365 -0.23242444 -1.2367135 0.16955951 1.8767387 -4.5084786 -6.471294 6.454502
1.9109759 0.22105485 3.4119391 -0.022872755 -13.044413 -0.37120137 1.1270409 -6.6334662
-13.047614 -16.03522 2.5149372 -0.20987648 -12.636903 -0.22119895 -18.453527 4.9624963
-2.1646218 13.227586

fc.bias f4 [5]
00000000: b31c 8140 6a2d 22c0 a3a2 4ac0 a759 4cc0
00000010: 3317 1841
4.0347533 -2.5340219 -3.1661766 -3.192972 9.505664
