models/FFSD-5-hidden-1-input-2-layer-2-disc.pth (torch, 3498 bytes, 6 tensors)

feed.0.weight f4 [5, 10]
0	0x3d61559d	0.055013288
1	0xbfa7ef4b	-1.3119901
2	0xbfc8b54e	-1.568033
3	0xbf1b27df	-0.60607713
4	0xc0075815	-2.114751
5	0xbf6f2ca0	-0.9342747
6	0xc022910d	-2.5401032
7	0xbf79c57b	-0.97566956
8	0xc068867f	-3.633209
9	0xbff25cfa	-1.8934624
10	0xbf6ee7c1	-0.9332238
11	0xbdce6610	-0.100780606
12	0x40008f00	2.008728
13	0xbfbbffd7	-1.4687451
14	0x3f99483f	1.1975173
15	0xc01304dc	-2.2971716
16	0x3fa5bc93	1.2948173
17	0xbf9a3b30	-1.2049313
18	0xbf3872d4	-0.72050214
19	0x3f00b4d8	0.50275946
20	0x3f3bc532	0.7334777
21	0xbe425327	-0.18977033
22	0x3f2c72eb	0.6736285
23	0xbf97fdca	-1.1874325
24	0x3ec37d3a	0.38181478
25	0x3f54515a	0.8293663
26	0xbe0250ce	-0.12726137
27	0xbef6ee85	-0.4822885
28	0x4050e316	3.2638602
29	0xbfac904d	-1.3481537
30	0x3f7a09cf	0.97671217
31	0x3eaab662	0.33342272
32	0x3ed6ba3d	0.41938964
33	0x4003ea75	2.0611851
34	0x3f3d4d63	0.7394621
35	0x401a4d88	2.4109821
36	0x3fb7ca3b	1.4358591
37	0x4068f402	3.639893
38	0x3fb15fe9	1.3857394
39	0x405f5d69	3.4900763
40	0xbf78cd96	-0.971887
41	0x3fbb38ca	1.4626706
42	0xbff67ec3	-1.9257435
43	0x3fc447ae	1.5334375
44	0xbd9fe3e9	-0.07807142
45	0xbfb39a5b	-1.403148
46	0x3e34bef4	0.17650968
47	0xc0326a77	-2.787748
48	0xbe20f2dd	-0.15717645
49	0xbefafe93	-0.4902235

feed.0.bias f4 [5]
0	0x3e99cb9f	0.30038163
1	0xbd30b876	-0.043144666
2	0x3c178288	0.00924743
3	0x3eba0a31	0.363359
4	0xbd91ad68	-0.07113153

feed.2.weight f4 [5, 5]
0	0xc015bfab	-2.3398235
1	0x3e9f3e02	0.31101996
2	0x3ed9fd90	0.42576265
3	0x401e0b5d	2.4694436
4	0x3eb9dc1b	0.3630074
5	0x40312265	2.7677243
6	0x3f82437a	1.0176842
7	0x3f6d9866	0.92810667
8	0xbe7fa872	-0.249666
9	0x3f8d0062	1.1015742
10	0x3fc109bc	1.5081096
11	0x3f16bce4	0.58881974
12	0x3ed16e5f	0.4090452
13	0xbfffe59d	-1.9991947
14	0x3f47328a	0.7781149
15	0x400efd8f	2.234226
16	0x3fee8db9	1.8637
17	0x3fd0fba2	1.6326792
18	0xbeca129b	-0.3946732
19	0x4028590e	2.6304355
20	0xbf24531f	-0.6418933
21	0x3fee3bf4	1.8612046
22	0x3fce6a77	1.612624
23	0x4001c2af	2.0275075
24	0x3fc3b604	1.5289922

feed.2.bias f4 [5]
0	0x3ee5c894	0.4487959
1	0xbe91c38d	-0.28469506
2	0x3f21710a	0.6306311
3	0xbe4eb881	-0.2018757
4	0xbe2d84ec	-0.16945237

fc.weight f4 [5, 5]
0	0x401ac879	2.4184859
1	0xc050b638	-3.2611217
2	0xc08beaa5	-4.372393
3	0xc04d11cf	-3.204212
4	0x3eb060a6	0.34448737
5	0x3fc8b823	1.5681194
6	0xbf28769b	-0.6580598
7	0xc01d85eb	-2.4612987
8	0xbf9166d5	-1.1359507
9	0x3f67650f	0.9038858
10	0xbf82fa86	-1.0232704
11	0x3f2f805e	0.6855525
12	0xbf508837	-0.8145785
13	0x3fb006df	1.3752097
14	0x3f560e32	0.8361541
15	0xc06dc0ba	-3.714888
16	0x3f81d7c7	1.0143975
17	0x3f918601	1.136902
18	0x3f40273a	0.75059855
19	0xbf61fc0e	-0.8827523
20	0xc029ecdf	-2.6550825
21	0x3e600737	0.21877752
22	0x4008fa24	2.1402674
23	0x3f194654	0.5987294
24	0xc0a08bd7	-5.0170703

fc.bias f4 [5]
0	0x3ed0c48a	0.40774947
1	0xbebcff9d	-0.36913767
2	0x3dd2fecf	0.10302507
3	0x3e2dfe01	0.16991426
4	0x3f2fd746	0.68687856
