models/FFSD-20-hidden-1-input-1-layer-1-disc.pth (torch, 3136 bytes, 4 tensors)

feed.0.weight f4 [20, 5]
00000000: a0e0 a140 ecb8 c440 4be4 75c0 c1fc 1340
00000010: 1345 c23f b73e 683e fa2d ad3d 7048 a13e
00000020: e91e c23c 39f6 6cbe aa82 f53e d18c 813e
00000030: 1d1f 8bba 53f0 b2be 3ca4 33be c853 ebbf
00000040: fdf1 42c0 16e4 a6c0 19a6 bbc0 6e06 d4c0
00000050: b822 903e ba44 2e3e e122 75be 7ce0 f0bc
00000060: 72c4 433e f6e9 23be 00f4 8ebe f1af 7fbe
00000070: eced 9a3d f57e 203e 074c 713e 6d91 97c0
00000080: 9b77 b7c0 ef16 b2c0 8d45 54c0 ebbb 22be
00000090: 2f7b 38be 001d d4bd 6ab5 ffbd 48ff 85be
000000a0: 4584 11bf 4cac 80c0 e582 6cc0 7332 bdc0
000000b0: 0dbe 94c0 9c23 1041 df4b c5c0 8350 ce3e
000000c0: 5b2f ecc0 d6c2 3f40 480e 3740 ea1b 8f40
000000d0: c01f c040 9297 1841 5b1f 0741 9ea7 7cbd
000000e0: b74f 47bd 665e c6be e211 babe cb89 2d3e
000000f0: 4b89 fec0 89da d9bf f1ea 91c0 44ad 81be
00000100: 853b 7140 4192 2c40 d8c6 3c40 28ec 8a40
00000110: 6e46 c340 efdc b440 2c58 1340 4eeb 9b40
00000120: e491 9c40 bfbd 8140 76f0 c940 2b6e 89bf
00000130: 59ff a4c0 d0bb 6a40 bef9 3941 52fb 8bc0
00000140: f0fb 4bc0 75c8 8340 f4cc 893f a008 773d
00000150: a7a3 cebf cfbe 08c0 cc1f f740 2031 3a41
00000160: 79c5 3fc0 1840 a6be 99a0 783d 54d8 db3d
00000170: e563 8ebe eb87 763e cd48 d8bb 6ae6 70be
00000180: 3b8d 58be 2a69 babd d368 623c 142e c33e
5.05867 6.1475735 -3.842059 2.3123019 1.517733 0.22680174 0.08456035 0.31500578
0.02369638 -0.23140801 0.4795125 0.25302747 -0.0010614131 -0.34948978 -0.17543119 -1.8384943
-3.0460198 -5.2153425 -5.8640256 -6.625785 0.28151488 0.17018405 -0.23939086 -0.029403917
0.19117907 -0.16007218 -0.27920532 -0.2496946 0.07564911 0.1567343 0.23564158 -4.736502
-5.7333503 -5.5652995 -3.316745 -0.15891998 -0.18015741 -0.10357094 -0.12485774 -0.26171327
-0.5684245 -4.0210323 -3.6954892 -5.9124084 -4.6481996 9.008694 -6.1655116 0.402958
-7.3807807 2.9962668 2.8602467 4.4721575 6.0038757 9.537004 8.445155 -0.06168329
-0.048660006 -0.38743895 -0.36341769 0.16947095 -7.9542594 -1.7019817 -4.5599294 -0.25327504
3.7692578 2.6964266 2.9496365 4.3413277 6.1023474 5.6519694 2.3022566 4.8724737
4.892809 4.0544124 6.310603 -1.0736746 -5.1561704 3.6677132 11.623472 -4.3744287
-3.187252 4.11822 1.0765672 0.06031096 -1.6143693 -2.136646 7.7226315 11.636993
-2.9964278 -0.32470775 0.060700033 0.10734621 -0.27810588 0.24075286 -0.0066004754 -0.23525396
-0.21147625 -0.0910209 0.013818937 0.38121092

feed.0.bias f4 [20]
00000000: 46ce eabc 0096 1fbe 5ece 4abe 3b7e e8bd
00000010: a6ac 54be 2052 b4bd 189a a73e d33c fbbd
00000020: 3c3b 843e b665 b83d 81e3 3ebe 6175 15be
00000030: ed6d ffbc ef1c 803e 6907 933e 9962 f1bd
00000040: b030 18be 058e a93d f371 30be f006 05be
-0.028662812 -0.15584564 -0.19805285 -0.113522016 -0.20768985 -0.088047266 0.32734752 -0.12267461
0.25826442 0.09003775 -0.18641473 -0.14595558 -0.031180346 0.25022075 0.2871659 -0.11786384
-0.14862323 0.08279041 -0.17230968 -0.12990928

fc.weight f4 [3, 20]
00000000: e6d1 cac0 4dce 863d 3f34 2dbe 93ad 9ec1
00000010: 5e94 843e b37c 953e bbfa 66c0 457b 683d
00000020: 30c8 8bc0 7521 82c0 71aa 9b40 7a5c 693e
00000030: 33c8 d1c0 e6ad f53f 3bcf 1940 9515 06c1
00000040: c991 f6c0 eb9a bac0 5b56 a93e 78a8 0a3e
00000050: 7fd2 95bf d42c 86be 7d85 aabe 90aa 9ac0
00000060: 8f55 c03d 69da c2be 5971 8ebf dad0 adbc
00000070: ddce ddbf ee6f 3ec0 34d8 a4c0 d298 0bbe
00000080: 25f9 fabf f651 fcbf 3c66 e1bf 552b 6fc0
00000090: 656d 18c0 eddf 2ec0 bf96 80be 6bbd b8bc
000000a0: 5deb ecc0 8207 8abe 7844 d4bd 0792 9340
000000b0: 6f8c 873e fd04 263e c2fa 133f a306 ad3e
000000c0: a5ba 0b40 661f d5c0 2342 43c1 13d3 63be
000000d0: 632d cec0 e493 a2c0 e7f7 46c0 be30 d3c0
000000e0: 76e8 643f c929 9bc0 c217 b33d 2b28 183e
-6.3381224 0.065823175 -0.16914462 -19.834753 0.25894445 0.291967 -3.6090534 0.056758184
-4.368187 -4.066584 4.864556 0.22789183 -6.5556884 1.9193695 2.4032733 -8.380269
-7.705296 -5.831411 0.33073696 0.13540828 -1.1704863 -0.26206076 -0.33304968 -4.8333206
0.09391319 -0.3805726 -1.1128341 -0.021217752 -1.7328755 -2.9755816 -5.151392 -0.13632515
-1.9607283 -1.9712512 -1.7609324 -3.7370198 -2.381677 -2.7324173 -0.2511501 -0.022551259
-7.403731 -0.26958853 -0.10364622 4.6115756 0.2647433 0.1621284 0.578045 0.33794126
2.1832669 -6.660083 -12.203647 -0.22248487 -6.4430404 -5.080553 -3.1088808 -6.5997
0.8941721 -4.8488507 0.08744766 0.14859073

fc.bias f4 [3]
00000000: 4d85 e43e c80d 493f c124 5b3f
0.4463295 0.78536654 0.85602957
