models/FFSD-5-hidden-5-input-1-layer-2-disc.pth (torch, 4088 bytes, 4 tensors)

feed.0.weight f4 [5, 50]
00000000: 8f2d dfbf 2832 07bf 5db9 fcbf 7cf6 e2be
00000010: 3f6c 50bd ed13 953e f969 86bf 7b16 dc3e
00000020: 1ec2 30be 0949 34bd cc42 7ebe 1aa5 40bf
00000030: 2bd4 a7bf 1a8b 3cc0 56f0 e83e b5da 98be
00000040: 0abd 26bf 8885 bdbe 5e60 2e3e ea34 353f
00000050: ec30 00c0 f19b 13bf 2747 50c0 0313 ce3d
00000060: 2b50 2ebf 2667 ddbd d53f 23c0 2d5c a03e
00000070: b185 9f3f f4c3 91bf 9e55 1dbe c437 e7bd
00000080: 2ae9 debf b236 d0bf 77f8 f8bf 8fc4 75bf
00000090: 1f22 bdbf 9110 31bf 7022 09c0 4d44 d1bd
000000a0: a00c 6f3f c326 893e 76fc 82be 780b 073f
000000b0: b832 37bf 9f66 96bf 5913 dfbf 9f3d 0fc0
000000c0: e64c 7abf 9d67 38bd 3c29 823f acc7 7abe
000000d0: 05e3 00bf a949 393f 5723 023f 248c d13e
000000e0: c25d 843d 5496 2a3f 60ea 14bf 5a88 d0be
000000f0: cc97 a43f d27e 2e3f c463 4b3f 4c97 f83f
00000100: 72b4 41be 11bf fd3f c353 e63f a347 9b3e
00000110: 7ea2 643f 1139 f53f 42bf 0d40 6800 5b3f
00000120: bc2b 933f 1735 a53f 73b9 6e3e 41a9 0240
00000130: ff36 eb3f 31b6 ed3f 6477 903f 46cf c13f
00000140: 8d07 cd3f f888 9f3d f5e3 0c40 1ee1 e43f
00000150: 9960 a23f 5b87 fa3f 6851 1d40 8e09 ad3f
00000160: bfc6 1440 8ab1 0d40 2f17 1040 149f b73f
00000170: 4231 663f 66ca 8e3f 81ca cd3f 3c35 be3f
00000180: e1dc 5640 7e22 4840 b372 0b40 8c62 b340
00000190: bf2c eabe d464 9c3f 1bfe e13f 0194 be3f
000001a0: b07a b1be 8fb1 87bf 0d58 2f3e 72f4 0ebf
000001b0: c6a9 97bf fd5e 3d3f dd34 813f 5d9e 0440
000001c0: 4587 1fbd 3c8b a53f 9850 f03f a5e7 00bf
000001d0: caf6 c4be ee60 acbf 12ef 8dbf 7af8 ebbf
000001e0: 3507 a33f d44e d7bf 4894 5c3f 68b6 9d3f
000001f0: 6445 883f 6038 833d 8a46 2bbf 2e2b 29bf
00000200: c4bb 32bf 4635 6c3e 6717 903f 9bd6 d23d
00000210: b45b 7a3f 3593 a63e 6897 863f 9a3d a13e
00000220: 2a55 dfbf 8482 7dbf 9638 70bf 21b9 273d
00000230: 0ece 1fbe 674b b03f a8b7 9a3f 03ba 54bf
00000240: bbf9 88be 603a a4be 3723 de3e 1202 91bf
00000250: d3df 853d 2d12 efbf 6dc7 143f 1039 f3bd
00000260: 6b25 af3f 029d 0ebe 2812 f6be f920 8c3f
00000270: 288a 963f d8c8 4f3d 31c9 b43f a64a 393f
00000280: f9cf f63e 80bf f7bf 2222 babc 0021 69be
00000290: ff13 82be 4d62 de3e 423a e63f 91dd ecbe
000002a0: 7341 ff3f fff5 cabe 888f 953f f6e5 803f
000002b0: 2d4d 043f 3c52 3b3f 55c7 e73f 99f4 923f
000002c0: bbb9 c9be 5208 59be 205b 033f 5795 913f
000002d0: 5f94 a13f 1a64 2dbf bc50 cf3d 5d54 e93f
000002e0: e022 b63f 0ce9 5740 ba65 cd3e 013f 453f
000002f0: 9039 793f fa02 233f 8957 74bf 39a5 a43e
00000300: 3899 20bb 8770 4a3f 584b dc3f 493e 9b3e
00000310: e258 ef3e e79e 1640 b62f fdbb 8555 2cc0
00000320: 56cd 7b3c 46e1 21bf ceba 35bf 5390 f4bd
00000330: 0f40 df3e 6eb6 45bf 6332 07bf fdc8 98bf
00000340: 66ef 29c0 7f87 4fbf a46c 52bf 9703 1fbf
00000350: 23d0 fabe 9804 2f3e 88b3 19bf 6ad4 e8bf
00000360: c0f1 15bf fd63 9abf a211 babf 7edd b33e
00000370: 01bb a1bf c680 19c0 7887 a2be 52f9 6cbf
00000380: c4f3 85bf 1bc8 c6bf 7481 e2bf 79cb d1bf
00000390: 476d cfbf 822c 92bf d3b3 34c0 da69 13c0
000003a0: 9327 17c0 859a bdbf 52e8 f8bf 99d4 d5bf
000003b0: 6f69 f2bf 2d3f 68c0 8955 ecbf 531a 3dc0
000003c0: fc86 f9bf f781 8bc0 4227 67c0 0683 8fc0
000003d0: 0227 43c0 29db 0ac0 aa2f 11c0 d7b1 dabf
000003e0: ae3e 4fc0 8add 053f
-1.7435778 -0.5281091 -1.9744068 -0.44328678 -0.05088448 0.29116765 -1.050109 0.429859
-0.1726155 -0.044014964 -0.24830168 -0.75251925 -1.3111624 -2.94599 0.45495862 -0.2985436
-0.651322 -0.3701594 0.17028949 0.70783865 -2.002986 -0.5765982 -3.2543428 0.1006222
-0.68091077 -0.1081069 -2.550771 0.31320325 1.2462674 -1.1387925 -0.15364692 -0.11289933
-1.7414906 -1.6266692 -1.9450825 -0.9600305 -1.4776038 -0.69165903 -2.142727 -0.102181055
0.9337864 0.26787385 -0.25583237 0.52751875 -0.71561766 -1.1750067 -1.742778 -2.238136
-0.9777359 -0.04502069 1.0168834 -0.24490231 -0.50346404 0.7237802 0.50835174 0.4092723
0.064631954 0.6663563 -0.5817013 -0.40729028 1.2858825 0.6816226 0.79449105 1.9421172
-0.1891649 1.9823934 1.7994312 0.30328092 0.89310443 1.915804 2.2147985 0.85547495
1.1497722 1.2906827 0.23312931 2.0415804 1.8376158 1.8571225 1.1286435 1.514138
1.6017929 0.077897966 2.2014134 1.78812 1.2685729 1.9572557 2.4580936 1.3518541
2.3246305 2.2139611 2.251415 1.4345422 0.8991891 1.1155517 1.6077424 1.4859996
3.3572314 3.1271052 2.1788757 5.6057796 -0.45737264 1.221827 1.7655672 1.4888917
-0.34663916 -1.0601062 0.17123432 -0.55841744 -1.1848686 0.73973066 1.0094258 2.0721657
-0.038947362 1.2933116 1.8774595 -0.5035346 -0.38469535 -1.346708 -1.1088583 -1.8435204
1.2736574 -1.6820931 0.8616376 1.2321291 1.0646176 0.06407237 -0.6690451 -0.6608151
-0.6981776 0.23067197 1.1257142 0.10294839 0.9779618 0.32534185 1.0514956 0.3149231
-1.7447865 -0.99027276 -0.93836343 0.040948037 -0.15605947 1.3773011 1.2087297 -0.8309633
-0.2675303 -0.32075787 0.43386242 -1.1328757 0.06536832 -1.8677422 0.581168 -0.11876118
1.3683294 -0.13927081 -0.48060727 1.0947562 1.1760912 0.05072865 1.4123899 0.7237953
0.48205546 -1.9355316 -0.022721354 -0.22766495 -0.2540588 0.43434373 1.7986529 -0.46262792
1.9941849 -0.39640805 1.1684427 1.0070179 0.5168026 0.73172355 1.8107706 1.1480895
-0.39399514 -0.2119458 0.5131092 1.13737 1.2623404 -0.6773087 0.10122821 1.8228871
1.4229393 3.373599 0.40116674 0.7704926 0.9735346 0.63676417 -0.9544607 0.32157305
-0.0024505388 0.79077953 1.7210493 0.30320957 0.467475 2.3534486 -0.007726635 -2.6927197
0.01536878 -0.63234365 -0.70988166 -0.1194159 0.4360356 -0.7723149 -0.5281126 -1.1936337
-2.6552367 -0.81066126 -0.8219702 -0.6211485 -0.4898692 0.17091596 -0.6003957 -1.8189824
-0.58572006 -1.2061764 -1.4536631 0.35129923 -1.2635194 -2.3984847 -0.3174398 -0.9256793
-1.0465016 -1.5529817 -1.7695756 -1.639022 -1.6205224 -1.1419833 -2.8234756 -2.3033357
-2.3617904 -1.4812781 -1.9445899 -1.6705505 -1.8938426 -3.628856 -1.8463603 -2.9547317
-1.9494319 -4.359615 -3.611771 -4.484744 -3.0492558 -2.1696265 -2.2685342 -1.7085522
-3.2382007 0.52291167

feed.0.bias f4 [5]
00000000: dd0a 0f3e 9a88 563f c0b7 a6ba f373 a93c
00000010: 2132 543f
0.13968988 0.8380219 -0.0012719557 0.020685172 0.8288899

fc.weight f4 [25, 5]
00000000: 2c01 8cc0 3457 a23f 5169 98bf 28ea 8ebf
00000010: 0783 b3c0 9b8d d6bf d7ca ab3f 2f20 dd3d
00000020: 3f81 b03d 213f 57c0 9292 7c3f b0db 563d
00000030: 28ee aa3f 5195 c53f da43 6bbe 311b 093f
00000040: dff0 28c0 874f 23bf beae a2bf e07a cd3f
00000050: 5e92 1ebe e83b 89c0 25a5 f0bf a0e3 28c0
00000060: 773c 0740 68cf 91c0 a8d3 e73f 811c acbf
00000070: 786f 93bf 8eed c8c0 70af f2bf 21c9 b83f
00000080: 58f3 b1bd d253 393e a703 62c0 b0c3 853f
00000090: 9af0 563d a92c 653f 053b a03f 602b f0be
000000a0: ed4c 0e3f a51e 3dc0 bf37 90bf 5282 dfbf
000000b0: 44d0 b73f 4d25 21be 7762 a3c0 78cc 34c0
000000c0: 40b6 73c0 968b f73f 631e 98c0 4f8b cd3f
000000d0: 40a9 6d3e 7ffc 593e 71de 95c0 4439 8dbf
000000e0: 7463 b23f 1919 823e ce32 123f af92 1ec0
000000f0: 03fd 713f 19ce 003e 00bc 963f 1791 4d3f
00000100: 5faa 1fbe 7905 e73e 5992 35c0 4c45 55bf
00000110: 2b42 00c0 6ea4 c13f 7e7b b13d 6a54 8fc0
00000120: f11b f4bf 26e9 52c0 74bc 1240 ff08 91c0
00000130: 02c1 a63f 9462 dabf 77ac 86bf 7733 b1c0
00000140: 4a8c 03c0 ad4b ac3f 590a 42bf c273 6abe
00000150: bd05 74c0 c966 c63f a560 eb3d e3b5 a93f
00000160: d075 cf3f d3e2 58be 207f a93e 7181 5ac0
00000170: 8393 70bf 86d3 d4bf 232b cc3f ff89 68bf
00000180: 43e0 aac0 213c 39c0 a87f 1ec0 856c 2040
00000190: a4f7 4cc0 c715 ad3f f111 0ac0 a070 48c0
000001a0: 065b 68c0 5f1e 91bf 11cc b83f 0c62 47bf
000001b0: eb01 a4bf 3e22 23c0 1502 993f 4ee8 993e
000001c0: 4295 7e3f 0eca f53f e06f 8a3c 4b31 6ebe
000001d0: 6e68 53c0 0ac8 6cbf 3570 aebd 2930 933f
000001e0: 3530 25bf a2da 73c0 cefe e9bf e9c0 10bf
000001f0: b05f bb3f
-4.375143 1.2682862 -1.190714 -1.1165209 -5.6097445 -1.6761965 1.3421277 0.10797154
0.08618402 -3.363228 0.9866115 0.052455604 1.335393 1.5436193 -0.22975102 0.53557116
-2.6397016 -0.63793224 -1.2709577 1.6053123 -0.15485522 -4.288563 -1.8800398 -2.6388931
2.1130655 -4.556568 1.8111467 -1.3446199 -1.1518393 -6.2789984 -1.8959789 1.443638
-0.08688992 0.18098381 -3.531473 1.0450344 0.05247555 0.8952127 1.2518011 -0.46908092
0.5558613 -2.9549954 -1.1267012 -1.7461646 1.4360433 -0.15736885 -5.1057696 -2.8249798
-3.8079987 1.9339473 -4.7537093 1.6058139 0.23209095 0.21287726 -4.6834035 -1.1033101
1.3936601 0.25409773 0.5710877 -2.4777029 0.9452669 0.1257862 1.1776123 0.80299515
-0.15592335 0.45121363 -2.8370574 -0.83308864 -2.0040386 1.5128305 0.086661324 -4.4790545
-1.9071027 -3.2954803 2.2927523 -4.532348 1.3027651 -1.7061334 -1.0521382 -5.5375323
-2.0554376 1.3460594 -0.7579704 -0.2289572 -3.8128502 1.5500118 0.11493043 1.3258632
1.6207829 -0.21180277 0.331048 -3.4141505 -0.93975085 -1.6627052 1.5950664 -0.90835565
-5.3398757 -2.894295 -2.4765415 2.5066235 -3.2026148 1.3522271 -2.157345 -3.131874
-3.6305556 -1.1337394 1.4437276 -0.7788398 -1.2813085 -2.548965 1.195376 0.30060047
0.994465 1.9202287 0.01689905 -0.23260991 -3.303249 -0.92492735 -0.085174955 1.1499072
-0.64526683 -3.8102193 -1.8280885 -0.5654436 1.4638577

fc.bias f4 [25]
00000000: 2ba6 8f3f 3850 833e b4db 2a3d 995f 21bf
00000010: c780 2bbf 6256 0d3f 2265 463d b803 d53c
00000020: bd78 09bf b934 c6be 936d b83d 96a7 87be
00000030: ac86 fe3d 0f39 43bd fb62 15bf ee0d 283e
00000040: dc96 f43e 2e0b dcbd ed5c 3cbe f9ee 56bf
00000050: b077 0d3e 4520 dbbd a7a6 cebd 3a04 dd3e
00000060: 3124 ddbe
1.1222585 0.2564714 0.04171343 -0.63036495 -0.66993374 0.55209935 0.04843629 0.02600275
-0.53699857 -0.387121 0.090052746 -0.26495045 0.1242803 -0.047661837 -0.5835416 0.16411564
0.47771347 -0.1074432 -0.18394823 -0.83958393 0.13815188 -0.10699514 -0.1009038 0.43167287
-0.43191674
