models/FFSF-10-hidden-1-input-2-layer.pth (torch, 5486 bytes, 5 tensors)

feed.0.weight f4 [10, 50]
00000000: e646 06c0 c4f2 a9c0 eed3 25c0 5434 2d3d
00000010: c925 16c0 a229 d23f af00 10c0 efdf 6a40
00000020: 53f2 5340 2760 043d 323c 2dc0 0ce5 1d40
00000030: 73ba 6abf 543c 05c0 e501 173e 3d63 4c40
00000040: 55c3 02be e445 0940 e10c 4ebf dd15 e53e
00000050: b0db 85bf 228b f8bf eedf a5bf b740 9c3f
00000060: 3543 c83f 9bc2 c8bf 9857 d63e 97f7 1fc0
00000070: a596 8dbf f471 383e a059 adbf 9aa1 353e
00000080: 191f 8c3f bd44 493f 6cd1 02bf df8e a0bf
00000090: 10e9 e1ba cd2f 6340 750e 2240 4b8f 0a3f
000000a0: 46aa d13f c398 25c0 5981 a63f 5356 1ac0
000000b0: 3aba efbe e0fd 00c0 3488 e93f 0c95 bcbf
000000c0: fa90 2540 0be5 7bc0 1aed 91bf 2ca9 1b40
000000d0: ac60 6ec0 d746 b0bd 0844 2e40 0d44 bd3d
000000e0: 4b96 b43f 6f4a 4a3f 0ae3 e63f 0398 e2bc
000000f0: f49b 493f 02d9 41bf f1bb 2b3b e5a1 19be
00000100: b818 2940 de8f 59c0 fd70 9ec0 fcd8 9f3f
00000110: 8755 8f3f 97de 37c0 c1d8 7d3f 4820 0ac0
00000120: 1ac4 d7bf fcb3 a1bf a59d 61c0 7570 5ebf
00000130: 050d 56bf c40f 94bf 25a5 7fbf f603 3240
00000140: 218a 79bf b9ec 21be 98f8 c13f 35c6 b0bd
00000150: 7c95 2440 cb30 57c0 9ba2 d93f d52c 9040
00000160: eac3 3940 49bb 85bf 187b 3dbe 4c85 8dbf
00000170: be0b 5fc0 a681 7fbd 2a2a b23e 658c 0e3f
00000180: 9205 1fc0 4eaa 86c0 d28c 25c0 92e7 8abf
00000190: 1817 1ec0 ffad 80c0 18f8 97bf f8b7 a240
000001a0: 87ea f7bf 1c8c e23f 3a36 13c0 47d5 8f3f
000001b0: 165f de3f 5eca 89bf cb12 c93f 34ce e140
000001c0: a086 d3c0 0313 0740 df5b 3740 54d8 e840
000001d0: 7994 f93f 5745 5040 93c1 8fc0 fe3a 7640
000001e0: 33e8 9940 adb9 c73f c606 3fc0 9515 01c0
000001f0: 5c90 0d40 893e 703f 92fa 83bf ff38 c1c0
00000200: a28e e3c0 474c c9c0 2ea4 7740 b738 0241
00000210: 33f2 d6bf eb0a c940 21cd 0940 3222 9f40
00000220: 75cb 38c0 a259 82bf 67c4 2640 65c3 b3c0
00000230: cde7 7fc0 9662 54c0 54d5 063e 7bc5 13c0
00000240: c10a f13f 3c4c 51c0 6c84 9440 392c 0a41
00000250: fdb8 89c0 a95a 5ac0 9eb4 ddbf 9bfc 533f
00000260: 6a14 bf3f 95c3 c13d 83e0 cb3f 0dfe 7dbf
00000270: 3dae 8e3f 11a0 653f 64d6 63c0 5aec 5e3f
00000280: 6fde b3be b394 bfbf c703 0cbf 6781 6cbf
00000290: dd17 d7bf 4586 00be 268f bdbf a958 41bf
000002a0: 3f54 5c3f e149 77bf 2837 e3bf e9c5 e2bf
000002b0: 08db dfbf 5050 483f e845 303f acf4 123f
000002c0: 4c14 ab3f e6b1 b73e 7f4d 323f 1adb d33e
000002d0: 3bb8 17c0 3158 443f b69f ae3e b91a e5bd
000002e0: 6f37 50be f90b 21bf cf8c 7dbf 73cf c4bf
000002f0: 4914 603f b71c 14c0 5f8e 63bf f381 a73f
00000300: 0310 84c0 2045 d3bf ab09 8f3e af57 7d3f
00000310: 4735 bc3f b374 9cbf 5823 e0bf 29ce 1ebf
00000320: ff89 023f e8d1 5e3e 85c3 9bbc 4d22 9fbe
00000330: 094b 993d e803 ca3f dd86 e03d 53a4 0640
00000340: 1e31 0cc0 c932 49bd 7a91 02bd 25e9 5e3f
00000350: 29df 1d3f 4f16 d13f 7f22 53be 3ea4 a73f
00000360: cb28 573f a2be 2fc0 651c 6c3f b46c 68bf
00000370: cd1e ecbe 2925 333f 44cc a63f 6a7a cc3e
00000380: 4261 68bf 68a7 35bf a876 f93f f163 6f3f
00000390: 8d55 5e3f 3cd6 95be 6f9c 313f 1f5e b7bd
000003a0: 4e28 2640 b3ef fcbe 6610 ddbf 8e2d ca3e
000003b0: c64e 603e 985c 98bf dd21 a7bf f21c dbbe
000003c0: 6491 c53f 7234 fbbd cbae a93f efc8 ee3f
000003d0: 3859 903d f520 303f 28b1 1a40 5660 d63f
000003e0: bc7d 96be ba0e 8d3f 8afc 2240 5077 7b3f
000003f0: 97d7 d03f d70b 61bf 1a98 9140 5700 6140
-2.0980773 -5.3108845 -2.5910602 0.042286232 -2.3460562 1.6418955 -2.2500417 3.6699178
3.3116653 0.03231826 -2.706799 2.467105 -0.9169075 -2.0818071 0.14746816 3.193557
-0.12769826 2.1448908 -0.804884 0.44743243 -1.0457668 -1.941746 -1.2958963 1.2207249
1.564551 -1.5684389 0.41863704 -2.4994867 -1.1061598 0.1801222 -1.3542976 0.17737427
1.094699 0.7862051 -0.511008 -1.2543601 -0.0017235596 3.5497925 2.5321324 0.541249
1.6380088 -2.5874488 1.3008224 -2.4115188 -0.46821767 -2.0154953 1.8244691 -1.4732985
2.5869737 -3.9358547 -1.1400483 2.4322004 -3.7246504 -0.08607262 2.7229023 0.09241495
1.4108366 0.79019827 1.8038037 -0.027660375 0.7875359 -0.7572175 0.002620455 -0.15003164
2.6421337 -3.399406 -4.9512925 1.2488093 1.1197976 -2.8729608 0.99158865 -2.1582203
-1.685672 -1.2633052 -3.5252469 -0.86890346 -0.83613616 -1.1567311 -0.99861366 2.7814918
-0.97476393 -0.15812959 1.515399 -0.08631555 2.5716238 -3.362353 1.7002748 4.5054727
2.9025826 -1.044778 -0.18503988 -1.1056304 -3.4850917 -0.0623795 0.34797794 0.55682975
-2.484715 -4.208289 -2.58672 -1.085192 -2.4701595 -4.0212398 -1.1872587 5.084957
-1.9368447 1.7699008 -2.3001847 1.1236962 1.7372768 -1.0764883 1.570886 7.0564213
-6.6101837 2.1105354 2.8649824 7.2764072 1.9498435 3.2542322 -4.4923797 3.8473506
4.8095946 1.5603539 -2.9847884 -2.0169423 2.211936 0.9384542 -1.0310843 -6.0382075
-7.111161 -6.290561 3.8693957 8.138846 -1.6792663 6.2825828 2.153145 4.972924
-2.887418 -1.0183604 2.6057374 -5.617602 -3.998523 -3.3185172 0.13167316 -2.3089283
1.8831407 -3.270278 4.641165 8.635797 -4.3038316 -3.4117835 -1.7320745 0.8280732
1.4928105 0.094611324 1.592789 -0.99215776 1.1146923 0.89697367 -3.5599604 0.87079394
-0.3513064 -1.4967254 -0.54693264 -0.9238495 -1.6804157 -0.1255122 -1.480931 -0.7552591
0.8606605 -0.96597105 -1.7751207 -1.7716647 -1.7488718 0.7824755 0.6885667 0.5740459
1.3365569 0.35877913 0.696495 0.413781 -2.3706195 0.7669707 0.34106225 -0.111867376
-0.20333646 -0.62908894 -0.9904298 -1.5375808 0.8753095 -2.3142526 -0.88889116 1.3086532
-4.1269546 -1.650547 0.27937064 0.9896192 1.4703759 -1.2223114 -1.7510786 -0.62033325
0.50991815 0.2175976 -0.01901413 -0.31080857 0.07485015 1.5782442 0.10963223 2.1037796
-2.1904979 -0.049120698 -0.03187702 0.870745 0.6166864 1.6334933 -0.20618628 1.3096998
0.8404662 -2.7460103 0.92230827 -0.9079087 -0.4611725 0.69978577 1.3031087 0.39937145
-0.90773404 -0.70958567 1.9489336 0.93511873 0.8684929 -0.2926501 0.69379324 -0.08953499
2.59621 -0.49401626 -1.727063 0.3948788 0.2190505 -1.1903257 -1.3057209 -0.4279552
1.5434995 -0.122658625 1.3256468 1.865507 0.07048267 0.6880029 2.4170628 1.6748149
-0.29392803 1.1020119 2.5466638 0.9822893 1.6315793 -0.8790869 4.549817 3.5156457

feed.0.bias f4 [10]
00000000: ae97 173e 8680 2bbf 51b0 adbf 7507 62be
00000010: f05d b6be 8f78 16bf 14a6 b4be 900e bdbe
00000020: caf4 cb3e 4832 b6be
0.14803955 -0.66992986 -1.3569432 -0.22073157 -0.35618544 -0.5877771 -0.35282958 -0.36925173
0.39835197 -0.35585237

feed.2.weight f4 [10, 10]
00000000: 9545 f7bf f8df a3c0 a660 153f 3d57 e0bf
00000010: 6687 e7bf 8d65 883f f0a3 cebe 4ab3 20c0
00000020: 9f4e 3abe 5545 57bf 385f f53e cce9 05bf
00000030: 3317 c9bc 2ec3 aac0 4a48 3b40 21c0 b7be
00000040: 3d9f 923f fe35 823f d679 1dbf 9792 e2bf
00000050: d420 85bd 6075 3e3f eb8a 813e 2b07 c0c0
00000060: d490 3540 435f 1c3e 13a3 253f ad3b ed3e
00000070: 73ad 053e 76b6 2dc0 76a9 903f 70ad 7f3f
00000080: f898 83bf 14e5 acbe 59fb b1c0 2855 fa3f
00000090: 8d4b 3a3f 30d6 80bf d0cb 89bd 0380 6b3e
000000a0: 7241 923f 84bf 283f 5675 d8bd a597 e93f
000000b0: ec37 bd3f 8cd5 653f f970 433f c0fc 6ec1
000000c0: 1f9d bcbf 9323 8fc0 7bdb 2e3d 0efa 4d3f
000000d0: 0a07 47bf 9afd 4e3e caca a43f 9d14 12be
000000e0: d2f0 973f cfb8 c33e 6382 07c0 e0c4 2cbf
000000f0: 19ac 76bf ee1c 153f 4928 dabb 9fb3 8f3f
00000100: 1c2a 6b40 c99b dfbf 9531 61c0 9fd6 d33e
00000110: 2fb1 b73f 0f61 81c0 b570 c7bf 2202 c7c0
00000120: 2e6d c8be 3215 aa3f 17dd 3640 7537 44c0
00000130: 9b8a e0c0 3a2e 7f3f ce8f b13f 3f98 0bc0
00000140: 3059 ddba 1e32 8b3c 0589 84c0 8bf7 9e3e
00000150: 8fd7 71c0 7762 8cc0 8a4b 5ac0 d9f7 903f
00000160: f244 4abf 5500 813f 9cf7 b1c0 c82c ea3f
00000170: eeb2 c93f 0342 86bf 4311 9ac1 0a09 f83f
00000180: d9d1 e23f e42e b03f 03e6 f33d f085 d23f
-1.931811 -5.12109 0.583506 -1.7526623 -1.8088195 1.0655991 -0.4035945 -2.510943
-0.18194054 -0.8409017 0.4792421 -0.5230987 -0.024547195 -5.3363256 2.9262872 -0.3588877
1.1454846 1.0172727 -0.6151403 -1.7700986 -0.06500402 0.7439785 0.25301298 -6.000875
2.8369646 0.15270714 0.64701957 0.46334592 0.13054447 -2.7142615 1.1301715 0.9987402
-1.0281057 -0.33768523 -5.561932 1.9557238 0.7277153 -1.0065365 -0.06728327 0.22998051
1.1426222 0.6591723 -0.10569255 1.8249403 1.4782691 0.8977897 0.7634426 -14.936707
-1.473545 -4.4730926 0.04268978 0.8045968 -0.77745116 0.20213929 1.2874386 -0.14265676
1.1870368 0.38226935 -2.1173332 -0.6748791 -0.9635635 0.5824727 -0.0066576344 1.1226691
3.6744452 -1.7469417 -3.5186512 0.4137468 1.4350947 -4.043098 -1.558127 -6.2190104
-0.39145797 1.3287718 2.8572443 -3.0658848 -7.0169196 0.9967991 1.3872011 -2.1811674
-0.0016887542 0.016991671 -4.141726 0.31048235 -3.7787817 -4.3870196 -3.4108605 1.1325637
-0.7901145 1.0078226 -5.5614758 1.8294916 1.575773 -1.0488895 -19.258429 1.9377759
1.772029 1.376431 0.11909106 1.6447124

feed.2.bias f4 [10]
00000000: c0f5 3e3b 1c9b 85bf 5c5f 5a3d cdd7 9fbf
00000010: 8c48 a3be 7399 9f3d db9c 4cbf 8ec0 5ebf
00000020: a847 7fbe 4f66 b7be
0.0029138178 -1.0437961 0.053313598 -1.2487732 -0.31891286 0.0779294 -0.7992684 -0.87012565
-0.24929678 -0.35820243

fc.weight f4 [1, 14]
00000000: bfa2 9bbe 3529 26be 368b c93d 0cb1 ecbd
00000010: 04bf 0b3e c14f 8bbe 6af3 69be ee3b a43e
00000020: b628 92be d94c 623e ec3b 993d a495 0cbd
00000030: f27b 25bd a460 273f
-0.30397603 -0.16226657 0.098410055 -0.115572065 0.13647085 -0.27209285 -0.22846761 0.32076973
-0.28546685 0.22099628 0.07482132 -0.034322396 -0.040401407 0.65381837
