models/GSF-140-hidden-3-input-1-layer.pth (torch, 248174 bytes, 6 tensors)

gru.weight_ih_l0 f4 [420, 3]
00000000: 4fa3 9ec0 7973 3cc0 688a 7440 c5f2 3a40
00000010: f49d bbbf cd6e cb3f 1b93 acc0 3bcd 973f
00000020: 2146 c23f 595a 663e 8a5b 1abf 4545 8140
00000030: 94a4 863f 84a8 7ebf 4d96 dfbe f445 b13f
00000040: 0f58 d7bf 1cf9 8340 8004 5d40 bf40 0fc0
00000050: 5a93 22c0 4de1 9e3f 618b 5bc0 6009 13c0
00000060: 91a7 1b40 b500 9f3d 657b bdbf 869d 91bf
00000070: f368 7d40 aed0 29bf 1278 95be a98d 08bf
00000080: 0789 0f3e f8cb c3bf 2eac 01bf 967d 3f40
00000090: 73f3 c53f ecbd b93f 1827 75bf a00c 07c0
000000a0: ed18 803f 4e31 89bf 6aa4 5440 390e e1bf
000000b0: 0482 e5bf 15f7 1e40 d519 6640 b5be a840
000000c0: 0276 d8c0 67f2 38c0 cf03 89c0 5cb4 66bf
000000d0: 8f55 ecc0 fc62 3ec0 8e11 873f 3b08 b5bf
000000e0: 36af c83f 6f01 9ec0 e51a 0f40 f510 3d40
000000f0: d002 f13f eda8 d03f 287d 9fbe 997c 89bf
00000100: 62bf f93e c829 a3be 95b1 9ebf df71 b23f
00000110: 6786 dbbf 4f36 6f40 7a4e f9bf 2db0 0240
00000120: 5c40 cbc0 06fb e5c0 b470 05c0 f442 2fc0
00000130: 319f 0bc0 d742 f0bf 8fe1 a0bf e1d6 1640
00000140: 8c1d 4740 c149 aa3f bae1 4640 bc44 cebe
00000150: 1061 b6c0 5210 1b40 6a49 43c0 d1b6 48bf
00000160: 4a15 9340 37a6 0841 b1dc 6bbf a353 16bf
00000170: 6144 b540 d36c ecbe 3bc2 4840 8096 873f
00000180: 5c36 1240 67d7 03c0 068e fd3f 5e29 6bc0
00000190: 2ff9 7840 5117 53bf 4e0f 2ac0 cd2d 0f40
000001a0: a555 bebf 6a86 e43f c55e f83f aed2 7240
000001b0: 6151 9540 a8cb 86be 0ce7 80bf fb92 32c0
000001c0: 37bf 033f 3d49 e9be b129 ae40 f20e c7bf
000001d0: ea29 af40 ec71 0f40 63b5 7840 26b1 fbc0
000001e0: b658 b3bf 4e28 483d 4a41 79c0 07e3 fdbf
000001f0: 6f5b 38bd aa05 7fbf 7e5a d53e f1eb b8bf
00000200: 633e babf e5e5 95be ffd0 9fbf 1360 8ebf
00000210: a175 e83d 6d97 2140 37eb 2b3f 8a4f 3940
00000220: 54aa 4040 513a 0040 3f53 5ebe 363b eac0
00000230: 395d dc3e 7f23 1440 dad6 8840 4847 2240
00000240: e19c c1bf d1b1 3640 ed7d 25c0 f3b6 c0c0
00000250: e8be b53e 023a 8cbe 551e 7ac0 cef3 3040
00000260: 24a9 e2bf f852 f6c0 7a58 30bf e564 39c0
00000270: 0702 e8bf 1d91 bc3f 6b89 2640 3b4d f6bf
00000280: 7632 06bf face 823f 95bf 4ac0 0be4 54c0
00000290: c0d8 2cc0 f9c2 733f 3eaf 1440 6947 cbc0
000002a0: d5ff 4fbf 52a2 8cc0 c913 553d bbf6 e1bf
000002b0: fca1 8ebe 855c 1840 b539 9f3f 7708 6bc0
000002c0: 7494 de3e 1132 37c0 bd7a 4cc0 747b 41c0
000002d0: c80b ce3f bc71 8240 040a d23f 1ecc 69c0
000002e0: b484 bb3f 83a2 7540 bf33 5e40 5c90 003f
000002f0: 7e54 f5be 9d8b 92c0 47f4 dbbf a88d 4bbf
00000300: 8584 0a3f dce8 25c0 09c0 6cc0 81be 5540
00000310: ed45 4ebe b7f1 b1be 71e7 91c0 2fec bac0
00000320: 0a16 cd3f 813b 1340 2e1f f83e 1da1 1ebf
00000330: cc80 3ac0 9022 263f 8f75 4bc0 81ec 5cc0
00000340: a81d 1dc0 9eb9 11c0 2af6 57c0 dd20 4840
00000350: a910 63c0 c949 9cbf 57f4 0b40 ac9a 8940
00000360: bce3 66bf 5c0b a0bf b2da 60c0 e753 b6bf
00000370: 7129 b9bf bd2c 53bd 1f86 1c40 be29 efbd
00000380: 616f 03c0 1afc f73f 0e95 3fbd 2f07 bcbf
00000390: 9cc9 1f3f 29c1 333f c80a 55c0 ada9 9a3e
000003a0: 0aa7 5a40 6722 313d 9b70 6f3f 1a6f 633e
000003b0: aaea 2540 8dd2 6fc0 b0f8 993f d3d9 d63f
000003c0: a4bd 91c0 3a68 a3bf beec 4140 94d3 6440
000003d0: 67be ef40 77cd 50c0 c836 22bf 7e88 4d3f
000003e0: 8e17 4140 4409 6040 53a9 60be b017 8d40
000003f0: 5493 8940 23c1 f4bf e794 9e3f ace8 acbf
-4.957435 -2.944548 3.8209476 2.9210675 -1.4657578 1.5893189 -5.392957 1.1859506
1.5177652 0.22495402 -0.6029593 4.0397058 1.0518975 -0.99475884 -0.43669358 1.3849473
-1.6823748 4.124159 3.4533997 -2.2383268 -2.5402436 1.2412506 -3.430382 -2.2974472
2.4321024 0.07763807 -1.4803282 -1.1376197 3.9595306 -0.66334045 -0.2919317 -0.53341156
0.14017116 -1.5296621 -0.5065335 2.9920402 1.546492 1.4511085 -0.9576278 -2.1101456
1.0007607 -1.0718172 3.322535 -1.7582465 -1.7930303 2.4838307 3.5953267 5.2732797
-6.7644053 -2.889795 -4.281715 -0.90118957 -7.385444 -2.9747915 1.0552232 -1.4143137
1.567847 -4.937675 2.2360165 2.95416 1.8828983 1.6301552 -0.31150174 -1.0741149
0.48778826 -0.31867814 -1.2397944 1.3941001 -1.7150391 3.7376897 -1.9477074 2.042003
-6.3516064 -7.1868925 -2.0850039 -2.7384615 -2.1815913 -1.8770398 -1.2568835 2.3568652
3.1111784 1.3303758 3.1075273 -0.40286815 -5.6993484 2.422871 -3.0513558 -0.78403956
4.596349 8.54058 -0.92133623 -0.5872137 5.664597 -0.46176776 3.136855 1.0592804
2.2845678 -2.060022 1.9808967 -3.6743999 3.890209 -0.82457453 -2.6571841 2.2371705
-1.4869887 1.785352 1.9403921 3.7941089 4.666184 -0.26327252 -1.007051 -2.790221
0.51463646 -0.4556369 5.4425893 -1.5551436 5.4738665 2.2413282 3.886071 -7.8653746
-1.4011447 0.048866563 -3.89461 -1.9834908 -0.045009073 -0.9961802 0.41670603 -1.4447004
-1.4550289 -0.29276958 -1.2485656 -1.112307 0.11350561 2.5248673 0.67155784 2.8954797
3.010396 2.0035594 -0.21711443 -7.319728 0.43039873 2.3146665 4.276227 2.5356007
-1.5126001 2.854603 -2.585811 -6.0223327 0.35497212 -0.27388006 -3.9081013 2.7648807
-1.7707868 -7.697628 -0.68885005 -2.896783 -1.8125619 1.4731785 2.6021373 -1.9242319
-0.5242075 1.0219414 -3.1679432 -3.3264186 -2.7007294 0.9521938 2.323196 -6.352467
-0.81249744 -4.3948145 0.05202082 -1.7653421 -0.2785796 2.380647 1.2439486 -3.6723917
0.43472636 -2.8624308 -3.1949914 -3.02316 1.6097345 4.0763836 1.6409307 -3.6530833
1.4649873 3.838044 3.4719083 0.50220275 -0.47916025 -4.5795426 -1.7183923 -0.79513025
0.5410846 -2.5923376 -3.699221 3.3397524 -0.20143862 -0.34754726 -4.559502 -5.841331
1.6022351 2.3005068 0.48461288 -0.6196459 -2.9141111 0.6489649 -3.1790502 -3.451935
-2.454935 -2.2769542 -3.3743997 3.1270058 -3.5478919 -1.2210017 2.1867883 4.300131
-0.90191245 -1.2503467 -3.513348 -1.4244355 -1.4465772 -0.051556338 2.445686 -0.116778836
-2.053673 1.937381 -0.04677301 -1.4689692 0.62417006 0.70216614 -3.328783 0.30207577
3.4164453 0.0432457 0.935312 0.2221035 2.5924478 -3.747226 1.2029018 1.6785225
-4.5543995 -1.2766182 3.0300746 3.5754137 7.4919925 -3.2625406 -0.6336484 0.80286396
3.0170627 3.5005655 -0.21939592 4.4091415 4.2992344 -1.9121441 1.2389191 -1.3508506

gru.weight_hh_l0 f4 [420, 140]
00000000: 4138 c4bf ea3a 1f40 212c 4ebf 03a0 9dbf
00000010: 228c 063f 8fec e5bf d9f4 0fc0 5abe 423f
00000020: 1765 e83f 0531 2ac0 00df c6be ae97 d6bf
00000030: 3d74 083e 4c57 c33f 40b8 ed3d 0061 2f40
00000040: c06a 85bf b149 e2be 455a cfbe 6f27 91c0
00000050: 0615 843e 724b 3440 5e35 07bf ee28 53bd
00000060: f283 1cc0 0b94 1f40 78a2 3040 4b8a 0640
00000070: cb5e 5fbf 5b77 eb3b 3f65 55bf 3c89 a43f
00000080: 5801 5140 0c1f 933f 6465 9abf cb8f 5740
00000090: 04f3 5a40 9650 cebf ece7 1b40 cbed a2bf
000000a0: 0655 4040 196e e53e 6188 27bc c43f afbe
000000b0: ce08 08bf 9a5d a2bf 8a58 f3bf 4254 6cc0
000000c0: 6bb7 4ac0 0efa 4dc0 a8bd 25bd 53c3 c4bc
000000d0: 635f f6bf f1c8 5dbf b3a6 903f fa30 1fc0
000000e0: 84ab 0d40 46f2 23be ebe5 3540 3f89 bfbf
000000f0: f154 0dc0 addf 3d3f 73b9 63c0 575a 163f
00000100: e6aa 8f3f 21ae 17c0 537f 87c0 e0b5 f1bf
00000110: f4f5 8ebf e1bc 16c0 f4a7 363e a9aa 123e
00000120: 08f9 8140 8f25 a3bf 9230 42c0 08bf dc3e
00000130: 6ea6 3240 5bdd 723f 792d 923f 7d8e 9f3f
00000140: 4bdc e9be 9ee1 4440 7d11 15c0 2a00 8f40
00000150: a47d 383f 8ebb 0440 96c6 18c0 022c b83f
00000160: fe7e ccbe de0e d93f 111f 413e 4832 5ac0
00000170: 742d 65c0 3c2e c6be 989c 1abe 56cf 44be
00000180: 8b67 6a3f 26cf adc0 6c5a 16c0 c98d f63e
00000190: 9c07 2abe 7e1f ccbf 2127 8ebf 767c e9bf
000001a0: 9f74 943f bd08 4ebf e0ad acbe e008 d1be
000001b0: 010b 753d 337f cabe ca45 983f 2922 4b3e
000001c0: afcb 303f f016 1e40 2fca 0cbf 65ca adbe
000001d0: 4375 c43f 2d75 b1bf e3af 53bd 7cf1 5bc0
000001e0: 8947 b43f ad52 2b40 7e0e 1cc0 958b c93f
000001f0: 03d4 0ac0 eaff 30bf 06a4 ce3f e501 1240
00000200: 1fa6 01bf 795c 9c3f 43d9 5340 5bb7 2bbf
00000210: e375 38c0 5845 59bf aa71 0440 e1eb 19bf
00000220: 0b61 88bf 2105 c2bf 01d9 d73f f184 6a40
00000230: 7240 de3f 60f8 a7bf 01a9 18c0 4a2b 8fbf
00000240: 716a 63bf 5e60 0e40 2c87 25bf a133 663f
00000250: 545d 42be 53ef 183e d109 cabf 5e8d bd3f
00000260: e625 353f 322f 2ac0 e45f b7bf 6118 17c0
00000270: eee4 9b3f 97bf 01bf b37d e83f 6463 d23f
00000280: f00a 563f d5bc 303f 5c2b 883f 2720 d63e
00000290: 16ea 373f 657b c73f 512c 19bf ae2c 0dbe
000002a0: 652d 063f c5c6 c5bf 9d6c 9bbf b5df 6cbf
000002b0: 028d d7bf 7987 a5be 731b 1c40 06fc 3a3f
000002c0: 3aaf 993d 85b2 e6bf 3fe8 92bf 1586 223f
000002d0: 1460 c03e 8b03 54c0 d713 933f 5fd3 edbe
000002e0: 1e19 10c0 488d 0b3f 35b3 15c0 c0e6 dbbf
000002f0: d595 5bc0 fb02 c2bf 6d7d 353f eeb6 3fbe
00000300: 3a78 c3bd 652e 30bf d848 4f40 3036 663f
00000310: 0e5c f1bf bc58 903f 8e36 d13e b8ca bfbc
00000320: 822a cf3f fc58 12bf c8a0 a3bf c00f 20bf
00000330: 3a89 4fbf 1553 66bf 1d71 3ec0 e4ee 3b40
00000340: e9f0 58be d047 abbf 5bcf 01be 8674 6d3f
00000350: bc4f dd3f f420 bb3e ba5e c7be 7782 dc3f
00000360: 954c a63d 2e60 763f 57f5 a73f 9f2c dd3e
00000370: e909 723f 1e96 843e 6e02 7bbe 46a2 923e
00000380: 6f7a b13f 0551 37bf f2f9 20c0 aeee 3ebf
00000390: e47c 8ebd 3775 093f 5090 ccbe c7e7 dfbf
000003a0: 16b0 9bbf b205 2a3c 449d 4abf 1902 1c3e
000003b0: 2c1c 983e 9a9f 853f 1d0b 1340 9dd5 0cbf
000003c0: 819c 0340 8f44 5bbf 69ba 6fbf 0473 9d3f
000003d0: cbfc 6ebf 8352 683f 4808 bb3f a783 b9bf
000003e0: 65bb 0040 ad3b 67be 1cb7 0ebf 3e42 6540
000003f0: 5727 c0bf 116d 52bf ae19 9cbd ed74 ab3f
-1.5329667 2.4879708 -0.80536085 -1.2314457 0.52557576 -1.7962817 -2.2493193 0.76071703
1.815585 -2.659242 -0.3884201 -1.6765039 0.13325591 1.5261016 0.116074085 2.7402954
-1.0423203 -0.44196847 -0.40498558 -4.5360637 0.2579729 2.8171048 -0.52815807 -0.051552705
-2.4455533 2.4934108 2.7599163 2.1021907 -0.8725402 0.007185859 -0.83357614 1.2854381
3.265707 1.149385 -1.2062192 3.3681514 3.4210825 -1.6118343 2.4360304 -1.2728819
3.0051894 0.4481056 -0.010225386 -0.34228337 -0.53138435 -1.2684815 -1.9011395 -3.6926427
-3.167445 -3.2183871 -0.040464073 -0.02401892 -1.924786 -0.8663474 1.1300873 -2.4873643
2.2135935 -0.16010389 2.842158 -1.4963759 -2.2083094 0.7416943 -3.558194 0.587316
1.1224029 -2.370003 -4.2342925 -1.8883629 -1.1168809 -2.3552783 0.17837507 0.14322914
4.0616493 -1.2745837 -3.0342145 0.43114495 2.791408 0.9486901 1.1420127 1.2465359
-0.45675883 3.0762706 -2.3291924 4.46877 0.7206671 2.0739474 -2.3871207 1.438843
-0.39940637 1.6957662 0.18859507 -3.409319 -3.5808992 -0.3870715 -0.15098798 -0.19219717
0.91564244 -5.4315367 -2.349269 0.48155048 -0.16604465 -1.5947111 -1.1105691 -1.8241107
1.159809 -0.80482084 -0.33726406 -0.40827084 0.059824947 -0.3955017 1.1896298 0.1983725
0.69060796 2.47015 -0.5499601 -0.33943477 1.5348285 -1.3863884 -0.05168141 -3.436614
1.4084331 2.6769211 -2.4383845 1.5745722 -2.1691902 -0.69140494 1.6143806 2.2813656
-0.50644106 1.221572 3.3101356 -0.67076653 -2.8821952 -0.84871435 2.0694375 -0.6012555
-1.0654615 -1.5157815 1.6863099 3.664364 1.7363417 -1.3122673 -2.3853152 -1.1185086
-0.8883429 2.2246318 -0.6465938 0.8992253 -0.18980914 0.14935045 -1.5784246 1.4808767
0.70760953 -2.6591306 -1.4326138 -2.360863 1.2179239 -0.5068297 1.816336 1.6436582
0.8361044 0.69038135 1.0638232 0.41821405 0.7184156 1.5584532 -0.59833246 -0.13786575
0.52413017 -1.5451285 -1.2142521 -0.9252885 -1.6839907 -0.3232992 2.4391754 0.7304081
0.07504125 -1.802323 -1.1477126 0.6348584 0.37573302 -3.3127162 1.149043 -0.46450326
-2.251533 0.54512453 -2.339063 -1.7179794 -3.43102 -1.515716 0.7089451 -0.18722126
-0.09544416 -0.6882079 3.238821 0.89926434 -1.8856218 1.127708 0.40861934 -0.023412094
1.6184847 -0.5716703 -1.2783442 -0.6252403 -0.81068766 -0.89970523 -2.975654 2.9364557
-0.2118565 -1.338129 -0.12676756 0.92755926 1.7289958 0.3654858 -0.38939458 1.7227315
0.081200756 0.9624051 1.3121747 0.43198106 0.9454637 0.2589578 -0.24512646 0.2863943
1.3865489 -0.71608 -2.5152555 -0.74582946 -0.06957415 0.5369448 -0.39953852 -1.7492608
-1.2163112 0.010377334 -0.7914622 0.15235175 0.29708993 1.0439332 2.2975533 -0.5501345
2.0564272 -0.8565149 -0.93643814 1.2300725 -0.9335448 0.907509 1.4611902 -1.4493302
2.0114377 -0.22581358 -0.5574815 3.582168 -1.5012006 -0.8219767 -0.076220855 1.3395058

gru.bias_ih_l0 f4 [420]
00000000: 81f9 19bf 7d39 44bf 347a 3fbf f2a4 6bbf
00000010: 5a84 49bf 19a4 18bf 257a 8bbf 0ea7 6cbf
00000020: dd4c 7abf f281 8ebf 96be 42bf 699f 79bf
00000030: 757f f8be 81ce d2bf 28b7 95bf 6fe9 42bf
00000040: 658c 7fbf c2c8 8fbf 8304 65bf 5a70 8cbf
00000050: 9c2d 2cbf e7d7 33bf f080 a3bf 0eff 2ebf
00000060: b3f3 e6be b170 82bf 3baa 4ebf 6429 48bf
00000070: 1061 8abf 6849 10bf 78d6 76bf 4134 11bf
00000080: 2b1a 75bf 16c1 30bf 36dd 0ebf 1ff1 8abf
00000090: fa64 b4bf fdd7 1abf 6ff2 0abf 71b5 a8be
000000a0: b972 18bf 48d7 87bf 5a26 653f d891 4e3e
000000b0: 5ebe 8fbf ee9f 53bf 4cec 5cbf 0e41 1dbf
000000c0: 18dd d3be 2368 85bf 6824 91bf 4df8 91bf
000000d0: 2a77 30be 0dab 69bf 3cbb 83bf d991 28bf
000000e0: bd5d 37bf 6bc1 85bf 3ac6 7bbf 0e2f dcbe
000000f0: 5549 6abf 7c0e 5cbf baab 68bf b931 f4be
00000100: 7967 52bf 3634 a3be 02b0 41bf 00e7 1cbf
00000110: 62fa 20bf 1ee4 2ebf c99e 5fbf 9bbb 2cbf
00000120: 1d8a 2abf 106f 84bf 8f52 93bf 19ae 93bf
00000130: 4ef9 7cbf 1975 82bf 0df8 2dbf f702 51bf
00000140: 9739 76bf 7f49 48bf dbb6 ecbe be74 04bf
00000150: 8109 5fbf 41c1 1bbf 0083 77bf a9d6 15bf
00000160: d24a 14bf 5586 53be 4918 98bf e19e 13bf
00000170: ae9b 76bf 7b72 16bf dd12 13be 4000 00bf
00000180: 0e3b a5bf 7fef acbf db06 45bf cea7 54bf
00000190: 6e26 9abe 7141 0abf a252 3bbf f7b5 52bf
000001a0: 1338 69bf 97aa 41bf 9bb8 5abf 3524 edbe
000001b0: c8e7 a2be 69c7 7ebf 717c 26bf a46a 84bf
000001c0: d902 72bf d336 7dbf 963d 40bf daf3 80bf
000001d0: f116 69bf a627 3fbf 2ebf 59bf 95c1 87bf
000001e0: 0fd3 7fbf 677d 8bbf b084 60bf 8405 37bf
000001f0: f4e0 44bf cf4c 56bf 7c1f 36bf c028 16bf
00000200: 7162 3bbf 6da8 b3bd da51 5bbf 3a30 65bf
00000210: 0cfe 44bf 09d2 04bd 2f5f b9bf c59d 34bf
00000220: 9413 60bf 4ce7 47bf 68a1 6fbf 1284 5abf
00000230: 02fd 0c3f e014 c73e 4a43 193f 3862 f93e
00000240: 6783 dd3e 10b6 513f 190d 8f3d 5c30 2a3f
00000250: d7eb 093e 9455 e73c ba0d 0e3f c2c5 c73c
00000260: 0598 413f 1c34 86bf 037f b93e 25a6 823e
00000270: 6f4d 433e 312a 633e f362 5c3f e0de f33d
00000280: 8fc5 103f 2384 b93e a65f 23be d5d7 e63e
00000290: c9ed 263e eaa3 fe3e 9885 8d3e 0a87 493e
000002a0: 0b94 f03e 14ca 5c3f c320 2a3e 6888 113f
000002b0: e452 b93e 8b33 9e3e 467a 3a3f fc2a 213e
000002c0: 93af d3be 8f39 713e c792 053d e595 0a3f
000002d0: 818c 273f 390a 373d 98e9 0840 4a4b c93f
000002e0: 9cd0 423e b122 8d3e 28c9 083e e36d 923f
000002f0: 0eab 343f 4e00 1ebe 84b6 423e 2e40 2a3f
00000300: 49d3 813f a684 c83e 372b ce3e 20aa 403f
00000310: bf3d 4d3f 65a8 9a3e 6bf0 633e fec3 e63e
00000320: 7adf 8fba 3c22 293f 70e3 76be aef2 4c3f
00000330: 45f9 b23e 7a47 7b3f 0373 ba3e 0a79 083f
00000340: ee1c 6c3f 8a62 353f a567 a03e cb43 a23e
00000350: 94c0 cc3e 0476 133e 6221 cdbc 58eb cc3e
00000360: c2bd 4c3e 802a 073e 3f85 c53e 25c7 b33e
00000370: faed 783e 6596 cd3e 7ee7 833e 2474 f13e
00000380: 2434 e3bd c23c 143f dbd5 8a3e f662 1d3f
00000390: 5ad2 1e3f f7ef 8f3f fff9 6cbd 95f5 303f
000003a0: 0710 543f 66d4 f13e ab3f 893f 53c4 323f
000003b0: 72db 53be 172c 9fbe 8700 f53d 0ffd f83e
000003c0: dd7a 723f 696d 483f 397e e93e 439f c93d
000003d0: df55 863e 2325 033e b7a3 aa3e cbee 9b3f
000003e0: 0e47 213f 2594 4a3d 95de 293f 6797 573e
000003f0: c101 f43e 727d 3c3e 7d7f bc3e 8ac7 ea3e
-0.6014634 -0.7665022 -0.7479584 -0.9204856 -0.7871758 -0.59625393 -1.089665 -0.92442405
-0.97773534 -1.1133406 -0.7607206 -0.97508866 -0.48534742 -1.646927 -1.169652 -0.7613744
-0.998236 -1.1233141 -0.8946001 -1.0971787 -0.67257094 -0.70251316 -1.2773724 -0.6835793
-0.45107803 -1.0190641 -0.807285 -0.7818816 -1.0810871 -0.5636201 -0.96421003 -0.5672036
-0.95743054 -0.69044626 -0.5580629 -1.0854834 -1.4093316 -0.6048582 -0.54276174 -0.3295093
-0.5955005 -1.0612574 0.89511645 0.20172822 -1.122997 -0.8266591 -0.8629806 -0.6142739
-0.4137962 -1.0422405 -1.1339235 -1.14039 -0.17232957 -0.9127663 -1.0291514 -0.65847546
-0.7162741 -1.0449651 -0.98349345 -0.4300465 -0.91518146 -0.859596 -0.90887034 -0.47694185
-0.82189137 -0.3187577 -0.7565919 -0.6128998 -0.62882054 -0.6831683 -0.8735166 -0.67473763
-0.66616994 -1.0346394 -1.150957 -1.1537505 -0.9881791 -1.0191985 -0.6795662 -0.8164515
-0.96181625 -0.78237146 -0.46233258 -0.51740634 -0.87123877 -0.6084176 -0.96684265 -0.5853067
-0.57926667 -0.20656712 -1.1882411 -0.57664305 -0.963313 -0.58768433 -0.14362665 -0.5000038
-1.2908647 -1.3510588 -0.76963586 -0.8306855 -0.30107445 -0.54006106 -0.7317296 -0.82308906
-0.9110119 -0.75650924 -0.85437936 -0.46316686 -0.3181746 -0.99523026 -0.6503363 -1.0345044
-0.94535595 -0.9891178 -0.7509397 -1.0074418 -0.9105063 -0.74669874 -0.8505734 -1.0605952
-0.99931425 -1.0897645 -0.87702465 -0.7149279 -0.7690575 -0.8371095 -0.7114179 -0.5865593
-0.73197085 -0.08772359 -0.8567177 -0.8952671 -0.76950145 -0.032426868 -1.4482173 -0.7055324
-0.87529874 -0.78087306 -0.9360566 -0.85357773 0.5507356 0.38883114 0.598683 0.48707747
0.43264315 0.8191843 0.0698492 0.6648004 0.13468872 0.028239049 0.55489695 0.02438629
0.7562259 -1.0484653 0.36229715 0.25517383 0.19072507 0.22184063 0.86088485 0.119077444
0.5655145 0.36233625 -0.15954456 0.45086542 0.16301645 0.49734432 0.27640986 0.1968042
0.46987948 0.86245847 0.1661406 0.56848764 0.36196053 0.308987 0.72842824 0.15739053
-0.4134489 0.23557113 0.03261068 0.5413497 0.65448767 0.044687483 2.1392574 1.5726101
0.1902489 0.2756553 0.13357985 1.1439785 0.7057351 -0.15429804 0.19014937 0.6650418
1.0142604 0.39163703 0.40267345 0.7525959 0.8017234 0.302066 0.22259681 0.45071405
-0.0010976635 0.6606786 -0.24110198 0.800578 0.34955803 0.9815594 0.36415872 0.5330969
0.92231643 0.70853484 0.31329075 0.31692347 0.39990675 0.14400488 -0.025040332 0.40023303
0.19994262 0.13199806 0.3857822 0.35112873 0.24309531 0.40153804 0.25762552 0.4715892
-0.110939294 0.5790521 0.27116284 0.6147913 0.6203972 1.1245106 -0.057855602 0.6912473
0.82836956 0.4723236 1.0722555 0.69830817 -0.2068918 -0.31088325 0.11962991 0.48630568
0.94718724 0.78291947 0.45604113 0.0984483 0.2623739 0.12807135 0.3332803 1.2182249
0.62999046 0.049457688 0.6635526 0.21053849 0.47657588 0.18407229 0.36816016 0.4585536

gru.bias_hh_l0 f4 [420]
00000000: a70b 31bf 9637 32bf 1489 3dbf 573a 60bf
00000010: 8531 60bf 48aa 14bf ea83 92bf 286b 6cbf
00000020: a19a 7dbf 7c4c 7cbf cf0b 4cbf b097 7cbf
00000030: ed36 04bf acfb ddbf 7a20 a9bf 5900 43bf
00000040: 101b 89bf 785e 99bf 081f 57bf 2776 8fbf
00000050: d864 0dbf ba37 54bf c0ae a8bf dfdb 30bf
00000060: 23d8 b3be 5849 84bf 7ba2 61bf 9669 39bf
00000070: cdb0 81bf 8fa3 08bf eb65 74bf 8c48 09bf
00000080: 4a59 72bf 81e5 44bf 060b 1cbf 58d8 7cbf
00000090: d69d a7bf 82bc 0ebf 9cda 2ebf 93af c8be
000000a0: 1a2b 2bbf 5356 89bf 8e53 603f e2a2 863e
000000b0: ba12 89bf 83f4 67bf 0b7f 44bf 86c5 1cbf
000000c0: ef0a edbe 75c9 81bf 1a26 9cbf 8f73 9dbf
000000d0: 7927 8bbe d4ce 6abf d137 68bf 2d64 0ebf
000000e0: 533e 36bf e75b 6fbf 2f82 8fbf 1ffd f0be
000000f0: 4f62 7ebf 3316 4abf f19d 7cbf 3254 10bf
00000100: b1a7 53bf 749f 71be b68e 1fbf 11a9 0dbf
00000110: 2f1a 27bf 2d8b 2abf e28c 65bf 44c8 1ebf
00000120: 6482 41bf dead 97bf ed29 8ebf c8cf 93bf
00000130: b5fc 6cbf 12ee 7dbf 133d 34bf 50dd 6abf
00000140: 881f 88bf 3372 43bf aa5a 0dbf a144 e4be
00000150: 4def 71bf bd33 22bf 85e9 72bf a16c 25bf
00000160: ece7 13bf c74b 55be 0f59 9bbf c4e2 15bf
00000170: 3a2e 6bbf 2e6d 35bf d253 7fbe 70ab cebe
00000180: 2b60 a7bf d93b acbf a815 56bf a8e7 39bf
00000190: 2959 b0be 676d 18bf 4a95 2bbf 0c33 45bf
000001a0: dde1 4dbf 4c52 44bf a966 69bf 4fc9 0ebf
000001b0: d0ef c5be a749 63bf 5ad4 16bf cc3b 7fbf
000001c0: 6eaf 60bf 714c 70bf 0ba0 5dbf b6ec 82bf
000001d0: 7891 69bf 33db 55bf 05c2 59bf ab2c 7abf
000001e0: 6f09 77bf 34ac 8ebf b3a6 5fbf 92b4 23bf
000001f0: 57ca 2abf 88db 71bf eb98 4ebf f167 23bf
00000200: 97d2 31bf dfa9 3dbe 0bb0 55bf 508a 6bbf
00000210: f36e 64bf 762f 07bd 5c1f b4bf 464e 2fbf
00000220: 3d8c 4bbf 5a37 37bf 15f2 5bbf 80e5 3cbf
00000230: d60f 153f fa19 e83e 39a3 0a3f 0016 1b3f
00000240: f147 113f 7dc2 673f b123 323e 187e 253f
00000250: 494f 7e3e 6e42 0ebb 1e62 243f 3b1c 2d3e
00000260: 8f8a 293f 1035 95bf f5b8 843e b9e8 3c3e
00000270: 1b3f 053e c722 5e3e 04c1 4d3f c12c f13d
00000280: eaaf 0c3f e9b9 a93e 0f34 d3bd 012c e63e
00000290: 4c7d 173d a4d8 da3e e397 bb3e e8d4 793e
000002a0: c9fe e03e 7163 593f c203 453e ca1c fc3e
000002b0: 1b19 ca3e 1cb9 d13e c628 443f c764 203e
000002c0: 612f b2be 9052 7c3e 2573 c13d 4ce9 003f
000002d0: 42d8 2e3f fa57 553d 76b3 0340 8de9 bf3f
000002e0: 519a 8e3e 5b5e f93d 7723 423e 6c7f 913f
000002f0: bebe 403f 8633 f1bd c78d 7a3e ddc3 483f
00000300: 63b7 6e3f 8b4a e23e 4dd9 c63e db21 303f
00000310: f6f7 373f 39a1 6a3e 606b 613e 0b56 db3e
00000320: da62 763d 47f3 4a3f a33f 14be f161 523f
00000330: 11e1 aa3e 9736 7c3f 82d5 b13e 9ae4 e73e
00000340: 35df 633f a634 483f 7af6 ac3e 4ab1 c43e
00000350: be9a ad3e 798d b33d f49d a13c efec b93e
00000360: 6a95 623e 894c 3d3e c8c9 913e 70f7 b63e
00000370: f14d c63e 61fd a03e 0f41 9c3e b2a5 c93e
00000380: dec4 53be 4e93 093f ea18 913e f798 183f
00000390: 0401 103f 1191 9e3f 180e 1a3d c88b 153f
000003a0: f4c2 323f 7612 e73e de5e 933f 7e78 233f
000003b0: c804 5cbe 1c3d 67be e086 683e 8020 f33e
000003c0: 6fe6 683f fb84 3f3f c09d da3e cd6c 3b3d
000003d0: 8ac2 bf3e 96a2 ff3d ad17 b83e 1c3a 943f
000003e0: 577c 313f 762b 84bd cc1f 303f abc5 693e
000003f0: 7521 d73e 3fe8 2c3e 799b ee3e 5c6b c53e
-0.69158405 -0.6961607 -0.7403729 -0.8758902 -0.8757556 -0.5807233 -1.1446507 -0.9235101
-0.9906407 -0.98554206 -0.7970552 -0.98668957 -0.5164631 -1.7342429 -1.3213036 -0.76172405
-1.0711384 -1.1981955 -0.84031725 -1.1207932 -0.55232 -0.8289753 -1.317833 -0.69085497
-0.35125837 -1.0334883 -0.8813855 -0.72426736 -1.013208 -0.5337457 -0.95468014 -0.5362632
-0.94667494 -0.76912695 -0.6095432 -0.98767614 -1.3095043 -0.5575639 -0.6830232 -0.39196452
-0.6686264 -1.0729469 0.87627494 0.26296145 -1.070884 -0.9060747 -0.7675635 -0.61238897
-0.46297404 -1.0139605 -1.2199128 -1.2300891 -0.27178553 -0.91721845 -0.9071017 -0.55621606
-0.7118885 -0.93499607 -1.1211604 -0.47068116 -0.99368757 -0.78940123 -0.986785 -0.5637847
-0.8267775 -0.23595983 -0.62327135 -0.553361 -0.6527433 -0.66618615 -0.89668095 -0.6202433
-0.75589585 -1.1849935 -1.1106545 -1.1547785 -0.925731 -0.9919139 -0.7040569 -0.91743946
-1.0634623 -0.7634613 -0.5521647 -0.4458361 -0.9450577 -0.63360196 -0.9488757 -0.6461888
-0.5777576 -0.20829688 -1.2136554 -0.5854914 -0.9186741 -0.7086972 -0.24934319 -0.4036517
-1.3076223 -1.3455764 -0.83626795 -0.72619104 -0.34443024 -0.59541935 -0.6702467 -0.77031016
-0.80422765 -0.76688075 -0.9117227 -0.5577592 -0.38659525 -0.8878426 -0.5891777 -0.9970062
-0.87767684 -0.9386664 -0.8657233 -1.0228488 -0.9123759 -0.83537596 -0.85061675 -0.9772441
-0.9649877 -1.1146302 -0.8736374 -0.63947403 -0.66714996 -0.94475603 -0.80702084 -0.63830477
-0.6946196 -0.18521832 -0.83471745 -0.92007923 -0.89231795 -0.033004247 -1.407207 -0.6847881
-0.7951086 -0.71568835 -0.8591626 -0.7378769 0.5822729 0.4533232 0.5415531 0.60580444
0.567504 0.9053114 0.17396428 0.6464553 0.24834932 -0.0021707076 0.64212215 0.169053
0.6622705 -1.1656818 0.2592236 0.18448152 0.13012354 0.21692954 0.80372643 0.11776114
0.54955924 0.3314965 -0.10312664 0.44955447 0.036984727 0.4274341 0.36639318 0.24397624
0.43944386 0.8491736 0.19239715 0.49240714 0.3947228 0.4096154 0.76624715 0.15663444
-0.34801772 0.2464087 0.0944579 0.5035598 0.68298733 0.052085854 2.0578284 1.4993149
0.2785211 0.121762 0.18958841 1.1367011 0.7529105 -0.117774054 0.24468146 0.78423864
0.93248576 0.44197497 0.38837662 0.6880166 0.71862733 0.22913064 0.22013617 0.42839083
0.060152866 0.7927746 -0.144774 0.82180697 0.33374837 0.985208 0.34733206 0.45291597
0.8901246 0.78205335 0.33781797 0.3841651 0.3390712 0.08767218 0.019728638 0.36313578
0.2212731 0.18486227 0.2847426 0.35735655 0.3873134 0.31443313 0.30518386 0.39384228
-0.20680568 0.53740394 0.2833932 0.59608406 0.5625155 1.2388021 0.037611097 0.58416414
0.69828725 0.45131272 1.1513326 0.6385573 -0.21486199 -0.22581905 0.227077 0.47485733
0.90976614 0.7481229 0.4269848 0.045758057 0.3745311 0.12482183 0.35955563 1.1580234
0.6933035 -0.06453602 0.6879852 0.2282931 0.42017713 0.1688547 0.4660299 0.3855847

fc.weight f4 [3, 140]
00000000: 9ca4 13bd b205 023e 24c3 483c d0d9 b9bc
00000010: fa6e 64bd 84b7 55bd 0390 0bbe a529 8dbc
00000020: de14 f33c a4cd 6dbd 7a3c 03bd 9d71 3ebd
00000030: 770e 36bd 4972 043c f821 ffbb 6752 fcbb
00000040: 1454 793d 9c95 34bc d3d6 ae3d 4284 0fbc
00000050: 478b 65bd 45e5 a83d c624 593d d880 db3d
00000060: 30f0 3dbd 9032 c33c 8c60 913d 9bfb ebbc
00000070: 01a5 73bd a3dc 493c fd96 efbc 89b6 6ebb
00000080: 0c80 7abc c303 1abc 1694 43bd 3537 cdbc
00000090: 998c 593d b315 57bd 81cb 3ebd aeee 543d
000000a0: e01a 0bbd 07b5 593d 01f8 fabd 6d9b 4e3e
000000b0: efd2 b2bd bde3 01bd a065 07bd bb16 c5bd
000000c0: fb0c f23c 932f 12bd d3af 48bc e3cc cebd
000000d0: 43ef 283d d0ec 9d3d ad5e 413d bf22 e3bc
000000e0: 2fcb c6bd d6da c5bc 2b5a 17bc a5c1 893d
000000f0: 1d4a 183d b5a9 98bd e2ce baba 88f3 913d
00000100: aab0 023a dda9 44bd 87f5 0ebc bbc6 6c3d
00000110: 8c99 13bd 2928 ca3d 0d01 20bd 67a9 1ebd
00000120: d00d 213d d15d e1bc 01ac cabc f06e b0bc
00000130: 027d fc3b 46de af3d c3c5 5dbd ba19 d93c
00000140: 16c3 0dbc ee8e 59bd 5d17 df3c fbee 3cbc
00000150: ff0d 213c ced4 8cbd a532 7c3d 2390 a23d
00000160: c17b b0bd 6a20 e9bb 61c9 c3bd 4c68 f6bc
00000170: 7a25 913d 2dd3 783d 4166 4dbd ee2b f1bc
00000180: 696c be3d 3ade abbd 252f 903d e2e5 b2bd
00000190: 1eee 793d cd70 8abd 364d a2bd dcd5 4ebd
000001a0: 11f6 993d 4371 1bbd 6ec1 5ebd 1620 71bd
000001b0: 3305 7bba 0d2f c4bb edcf c43d 2fc1 8bbd
000001c0: 08ed f0bd d968 d0bd 428c c33d f1e2 21bb
000001d0: 2418 03bd 3ea3 2abd 603a 273d 6905 c43c
000001e0: 7f72 d0bc 535a b2bd 0d1c e13d 035b 293d
000001f0: 6ae2 bb3c 5a12 dcba b7e4 82bd 4815 d63c
00000200: 1483 a2bb a4d3 28bd aa57 513d c440 ea3d
00000210: 753c d93c 98aa 873d af55 16bd 9b08 e4bb
00000220: 74aa bb3d 2d83 c03c e2cd 03bd fd5b 633d
00000230: 2820 a3bd 56b5 8abc eb81 b3bd 7572 2abd
00000240: 8547 bfbd d2a4 cbbc e1e6 0bbe 33c4 05bc
00000250: 2a38 163c 8133 de3d 6eab 843d d231 c5ba
00000260: fc59 11bc ce91 48bd b5a1 8d3d adc3 2a3b
00000270: 3ac8 aebc 01a6 aa3c 3342 f03d e9da 67bd
00000280: a2bc 5f3c 1f23 03bd f4ea 8f3d d1de 61bd
00000290: 968c 5fbd 8930 113d c787 cc3d 20a4 f3bc
000002a0: d203 5cbd 6089 86bc 7d0b 0e3e 4ac5 f1bb
000002b0: 2872 7dba ab3d 303c 2e48 6a3d 73a8 2c3d
000002c0: 24bc a3bc f78a 00be 7927 91bd 43db 9c3d
000002d0: 8af7 26bd 6551 503d aee1 4dbe e4d4 7abd
000002e0: 6086 223d 0527 08be a3f6 dbbc d0d7 ee39
000002f0: 9c54 89bc 3562 21bc 763d 49bd 8c34 f4bd
00000300: 3b04 c7bd 5fa9 c83d 1b15 1abc e962 b7bd
00000310: 20b8 063d 3b26 133d 3211 d5bd 53d7 383d
00000320: 6ddb 3a3d ab89 9fbd 29af 46bb ca7c 6c3d
00000330: 06a9 133e c6e7 35bd 766b 053d f6ba b93b
00000340: 1c36 efbd 9346 4d3d 2151 c1bd 9535 c1bd
00000350: 051a 243d 5718 c33d 02f3 923d 894b 34bd
00000360: 6e93 063d ffab e53d b92b 86bc 023e 8a3c
00000370: a42b f03d e4a6 4cbd b250 e3bc 3f75 adbc
00000380: 8dec 88bd 1918 143c 4134 2bbd 9004 46bd
00000390: e64b 60bd 86aa fe3d e38e 7a3d 7989 b0bd
000003a0: a7eb 4d3b 33b3 3bbc 9823 a03c bc59 9c3d
000003b0: 3e1d ab3c 8a0b 49bc 0d18 573c c871 a1bd
000003c0: 98c6 5a3d 97d1 0fbd 502d b53d fb51 653d
000003d0: 5a05 093d 0387 bd3d d887 673d 0550 8e3d
000003e0: 0f36 a03a 810d d93c 4afe 4abd 69ed d2bc
000003f0: f4fc 31bd 34ff 82bc 946b 20bd 24bd bb3c
-0.036045656 0.12697485 0.012253556 -0.022686869 -0.055769898 -0.052176967 -0.13629155 -0.017231772
0.029673036 -0.058057442 -0.032040097 -0.04649507 -0.04444739 0.008083888 -0.007786032 -0.007700253
0.0608712 -0.011021998 0.08537068 -0.00875956 -0.05604103 0.08246855 0.053013586 0.10717934
-0.04637164 0.023827821 0.07098493 -0.028806498 -0.05948353 0.01232067 -0.029246802 -0.0036424717
-0.015289318 -0.009400311 -0.047748648 -0.025050739 0.0531126 -0.05251093 -0.046580795 0.051985435
-0.033961177 0.053151157 -0.12254334 0.20176478 -0.08731639 -0.03171133 -0.0330559 -0.09623476
0.029547205 -0.0356899 -0.012248951 -0.10097673 0.041243803 0.07711184 0.04720943 -0.02772653
-0.09706723 -0.0241522 -0.009237806 0.06726388 0.037180055 -0.07454244 -0.001425233 0.07126528
0.00049854314 -0.048013557 -0.0087255305 0.05780671 -0.036035106 0.09870941 -0.039063502 -0.038735773
0.039319813 -0.027510555 -0.024740221 -0.021537274 0.007705332 0.08587317 -0.05414368 0.026501525
-0.008652469 -0.053114824 0.02723282 -0.011531587 0.009829997 -0.06876527 0.061571736 0.07937648
-0.08617354 -0.0071144598 -0.09559894 -0.03007903 0.07087226 0.060748268 -0.050146345 -0.029439893
0.09298021 -0.08391996 0.07040242 -0.08735253 0.061018102 -0.06759796 -0.07924883 -0.05049692
0.075176366 -0.03794981 -0.054383688 -0.05886849 -0.0009575665 -0.005987054 0.09609971 -0.06823956
-0.1176396 -0.10176248 0.095482364 -0.0024701918 -0.032005444 -0.041659586 0.040827155 0.023928361
-0.025445221 -0.08708634 0.109916784 0.04134656 0.022935111 -0.0016790137 -0.0639128 0.026133195
-0.0049594734 -0.04121746 0.051108994 0.11438134 0.026518086 0.06624335 -0.036702808 -0.0069590337
0.09163371 0.02350005 -0.032178767 0.05550765 -0.07965118 -0.01693217 -0.08765014 -0.04161306
-0.09339813 -0.024858866 -0.13662292 -0.008164453 0.009168664 0.10849667 0.0647801 -0.0015044755
-0.008871552 -0.048967175 0.06915609 0.0026056573 -0.02133571 0.02083111 0.117313765 -0.056605253
0.013655813 -0.032015916 0.070272356 -0.055144135 -0.054577433 0.035446677 0.09986835 -0.029741347
-0.05371458 -0.016422927 0.1387157 -0.007378255 -0.00096681947 0.01075689 0.057197742 0.042152833
-0.019987173 -0.12553011 -0.07087607 0.07659008 -0.040763415 0.050858874 -0.20105621 -0.061238185
0.03967893 -0.13296135 -0.026851004 0.0004555569 -0.016763978 -0.009850075 -0.04913088 -0.11924085
-0.09717604 0.0979793 -0.009404446 -0.089544125 0.03289044 0.03592513 -0.1040367 0.045127224
0.045619417 -0.0778993 -0.0030316806 0.057736196 0.14419946 -0.04441049 0.032573186 0.0056680394
-0.116802424 0.050116133 -0.09439302 -0.09434048 0.040063877 0.09526127 0.07175256 -0.04401735
0.032855444 0.11214446 -0.01637827 0.01687527 0.11727074 -0.049963847 -0.02774844 -0.021174071
-0.066857435 0.009038948 -0.04179788 -0.048344195 -0.054759882 0.124348685 0.061171424 -0.08619971
0.0031420977 -0.011456299 0.019548222 0.07634303 0.020887967 -0.0122708175 0.013128293 -0.0788303
0.05341205 -0.03511199 0.08846533 0.055986386 0.03345237 0.09254267 0.056526035 0.06948856
0.0012223142 0.026495697 -0.049558915 -0.025747972 -0.043454126 -0.015990831 -0.039165094 0.022917338

fc.bias f4 [3]
00000000: 2e64 263b 4b9e 1f3b 0e99 763a
0.0025389302 0.0024355825 0.0009406962
