models/GSF-10-hidden-5-input-2-layer.pth (torch, 7470 bytes, 10 tensors)

gru.weight_ih_l0 f4 [30, 5]
0	0x4018b08d	2.3857758
1	0x4090e68b	4.5281425
2	0xbfe8182e	-1.8132379
3	0x4095b343	4.6781325
4	0xc13dc414	-11.860371
5	0x40a2af6a	5.083913
6	0xc0e83e99	-7.2576413
7	0xc00c2da5	-2.190286
8	0xc0c32421	-6.0981603
9	0x407941bf	3.8946378
10	0xbfed736b	-1.8550848
11	0x401cea61	2.4518054
12	0xbf3bc666	-0.73349607
13	0xc005bc23	-2.089608
14	0x3ffb72e3	1.9644436
15	0x3f81e0f4	1.0146775
16	0x3f076fc5	0.5290492
17	0x3e3e3527	0.18574964
18	0xbe49ce33	-0.19707565
19	0x404f887d	3.2427056
20	0xbeaae104	-0.33374798
21	0xbfdd8998	-1.7307615
22	0xc052ac11	-3.291752
23	0x3fcccd61	1.6000177
24	0xbfd2b439	-1.646125
25	0xbfabed3c	-1.3431773
26	0xc145b8d2	-12.357622
27	0x406574d8	3.5852566
28	0x3f32a1e9	0.69778305
29	0x40ebc1c5	7.3674035
30	0x3fb74f34	1.4321046
31	0xc077c4d7	-3.8713892
32	0xc0203240	-2.503067
33	0x40361a27	2.8453462
34	0xbf13c351	-0.57719904
35	0x3f9b54ba	1.2135231
36	0x3f4f3f91	0.8095637
37	0xc0381bd5	-2.8766987
38	0x3f9818d5	1.1882578
39	0xc0251c91	-2.5798686
40	0xc03d86a2	-2.9613423
41	0xc0b3f2c6	-5.6233854
42	0x40c38873	6.1104064
43	0xc1269046	-10.410223
44	0x4010c0af	2.2617605
45	0xc08521ca	-4.1603746
46	0xbfa010a2	-1.2505076
47	0xc082f2a1	-4.092118
48	0xc00651c3	-2.0987403
49	0x409b7824	4.8584156
50	0x40f61971	7.6906056
51	0x3ea99ed8	0.33129
52	0xc072a698	-3.791418
53	0x3fd53213	1.6655906
54	0x3fd5258f	1.6652087
55	0x406f4514	3.7385912
56	0xc0973af3	-4.725946
57	0xbfea8163	-1.8320736
58	0xc0b110b4	-5.533289
59	0x40849102	4.142701
60	0x409b3315	4.8499856
61	0xc03032d9	-2.7531035
62	0xc062fc03	-3.5466316
63	0xbe9750be	-0.2955379
64	0x40c1c849	6.055699
65	0xbe101172	-0.14069155
66	0xbf416dba	-0.75558054
67	0x3f7daa87	0.9908833
68	0x3ed46313	0.41481838
69	0xbf5b4718	-0.85655355
70	0xc0473510	-3.1126137
71	0x3fbf1df5	1.4931017
72	0x3fcdab0a	1.6067822
73	0xc0d6300b	-6.6933646
74	0x4074bd9c	3.8240728
75	0x408685c5	4.2038293
76	0x3ff5516c	1.9165473
77	0x3f0cf1a0	0.5505619
78	0x3f03e3fd	0.5151976
79	0xbf0e060e	-0.5547799
80	0xc08b413a	-4.351712
81	0x403acc4a	2.9187188
82	0xbfa065cc	-1.2531066
83	0x3fb41d86	1.407151
84	0x400c02cd	2.187671
85	0x3fe930e0	1.821804
86	0x3f31e3f3	0.6948845
87	0x3f51c862	0.81946385
88	0xbe412e03	-0.18865208
89	0x3f7c4678	0.98545027
90	0xc017d712	-2.3725019
91	0x3e8f1392	0.27944618
92	0x4000e879	2.014189
93	0x40a98893	5.2979217
94	0xc025b56a	-2.5891976
95	0x3f4cec1e	0.80047786
96	0x3f334b2f	0.70036596
97	0x3e9466e9	0.28984764
98	0x3f1d228c	0.6138084
99	0x3f2752c3	0.6536066
100	0x3ce54a47	0.02798952
101	0xbffe0590	-1.9845448
102	0xc0508491	-3.2580912
103	0xbdcc84c4	-0.099862605
104	0x408964f9	4.293576
105	0x3d45a5a1	0.04825366
106	0xbfea01c6	-1.8281791
107	0xbfb71062	-1.4301875
108	0xc0125c05	-2.2868664
109	0x401ca48d	2.4475434
110	0xc01e58ed	-2.4741776
111	0xc0355f38	-2.8339367
112	0xbfbb0c66	-1.4613159
113	0x400c7e36	2.1952033
114	0x40311346	2.7668014
115	0xc00aa55d	-2.166343
116	0xc09cc3dd	-4.898909
117	0x4092e466	4.5903807
118	0xc089511f	-4.2911525
119	0x40313bb8	2.76927
120	0x3f4dfd18	0.80464315
121	0xc07cbd11	-3.9490397
122	0x40000161	2.0000842
123	0x404d009d	3.2031624
124	0x3f8fe3e7	1.1241425
125	0xc031a320	-2.7755814
126	0x40a17b7c	5.046324
127	0xc03afdbd	-2.921737
128	0xbf85f069	-1.0463992
129	0x40803ce5	4.0074334
130	0xc09dd65d	-4.9324174
131	0xbf25b83c	-0.64734244
132	0x401636fb	2.3471057
133	0xc082d562	-4.0885477
134	0x3fdbc67b	1.7169946
135	0x3f960134	1.1719117
136	0x400d8182	2.2110295
137	0x3c8edc3d	0.017439002
138	0x40214bf7	2.5202615
139	0x406c888a	3.6958337
140	0x40a47b88	5.1400795
141	0x3eb3b41e	0.35098356
142	0x3f42f733	0.76158446
143	0xc0cc23dc	-6.3793774
144	0x3f6072e0	0.87675285
145	0xbf1b406a	-0.60645163
146	0x406e7463	3.7258537
147	0x4104aded	8.292462
148	0x40981bfc	4.753416
149	0xc034ab17	-2.8229425

gru.weight_hh_l0 f4 [30, 10]
0	0x3fd70f4f	1.6801547
1	0xbf443bff	-0.76654047
2	0x3e3dd866	0.1853958
3	0xbfb33c61	-1.4002801
4	0xbe1b5bfd	-0.1517181
5	0x3f6dafeb	0.92846555
6	0xc004a323	-2.072457
7	0xc01876f6	-2.3822608
8	0xbfb08e21	-1.3793374
9	0xbf0226cc	-0.5084045
10	0x401ddb83	2.466523
11	0xc00b1959	-2.173422
12	0x3ce3d9ef	0.02781388
13	0x4064e0df	3.576225
14	0x400a37dd	2.1596596
15	0x4016a151	2.353596
16	0xbf8de142	-1.1084368
17	0xbfe3f743	-1.7809833
18	0x4001e5f5	2.0296605
19	0x3f25b2c6	0.6472591
20	0xbe54f920	-0.20798159
21	0xbe152dc4	-0.1456824
22	0x3f7f9ae8	0.99845743
23	0x3fc1d5cd	1.5143372
24	0x3fb8cd81	1.4437715
25	0xbe413fb4	-0.18871957
26	0xbf03957c	-0.5139997
27	0xbffb17b3	-1.9616607
28	0xc0204348	-2.5041065
29	0xbe2d84bc	-0.16945165
30	0x3e210a7a	0.15726653
31	0xbf934436	-1.1505191
32	0x3ed21f78	0.41039634
33	0x3feca5f2	1.8488142
34	0x3e9db241	0.3080006
35	0x3eff54fd	0.49869528
36	0xbf9e1c40	-1.2352371
37	0xc01e69d3	-2.475209
38	0xbf69f589	-0.9139028
39	0x3fc89c7d	1.5672756
40	0x3fb7f15c	1.4370532
41	0xbb412a1c	-0.0029474562
42	0xbf8edca2	-1.1161082
43	0xbea0e049	-0.31421116
44	0xbebce2ec	-0.36891878
45	0xbf02c4f9	-0.51081806
46	0xbe7d67a9	-0.24746574
47	0xbe537e8c	-0.20653743
48	0xc02b920d	-2.6807892
49	0xbf06876b	-0.5255038
50	0xc0182ca2	-2.3777242
51	0xbea2081e	-0.31646818
52	0xbf0f8b1c	-0.5607164
53	0x3f576750	0.8414202
54	0xc00baf4e	-2.1825747
55	0xbfc5446c	-1.5411506
56	0xbf3c5c73	-0.73578566
57	0x40b6a43e	5.707549
58	0x4015b5df	2.3392255
59	0x3f3ed8e7	0.74549717
60	0xbfe08285	-1.7539831
61	0xbf2a1a5d	-0.6644648
62	0xbfa9d2cf	-1.3267459
63	0x3f62a8d5	0.8853887
64	0x40378f58	2.868124
65	0x407e144f	3.9699895
66	0x3ea979df	0.33100793
67	0xc10a95ac	-8.661541
68	0xbfd02335	-1.6260744
69	0xc01a9783	-2.4154975
70	0x3f079caf	0.52973455
71	0xbfc7453b	-1.5568002
72	0x3f1264f3	0.57185286
73	0xc006933f	-2.1027372
74	0x3fb6ade2	1.4271815
75	0x3e41190a	0.18857208
76	0x3f01760d	0.50570756
77	0xbed3fe90	-0.41405153
78	0x3f3cae76	0.73703706
79	0xbf46f927	-0.77723926
80	0xc044fba6	-3.0778594
81	0x407b94a6	3.9309478
82	0x405087a3	3.2582786
83	0x400c7c60	2.1950912
84	0x3fc0983c	1.5046458
85	0xc0ab01f4	-5.3439884
86	0xbe3f2a4f	-0.18668483
87	0x3f96b2e4	1.1773343
88	0xc0995c6d	-4.7925324
89	0xbe505cd7	-0.20347916
90	0xbf98d80c	-1.1940932
91	0x3e847531	0.2587066
92	0x3f488b2b	0.78337353
93	0x3fdca0e3	1.7236599
94	0x40511588	3.2669392
95	0x4039aceb	2.901179
96	0x3f107f8d	0.5644463
97	0xbff52be3	-1.9154018
98	0xbfa2afeb	-1.2709936
99	0x3f982f49	1.188943
100	0x3f13b0f9	0.57691914
101	0xc02c4581	-2.6917422
102	0x3fe16cf8	1.761138
103	0xbf70ffe6	-0.9414047
104	0x3e1f59b3	0.15561561
105	0x3faf4ce1	1.3695337
106	0x3fa1eae6	1.264981
107	0xc043705c	-3.0537329
108	0xbf1bb4cb	-0.60822743
109	0x3fea099c	1.8284183
110	0x40a1fb35	5.061915
111	0xbfcd45fa	-1.603698
112	0xbf332ac7	-0.6998715
113	0xbfa69a01	-1.3015748
114	0x3ea6df7a	0.32592374
115	0xc0291a58	-2.642233
116	0x408cb995	4.397654
117	0xbf327d5c	-0.69722533
118	0x3e2594a5	0.16169985
119	0xbf3db0f7	-0.7409815
120	0xbf0b4a7e	-0.5441054
121	0xbf64a82c	-0.8931911
122	0x3fb45e1a	1.4091218
123	0xbfb8507f	-1.4399565
124	0x3f0f3a23	0.55948085
125	0xbd6437c3	-0.05571724
126	0x400a9506	2.1653457
127	0x400fa69d	2.2445443
128	0xbd5af01f	-0.053451654
129	0x3f7c20a4	0.98487306
130	0x3eab109d	0.33411112
131	0xbf950eb5	-1.1645113
132	0x3f30ade2	0.69015324
133	0xbf78381f	-0.96960634
134	0x3f3f92c8	0.74833345
135	0xbeb58806	-0.3545534
136	0x3f980de4	1.1879239
137	0x3ee43cfe	0.44577783
138	0x3f67f703	0.90611285
139	0xbf228578	-0.6348491
140	0x3f559782	0.8343431
141	0xc02339d5	-2.5504048
142	0x4022e3ba	2.5451493
143	0x40324649	2.7855399
144	0xbfa8cd92	-1.3187735
145	0x3fa6ef49	1.3041774
146	0x40117c55	2.2732136
147	0x40a163c1	5.043427
148	0x4014a7a2	2.3227315
149	0x40134252	2.3009229
150	0xc03f1231	-2.9854853
151	0xbfab4a10	-1.3381977
152	0xbe5b15aa	-0.21394983
153	0x3fb8c745	1.4435812
154	0x401a726a	2.4132333
155	0x3f1e0c23	0.6173727
156	0x3fc4e185	1.5381323
157	0xc01770c9	-2.3662589
158	0xbecbbd7e	-0.3979301
159	0xbf5e0b4b	-0.8673598
160	0x405b86fa	3.4301133
161	0xc00c2ccb	-2.190234
162	0x3e3ba3a1	0.18324138
163	0x3ebac519	0.364785
164	0xbff5c8e0	-1.9201927
165	0xbf8ab052	-1.0835059
166	0x3fa813f3	1.3131088
167	0xc0190a0b	-2.391238
168	0xbf16e53a	-0.5894352
169	0x3f317873	0.69324416
170	0xbf60c7a2	-0.87804615
171	0xc0821697	-4.0652575
172	0x400479de	2.0699382
173	0xbf8a7cf6	-1.0819385
174	0x3f76f0e4	0.9646132
175	0xbebeedc4	-0.37290776
176	0x3fa9e5c0	1.3273239
177	0xbf58fda0	-0.84762
178	0x3ffb0f1b	1.9613985
179	0xc008da03	-2.1383064
180	0x40383962	2.8785024
181	0xc018a970	-2.3853416
182	0xbd25b267	-0.04045334
183	0x3f67f162	0.90602696
184	0xbf189fd3	-0.5961887
185	0xbf86ea46	-1.0540245
186	0x3f44bfae	0.7685498
187	0x3dc8b24f	0.09799635
188	0x3c85217d	0.01625132
189	0x3f8822ce	1.0635622
190	0x3ff28d52	1.8949378
191	0xc00f25d1	-2.2366831
192	0xbdbcf423	-0.09226253
193	0x3eea6c55	0.45785776
194	0xbf895cf2	-1.073149
195	0xbf48abeb	-0.78387326
196	0x3edf2226	0.4358074
197	0x3fa68654	1.3009744
198	0x3f251aa3	0.6449377
199	0xbe863290	-0.2621045
200	0xbe256f39	-0.1615571
201	0x3f2fe7a0	0.68712807
202	0x3f153dd7	0.58297485
203	0x3cb62f10	0.022239238
204	0x3e8906a8	0.2676289
205	0xbf8e7f1d	-1.1132542
206	0x3efe000d	0.49609414
207	0x3f3d0225	0.738314
208	0x3f8eac31	1.1146299
209	0xbe4b4a1e	-0.19852492
210	0x3f1743c8	0.590878
211	0x3f15b97f	0.5848617
212	0x3e58a649	0.21157183
213	0xbee20bbf	-0.44149587
214	0xbda9a2f3	-0.08283033
215	0xbf120d1a	-0.5705124
216	0xbe045a4e	-0.12925074
217	0x3e170810	0.1474917
218	0x3f52a23d	0.82278806
219	0xbef4ba9a	-0.47798616
220	0x40850204	4.156496
221	0xbdb8313c	-0.08993766
222	0xbfbecb8f	-1.4905871
223	0xbf66eac0	-0.9020195
224	0xbf06be87	-0.5263447
225	0xbf3dab0a	-0.7408911
226	0x3fb65da1	1.4247323
227	0xbfc212e8	-1.516202
228	0x3f5e0e2c	0.86740375
229	0xbfb53986	-1.415818
230	0xbe878b0a	-0.26473266
231	0xbf106fad	-0.56420404
232	0xbe86a4b9	-0.26297548
233	0x40afeb99	5.4975095
234	0x3d9c4d7f	0.07631969
235	0xbed13057	-0.40857193
236	0x3f06ae04	0.52609277
237	0xbedd9417	-0.43277046
238	0x3f757b75	0.95891505
239	0xbf30fc39	-0.6913486
240	0xc0168ae6	-2.3522277
241	0xbe9686b1	-0.29399636
242	0x3ea9ed07	0.3318865
243	0xbf70afe0	-0.94018364
244	0x3e0b4edf	0.13604306
245	0xbf9f1ddb	-1.2430986
246	0xbfa72e6c	-1.3061042
247	0xbf1f2218	-0.621614
248	0xbfc47a4d	-1.5349823
249	0x3da9c960	0.08290362
250	0xbdcc06cf	-0.09962236
251	0xbe45f5b9	-0.19332017
252	0x3ddecbfb	0.1087875
253	0x3d1e0728	0.038581043
254	0xbd4b376c	-0.0496134
255	0x3f09ce95	0.53830844

gru.bias_ih_l0 f4 [30]
0	0x3cd5fcda	0.026121546
1	0xbe11c710	-0.14236093
2	0xbf7684a5	-0.9629615
3	0xbf699619	-0.91244656
4	0xbf7ff404	-0.99981713
5	0xbf070326	-0.5273918
6	0xbe2059ff	-0.15659331
7	0x3cf97ac5	0.030454049
8	0xbfecc721	-1.8498269
9	0xbeceb2ca	-0.4037078
10	0xbf1a5031	-0.6027861
11	0xbf42c785	-0.7608569
12	0x3d9ad818	0.07560748
13	0x3edbd476	0.42935532
14	0xbf169bb3	-0.5883133
15	0xbf8a5773	-1.0807937
16	0x3de33dd9	0.11095781
17	0x3f6de348	0.9292493
18	0x3b3d51a7	0.002888778
19	0xbd919e5d	-0.071102835
20	0xbe1b110d	-0.15143223
21	0x3e95638f	0.2917752
22	0xbe7f366a	-0.24923101
23	0x3d8bf21d	0.06833289
24	0xbdfdb516	-0.12388055
25	0x3ba4e83b	0.005032567
26	0x3d681e02	0.056669243
27	0x3d9250f7	0.07144349
28	0xbde514e0	-0.11185622
29	0x3dcba6fd	0.0994396

gru.bias_hh_l0 f4 [30]
0	0xbea9739f	-0.33096024
1	0x3d8b924e	0.06815015
2	0xbf4bce75	-0.79611903
3	0xbf9b5c93	-1.2137626
4	0xbf309a00	-0.68984985
5	0xbf664b32	-0.8995849
6	0xbeb764e7	-0.3581917
7	0xbdefbb46	-0.117056414
8	0xc006b95d	-2.1050637
9	0xbf37dc30	-0.71820354
10	0xbe158e33	-0.14605026
11	0xbf0929a7	-0.5357918
12	0x3d358f98	0.044326395
13	0x3eb2c29d	0.34914103
14	0xbeadfa09	-0.33979824
15	0xbfa2e276	-1.272536
16	0xbd93078a	-0.07179172
17	0x3f614da2	0.88009083
18	0x3e52d211	0.20587946
19	0x3ef83884	0.48480618
20	0x3e052dd2	0.1300576
21	0x3db29688	0.08720118
22	0x3f4f8836	0.81067216
23	0xbdcfc02b	-0.10144075
24	0x3d9e8f7f	0.077422135
25	0x3a306bb7	0.0006729918
26	0x3bc7b027	0.006093997
27	0x3e4e5041	0.20147802
28	0x3e8a7883	0.27045068
29	0xbee5bf17	-0.44872352

gru.weight_ih_l1 f4 [30, 10]
0	0x3f838b98	1.0276976
1	0xbfc3fa3d	-1.5310742
2	0xbf3b41cf	-0.7314729
3	0x41110ab5	9.065114
4	0xc0177ea4	-2.3671045
5	0x408c89fd	4.3918443
6	0x40089413	2.1340377
7	0xbfc4d38f	-1.5377063
8	0x404bdc4c	3.1853209
9	0x3fb78fb9	1.4340736
10	0x3f39332d	0.72343713
11	0xc08f0f7a	-4.470639
12	0x40850c3e	4.1577444
13	0xbfd373ec	-1.6519752
14	0xc0e7b47e	-7.2407827
15	0x405e922e	3.477672
16	0x405d6f88	3.4599323
17	0xc05a5a99	-3.4117796
18	0xc0b2c926	-5.5870543
19	0x4026f4b5	2.6086857
20	0x40b23d15	5.5699563
21	0xbf9b9385	-1.2154394
22	0xbf70c89f	-0.94056123
23	0xbf58f9a4	-0.8475592
24	0x3f69afe3	0.91284007
25	0xc0568d16	-3.3523612
26	0x3ffe284e	1.985605
27	0xbf862bb1	-1.0482084
28	0xc0843b79	-4.13226
29	0x40707f18	3.7577572
30	0x3ff1a946	1.8879783
31	0x3debf496	0.115212604
32	0x3f6aff80	0.9179611
33	0x3feb05fb	1.83612
34	0xc08767f5	-4.23144
35	0x3f1507bc	0.58214927
36	0xbff6734a	-1.9253933
37	0x3f4df110	0.8044596
38	0xbfdaca57	-1.7092999
39	0x3f81606b	1.010755
40	0xc00f8512	-2.242497
41	0x3f1f20e1	0.62159544
42	0x400e676e	2.2250628
43	0x407d8c21	3.9616778
44	0xc004e7bb	-2.0766437
45	0x3f9b56ab	1.2135824
46	0x3fd14da1	1.6351815
47	0x3eac7027	0.33679315
48	0x406e662e	3.7249866
49	0x405570b9	3.335005
50	0x40cad606	6.338626
51	0xc00c6400	-2.1936035
52	0xc0b8a05f	-5.7695765
53	0x40c7f8de	6.2491293
54	0xc05a36e3	-3.4096
55	0x3faf1699	1.3678771
56	0xc02a7cf8	-2.6638775
57	0xc15de524	-13.868443
58	0xc065631a	-3.5841737
59	0x3f0e58b3	0.55604094
60	0xbf2a46ab	-0.6651408
61	0xbfed357d	-1.8531948
62	0x4048ee6d	3.1395524
63	0x3f9c73c0	1.2222824
64	0x3f9682d7	1.1758679
65	0x3f88c60d	1.068544
66	0x3cb854bf	0.022501348
67	0xbe23f5c1	-0.16011716
68	0x4027ffd9	2.6249907
69	0x3f69c22c	0.9131191
70	0x410de0bc	8.867367
71	0xbec12845	-0.37726036
72	0xc0c8755b	-6.2643256
73	0xc166151b	-14.380153
74	0xc0c405c3	-6.1257033
75	0xbfb46348	-1.4092798
76	0x402e4636	2.7230353
77	0xc081ac09	-4.0522504
78	0xc09fea27	-4.997333
79	0x3f9c70b8	1.2221899
80	0x40827af9	4.0775113
81	0x4010570f	2.2553136
82	0xbf81788c	-1.0114913
83	0x3fa97701	1.3239442
84	0x3f949b24	1.1609845
85	0xbed93e54	-0.42430365
86	0xbfd983e9	-1.6993381
87	0x3e86827b	0.26271424
88	0xc0b85812	-5.760751
89	0x3c194e59	0.009357058
90	0xbfd5112a	-1.6645863
91	0xbea5297e	-0.3225822
92	0xc0410d94	-3.0164537
93	0x408662cd	4.1995606
94	0xc034dd6a	-2.826014
95	0x400cbfe4	2.199212
96	0x3eb933c2	0.361723
97	0xc0b9ff12	-5.8123865
98	0xc0085aae	-2.1305346
99	0x4036899a	2.8521485
100	0xbf03f82f	-0.51550573
101	0x3e495801	0.19662477
102	0x3fb287b9	1.3947669
103	0x3f86a61a	1.051944
104	0xbf279afe	-0.65470874
105	0xc0508f3c	-3.2587423
106	0x3f0a0901	0.5391999
107	0x40217b25	2.5231411
108	0x3f11eb6f	0.5699987
109	0xbff158ba	-1.8855202
110	0x3f420020	0.7578144
111	0x400552ab	2.0831707
112	0xbfce76c9	-1.613
113	0x3f529292	0.822549
114	0xbfb1c0c2	-1.388695
115	0xbd580b81	-0.052745346
116	0xbf46098e	-0.7735833
117	0xbf1570fa	-0.58375514
118	0x3fa02229	1.2510425
119	0x3fac09b3	1.344046
120	0xbf21357b	-0.6297223
121	0xbfd2f1c0	-1.6480026
122	0xbf968303	-1.1758732
123	0x4042d6f8	3.0443707
124	0x3f580163	0.84377116
125	0xbe03c7ac	-0.12869138
126	0xbf5e756c	-0.8689792
127	0x3fec3eeb	1.8456701
128	0xbeeaca4b	-0.45857462
129	0xbfad8208	-1.3555307
130	0x3f9b9989	1.215623
131	0x3fe1348c	1.7594161
132	0xbe6b1e44	-0.22960764
133	0x3e366e78	0.17815578
134	0xbf90520a	-1.1275036
135	0xbe134fcd	-0.1438591
136	0xbfc71629	-1.5553638
137	0xbfa95f85	-1.3232275
138	0xbf5968f5	-0.84925777
139	0x4005a967	2.0884645
140	0xbed87153	-0.4227396
141	0x4016e75e	2.3578715
142	0x3edac972	0.42731816
143	0xbfd1e4dc	-1.6397967
144	0xbea3a716	-0.31963414
145	0xbf796144	-0.9741404
146	0xbf58e165	-0.84718925
147	0x3e459aca	0.19297329
148	0xbfaa4c7b	-1.330459
149	0x3dfaa430	0.122383475
150	0xbec26fb4	-0.37975848
151	0x4008a0b1	2.1348078
152	0xbffe824d	-1.9883515
153	0x406e30fb	3.7217395
154	0x3e2e1198	0.16998899
155	0x400e3e88	2.2225666
156	0x3f0ef81c	0.55847335
157	0xc0088cc2	-2.1335912
158	0xbff0e06e	-1.881849
159	0xbfe06fda	-1.7534134
160	0xc0663104	-3.5967417
161	0x4013f2df	2.3116987
162	0x3cccfc53	0.025022661
163	0x4034e2b4	2.8263369
164	0xc0561e76	-3.3456092
165	0x3fd7a996	1.6848629
166	0xc060c53c	-3.5120382
167	0x4019ac22	2.4011312
168	0xbfb72572	-1.4308302
169	0x3ee767e1	0.4519644
170	0x4009207b	2.1426075
171	0x3fd47634	1.6598573
172	0x3fc01c4d	1.5008637
173	0xc0110e05	-2.2664807
174	0xbfbe6a5e	-1.4876211
175	0xbf03ffec	-0.5156238
176	0xc00a0732	-2.1566892
177	0xbf96d2da	-1.1783097
178	0x4055114a	3.3291802
179	0x4026af1b	2.6044376
180	0xbf8326d5	-1.0246226
181	0x40256a5c	2.5846167
182	0x3fab248e	1.3370531
183	0xbf614a7e	-0.8800429
184	0x3d8ada27	0.067798905
185	0xbea0cdf6	-0.31407136
186	0x3d9227b2	0.071364775
187	0xbf251cbb	-0.64496964
188	0x3e8422ad	0.25807706
189	0x3f0e7139	0.55641514
190	0xc021638b	-2.5217006
191	0x40222692	2.5336041
192	0xc0339072	-2.8056912
193	0x3f395d3d	0.72407895
194	0xbf60c8e7	-0.8780655
195	0xbd04b8fb	-0.032402974
196	0x3f4595ba	0.7718159
197	0x402d3c05	2.7067883
198	0x3fdc6ef7	1.7221364
199	0x3f2b5232	0.66922295
200	0xbdfceccd	-0.12349854
201	0x3e7edfe6	0.24890098
202	0x3ead2db6	0.33823937
203	0x403b5b9b	2.9274662
204	0xbe6ddd84	-0.23229033
205	0x3f92c8ea	1.1467564
206	0xbf1d5c1f	-0.6146869
207	0xbf88b31d	-1.0679661
208	0xbf53e3ca	-0.82769454
209	0xbefe3333	-0.49648437
210	0xbe1257f4	-0.14291364
211	0x3d351c2d	0.044216324
212	0xbe63bda5	-0.22240312
213	0x3c9fcf95	0.019508163
214	0xbf049c6b	-0.51801175
215	0x3f21b30f	0.63163847
216	0xbe931968	-0.2873032
217	0x3eda796a	0.42670757
218	0xbe2847fd	-0.16433711
219	0x3eff1e12	0.4982763
220	0xbdbc752f	-0.092020385
221	0x3ec216bc	0.3790797
222	0xbe970c9a	-0.29501802
223	0xbf585710	-0.84507847
224	0x3ea2809b	0.31738743
225	0x3cbdc4dc	0.023165159
226	0xbcf9d106	-0.030495178
227	0x3e998dc6	0.29990977
228	0x3f6a88d1	0.91615015
229	0x3d590531	0.052983467
230	0xbf4a2b9b	-0.78972787
231	0x3db37d5e	0.08764146
232	0xbf14eceb	-0.5817401
233	0xbf3a1446	-0.72687185
234	0xbf02ddbc	-0.5111959
235	0x3f58ca70	0.84683895
236	0x3e80574e	0.25066608
237	0xbef8b9ea	-0.4857934
238	0xbd6b8b01	-0.05750561
239	0xbddbcd54	-0.107325226
240	0xbef4ca6a	-0.4781068
241	0xbe35f0be	-0.17767617
242	0xbdf99e5e	-0.12188409
243	0x3f7945e5	0.97372276
244	0x3ea08b06	0.31356066
245	0x3f80eed7	1.0072888
246	0x3dd2be0c	0.10290155
247	0x3e0e002c	0.13867253
248	0x3cfb8b12	0.030705962
249	0x3d19b7b4	0.03752871
250	0xbf1750c7	-0.5910763
251	0x3e193e5a	0.14965191
252	0x3f9a40e4	1.2051053
253	0xbf4fcc5a	-0.8117119
254	0xbf4ece27	-0.80783314
255	0x3f3e0513	0.7422649

gru.weight_hh_l1 f4 [30, 10]
0	0xc020efea	-2.5146432
1	0xbf99ddbf	-1.2020797
2	0x3f5771ce	0.8415803
3	0x408580ba	4.1719637
4	0xc01bee02	-2.4364018
5	0xbfb8922b	-1.4419607
6	0x3efb0450	0.49026728
7	0x4006dcaa	2.1072183
8	0xc0b8705d	-5.763716
9	0xbfc1d97d	-1.5144497
10	0x412d237f	10.821166
11	0xc0a8835b	-5.2660346
12	0xc100cf07	-8.050544
13	0xbecf3574	-0.4047047
14	0xc0ff65ee	-7.9811926
15	0x40a20b8a	5.0639086
16	0xc0c7dc67	-6.2456546
17	0x3fd887d4	1.6916451
18	0xc0ba41fd	-5.820555
19	0x400ce33a	2.2013688
20	0x40c785e0	6.235092
21	0xbf502e9b	-0.81321114
22	0xbfe83f27	-1.8144273
23	0xc02a3316	-2.659368
24	0xbed893a5	-0.42300144
25	0x4005c002	2.0898442
26	0x400eda8b	2.2320888
27	0x4096fcca	4.718358
28	0x407adf0e	3.9198642
29	0xc0093f14	-2.144475
30	0xbfe44cf4	-1.7835984
31	0xbf968ad8	-1.1761122
32	0xc0bca1ad	-5.894736
33	0xc027e402	-2.6232915
34	0x3faaf215	1.3355128
35	0xbff662dd	-1.9248921
36	0x3fda659f	1.7062262
37	0x40a2af49	5.083897
38	0x40569f01	3.3534548
39	0xbed7a062	-0.4211455
40	0xc0832814	-4.0986423
41	0xbfad35e1	-1.3532068
42	0xbf584f59	-0.84496075
43	0x40b1ec0a	5.5600634
44	0xc013a6c5	-2.3070538
45	0xbf551230	-0.83230877
46	0xbfb77139	-1.4331428
47	0x3f175579	0.59114796
48	0xbf2ad425	-0.66729957
49	0x3ecd3654	0.40080512
50	0x41366f53	11.402179
51	0x3fdfd8f6	1.7488086
52	0xc004dde5	-2.0760434
53	0xc11eec59	-9.932702
54	0xbfbaa9e0	-1.4583092
55	0x3f8271c0	1.0190964
56	0xc02811b4	-2.6260805
57	0x405c55b0	3.44273
58	0xc0989cfe	-4.769164
59	0xbf9cd4c1	-1.2252427
60	0xbf564ccf	-0.8371095
61	0xbff08465	-1.8790404
62	0x40285453	2.6301467
63	0xc0453aab	-3.0817058
64	0x3fe93836	1.8220279
65	0x3f72d4e8	0.9485612
66	0xbf1649c5	-0.58706313
67	0x3fd80d1a	1.6878998
68	0xc132fdb9	-11.186944
69	0xbfacf745	-1.3512961
70	0xc042955f	-3.040367
71	0xc1521060	-13.128998
72	0x3f36c418	0.71392965
73	0x40386b2d	2.8815415
74	0x40a20bfb	5.0639625
75	0xc061977b	-3.5248706
76	0x4039ea91	2.9049418
77	0x40b25ea1	5.5740514
78	0x4180e437	16.111433
79	0xc08ee430	-4.465355
80	0xc0fc1adc	-7.8782787
81	0x4062d896	3.5444694
82	0xc0c297b9	-6.081021
83	0xc003d2ef	-2.0597494
84	0xc066a828	-3.6040134
85	0xc0645865	-3.5678952
86	0xbf9b14c8	-1.2115717
87	0xbf4e0736	-0.80479753
88	0xbf737c0a	-0.95111144
89	0x4028ebae	2.6393847
90	0x409fd120	4.994278
91	0x3f404af9	0.751144
92	0x4028753e	2.632156
93	0xc02ea03a	-2.7285295
94	0x40e586d4	7.1727085
95	0xc0996bd9	-4.794415
96	0x405649ad	3.3482468
97	0x40c8a8a6	6.270587
98	0xbf3100fd	-0.69142133
99	0xbfab8068	-1.3398561
100	0x3f2281c7	0.63479275
101	0xbe6442f4	-0.22291166
102	0xbf21352b	-0.6297175
103	0xbf972cf9	-1.18106
104	0x3e9e9810	0.3097539
105	0xbfcb88be	-1.5901105
106	0xbdc458ef	-0.09587275
107	0x407c018a	3.937594
108	0x4064588c	3.5679045
109	0xc0222943	-2.5337684
110	0x4019b71c	2.401801
111	0x406f2b1a	3.7370057
112	0x3f2b609b	0.66944283
113	0x4026f897	2.6089227
114	0xc062e3c9	-3.545153
115	0xc03030b1	-2.752972
116	0x3f5e53ac	0.86846423
117	0xbeec0de4	-0.46104348
118	0xc0795e39	-3.896376
119	0xc0308547	-2.7581346
120	0x40630917	3.5474298
121	0x409cea72	4.903619
122	0x401d76ef	2.4603841
123	0xc02e3b3a	-2.722365
124	0xbe9aae10	-0.30210924
125	0xc03811a1	-2.876076
126	0x400146dd	2.0199502
127	0x401d2b32	2.4557614
128	0xbfbfd187	-1.4985818
129	0xbf9be4ad	-1.2179161
130	0xbf38cddd	-0.7218912
131	0xbf6a8ed7	-0.91624206
132	0x3de6b6aa	0.11265309
133	0x3d0ae097	0.03390559
134	0xbf05f03d	-0.523197
135	0xc00bc694	-2.1839952
136	0xbf9d1b5d	-1.2273976
137	0x3f37c251	0.7178088
138	0xbff62130	-1.9228878
139	0xbf751c63	-0.9574644
140	0xbfbd206d	-1.477552
141	0xbf303a89	-0.6883932
142	0xbf612dcd	-0.8796051
143	0x400b31d3	2.174916
144	0xc04c6a2f	-3.193981
145	0xc008a248	-2.1349049
146	0xbfdbd154	-1.7173257
147	0xbe91f476	-0.2850682
148	0xc1071e89	-8.444955
149	0x3d9da3c6	0.07697253
150	0xbe93c1e9	-0.2885888
151	0xbef884a8	-0.4853871
152	0xc00ecf35	-2.231397
153	0xbec5cab6	-0.3863122
154	0xbfcc08f4	-1.5940232
155	0xbfa867eb	-1.3156713
156	0xbfa30993	-1.2737297
157	0x408a99b1	4.331261
158	0xc0d9f2da	-6.810895
159	0xc07023a0	-3.7521744
160	0x3fefe01b	1.8740267
161	0xbfe1e021	-1.7646524
162	0xbfb4c5b5	-1.4122835
163	0x3ff9013e	1.9453504
164	0xc110c7ed	-9.04881
165	0xc0b14f04	-5.5408955
166	0xc0476976	-3.1158118
167	0x3fb29cf3	1.3954147
168	0xc0ff5dd2	-7.9802027
169	0xc0d37753	-6.608316
170	0xc00c830d	-2.1954987
171	0xc0128108	-2.2891254
172	0x400a5a88	2.1617756
173	0x40898099	4.296948
174	0x3fa0ff64	1.2577939
175	0xc0417f34	-3.0233889
176	0xbffe9023	-1.9887737
177	0x3f7239b5	0.94619304
178	0xc095cb22	-4.6810465
179	0x3fdfbd7f	1.7479705
180	0x3f7d38ec	0.9891498
181	0x3dacc6eb	0.08436378
182	0x3e1e1245	0.15436657
183	0x3f34df2a	0.7065302
184	0x3eadd722	0.33953196
185	0xbfb56120	-1.4170265
186	0xbf1251e9	-0.57156235
187	0xbd5a9436	-0.053364
188	0x3e712f3f	0.23553179
189	0xbf44b6e2	-0.7684156
190	0xbf833903	-1.0251774
191	0x3fb225bb	1.3917764
192	0x3e628981	0.22122766
193	0x3ef3b16d	0.47596303
194	0x40143746	2.3158736
195	0xc01544aa	-2.332316
196	0xbf521f39	-0.8207889
197	0x40088a0d	2.133426
198	0x40879364	4.236742
199	0xbfad6504	-1.3546453
200	0xbe61916a	-0.22028127
201	0x3fdbbb7b	1.716659
202	0x40264a6c	2.5982924
203	0xbf80c824	-1.0061078
204	0x40215420	2.5207596
205	0xbefd8bab	-0.4952062
206	0x3feac640	1.8341751
207	0x3fb06f0e	1.3783891
208	0x4023b456	2.5578818
209	0xbf0cb522	-0.54963887
210	0x3f9750b9	1.182151
211	0xbe1e7753	-0.15475206
212	0x3f22b0a5	0.6355079
213	0x3f9e7f62	1.2382624
214	0xc0483751	-3.1283762
215	0xbf07fe22	-0.5312215
216	0xbee65f20	-0.4499445
217	0xbf813394	-1.0093865
218	0xc05c12a9	-3.438639
219	0xbfc6311b	-1.5483736
220	0xbf18b5bb	-0.596523
221	0x3f8dc1a1	1.1074716
222	0xbff0876b	-1.8791326
223	0x3cfb46be	0.030673381
224	0xbfb192e7	-1.3872956
225	0x3f889d3d	1.0672985
226	0xbe445ee9	-0.1917683
227	0xbec263b6	-0.37966698
228	0x3af890ac	0.0018964014
229	0x3fdb1985	1.7117163
230	0x3f9ed6ee	1.2409341
231	0xbfa56fc2	-1.2924731
232	0xbee11ed9	-0.43968847
233	0xbff4b679	-1.9118186
234	0xbf1d2d4c	-0.6139724
235	0x3f11ec10	0.5700083
236	0xbfb945ec	-1.4474463
237	0x3ecb6bf7	0.39730808
238	0x4009353c	2.1438742
239	0xbf50b20b	-0.8152167
240	0xbf96f98f	-1.1794909
241	0xbe661975	-0.22470649
242	0xbf008024	-0.5019553
243	0x3feed62c	1.865911
244	0xc0204286	-2.5040603
245	0x3ead03e5	0.33792034
246	0xbf6daaf4	-0.9283898
247	0x3e2595d4	0.16170436
248	0xc0aa027a	-5.3128023
249	0x3f7a5344	0.97783303
250	0x3fc9fc73	1.5780166
251	0x40384e54	2.8797808
252	0x3faff7b2	1.3747466
253	0xbf9d09f4	-1.2268662
254	0x3f7963eb	0.9741809
255	0x3dcd43e8	0.10022718

gru.bias_ih_l1 f4 [30]
0	0xbdc9879f	-0.09840321
1	0xbd09dbb7	-0.033656802
2	0xbeea1322	-0.45717722
3	0xbf497c99	-0.78705746
4	0xbef568fa	-0.47931653
5	0x4006522c	2.0987654
6	0x3f71236d	0.9419468
7	0xbf2b0a82	-0.6681291
8	0xbfdd6a9d	-1.7298161
9	0xbfe112b2	-1.758383
10	0x3fd383e1	1.6524621
11	0xbc998a56	-0.018742722
12	0xbd712e36	-0.05888196
13	0xbe607072	-0.21917894
14	0xbd9ae56e	-0.075632915
15	0x3fb6ccab	1.428121
16	0xbe7a0f56	-0.24419913
17	0xbf574568	-0.8409028
18	0x3efaa7f4	0.48956263
19	0x3f4c29a9	0.7975107
20	0xbe1b6d5b	-0.15178435
21	0xbde874e3	-0.11350419
22	0xbc19a509	-0.009377726
23	0xbe311756	-0.17294058
24	0x3c7a1181	0.015262962
25	0x3e89a5ef	0.2688441
26	0x3eb0089e	0.34381574
27	0xbd01403c	-0.0315554
28	0xbdfb92c7	-0.12283855
29	0xbdc71a5a	-0.09721823

gru.bias_hh_l1 f4 [30]
0	0xbe958d89	-0.29209545
1	0x3e61f8d5	0.22067578
2	0xbf253b3f	-0.6454353
3	0xbf78dd32	-0.9721252
4	0xbf5121a9	-0.81691986
5	0x400a333d	2.1593773
6	0x3efd8032	0.49511868
7	0xbf742da6	-0.95382154
8	0xbfab3964	-1.3376889
9	0xbfa4ab70	-1.2864819
10	0x3fa04f8a	1.2524273
11	0x3ed6c8a3	0.4194995
12	0xbce60fca	-0.0280837
13	0xbe9fd222	-0.31215006
14	0xbf02c993	-0.5108883
15	0x3fb533a2	1.4156382
16	0xbe39fcfc	-0.18162912
17	0xbf556cd5	-0.8336919
18	0x3e22eb9f	0.15910195
19	0x3f24e87f	0.6441726
20	0x3de331b5	0.11093465
21	0xbcb43f09	-0.022002714
22	0xbec3bd7f	-0.38230512
23	0x3ecaf459	0.39639547
24	0x3e00a4f2	0.12562922
25	0xbe44da13	-0.19223814
26	0x3e18b216	0.14911684
27	0x3decc3f8	0.115608156
28	0x3d99f2ed	0.075170375
29	0xbdafe34b	-0.085882746

fc.weight f4 [5, 10]
0	0x3ba3ece9	0.005002607
1	0xbe9bf530	-0.304605
2	0xbea00aa0	-0.31258106
3	0x3e6da047	0.23205672
4	0x3c046f4f	0.008083179
5	0x3db4dd69	0.08831293
6	0xbde7f1e2	-0.11325432
7	0xbd3996b5	-0.04530974
8	0xbd88c4d5	-0.06678168
9	0xbe626ae5	-0.2211109
10	0x3d8f32aa	0.06992085
11	0xbebd4b6a	-0.369716
12	0xbe407da8	-0.18797934
13	0x3d5f21b8	0.054475516
14	0xbded2005	-0.11578373
15	0x3d44b24f	0.04802161
16	0xbe13dafc	-0.14439005
17	0xbd6416a9	-0.055685673
18	0xbd3da2dc	-0.046297893
19	0xbe950d36	-0.29111642
20	0x3cdc1880	0.026867151
21	0xbecce055	-0.40014902
22	0xbe0dabe9	-0.1383511
23	0x3ea36ce5	0.31919017
24	0xbea0ee64	-0.31431878
25	0x3dec2523	0.11530521
26	0xbe48cfd5	-0.19610532
27	0xbd92743c	-0.07151076
28	0xbee35b9c	-0.4440583
29	0xbe657ff0	-0.22412086
30	0x3d83282a	0.06404145
31	0xbe66ada3	-0.22527175
32	0xbe170829	-0.14749207
33	0x3e6222ad	0.2208354
34	0xbda207b7	-0.07911628
35	0x3d85a7af	0.06526124
36	0xbe0c1b85	-0.13682373
37	0xbe110270	-0.14161086
38	0x3e65afc7	0.22430335
39	0xbe1f759f	-0.15572213
40	0xbd1df5db	-0.038564544
41	0xbe69a8aa	-0.22818246
42	0xbe523bbe	-0.20530602
43	0x3e3b92ba	0.1831769
44	0xbe1d9094	-0.15387183
45	0xba8cdc92	-0.0010746887
46	0xbdd45081	-0.103669174
47	0x3d6cfbbd	0.057857264
48	0x3ecee734	0.4041077
49	0xbe4d5528	-0.20052016

fc.bias f4 [5]
0	0xbc6d4b89	-0.014483341
1	0x3bd6127d	0.0065329657
2	0x3bd422e9	0.006473888
3	0xbb02fedf	-0.001998834
4	0x3c54e549	0.012994119
