models/GSF-110-hidden-3-input-1-layer.pth (torch, 155950 bytes, 6 tensors)

gru.weight_ih_l0 f4 [330, 3]
0	0xc006d31d	-2.1066353
1	0xbfc5c95a	-1.5452073
2	0xbfa26a13	-1.2688621
3	0x3eb8a35b	0.3606213
4	0xbffa7a33	-1.9568542
5	0xc0331700	-2.7982788
6	0xc0a23835	-5.069361
7	0xc01b0a9c	-2.4225225
8	0x403df0c9	2.9678214
9	0xbebac9b1	-0.36482003
10	0x402e956f	2.7278707
11	0x3f107ce5	0.56440574
12	0xc01f325f	-2.4874494
13	0xbf791de2	-0.9731122
14	0xbdf384b6	-0.11890547
15	0x3e7ffcf1	0.24998833
16	0xc10076cc	-8.029003
17	0xc02558e4	-2.5835505
18	0x4090077d	4.500914
19	0xbeb23086	-0.34802645
20	0xbfdb52ff	-1.7134703
21	0x40befe48	5.96854
22	0xc00a62ef	-2.1622884
23	0x3fa2e987	1.2727517
24	0xc0f78edf	-7.7361903
25	0xc0e9572a	-7.29189
26	0x40b6fe59	5.7185483
27	0xbf9cbb2d	-1.2244622
28	0x3fab7319	1.33945
29	0xc091c99a	-4.5558596
30	0xc02fce35	-2.7469609
31	0x3fbc2b4c	1.4700713
32	0xc0ab259b	-5.3483405
33	0xc0a9b118	-5.302868
34	0x3fa05bb8	1.252799
35	0xbec7c379	-0.3901632
36	0xc09fc47c	-4.992735
37	0x4047f4ce	3.1243167
38	0xc0261df6	-2.5955787
39	0x3f9f5aff	1.2449645
40	0xc08018ae	-4.0030127
41	0x40175565	2.364587
42	0xc08203a0	-4.0629425
43	0x3e895930	0.26825857
44	0xc01bd048	-2.4345875
45	0x4066c814	3.6059618
46	0x401381cb	2.304797
47	0xc01a56a6	-2.4115386
48	0x40919e8c	4.550604
49	0x3ea7b880	0.3275795
50	0xc06eb088	-3.7295246
51	0x3ecfa756	0.40557355
52	0xbffb72da	-1.9644425
53	0x4082987f	4.0811152
54	0x3fa309ee	1.2737405
55	0xbff52428	-1.9151659
56	0x40df7c14	6.9838963
57	0x40abd74d	5.370032
58	0x4019567f	2.3959043
59	0x40b75a9b	5.72981
60	0x3dd576fc	0.10423085
61	0x402990fc	2.6494741
62	0xbfbd77b2	-1.4802153
63	0x3faa1427	1.32874
64	0xc0b9bb36	-5.804103
65	0x4028c57a	2.637053
66	0xc03d6c63	-2.9597404
67	0x4089c823	4.3056808
68	0xc0d8ae58	-6.771282
69	0xc094af20	-4.6463776
70	0xc093f9c7	-4.6242404
71	0xc078cb74	-3.8874178
72	0xbde3f14c	-0.11130008
73	0x408e3583	4.444032
74	0x400980b8	2.1484814
75	0xbf624a07	-0.88394207
76	0x3fb8001f	1.4375037
77	0x40ae25cd	5.4421144
78	0x3f559322	0.8342763
79	0x403ba3dd	2.9318764
80	0x3f9f6786	1.2453468
81	0x40100e01	2.2508547
82	0xc0422798	-3.0336666
83	0xc0db9f35	-6.8631845
84	0x4004c7ae	2.0746875
85	0x403b57a4	2.9272242
86	0xc051666f	-3.271877
87	0x3f30a1f2	0.6899711
88	0x40bd39c2	5.9133005
89	0x4079531a	3.895697
90	0x3f88048b	1.0626386
91	0xbfcedd00	-1.6161194
92	0xc0beae0c	-5.958746
93	0x4045c8bb	3.0903766
94	0x3f80204a	1.0009854
95	0x4080324d	4.00614
96	0x40978a39	4.735623
97	0xc00407cd	-2.0629761
98	0x3f282b7e	0.65691364
99	0x406e654f	3.7249334
100	0x408e6190	4.4494095
101	0x40c6c443	6.2114577
102	0xc0fbc719	-7.868054
103	0x3f0725b0	0.5279188
104	0xbfd60202	-1.6719363
105	0xc0302711	-2.7523844
106	0xc01602c2	-2.3439183
107	0x40568e17	3.3524225
108	0xbfea3f7f	-1.8300627
109	0x3f71180d	0.94177324
110	0xbf237217	-0.6384596
111	0xc028f1d9	-2.6397612
112	0x3f8b787b	1.0896143
113	0x409d8458	4.9224052
114	0xbfe85b4c	-1.8152862
115	0x40b6c867	5.711963
116	0x402baca0	2.6824112
117	0x4040d09d	3.0127327
118	0x3f6ddec4	0.9291804
119	0xc1032465	-8.196385
120	0x3f217bbf	0.63079447
121	0xc0196a59	-2.397116
122	0xbf229d67	-0.63521427
123	0xc0012fa3	-2.0185325
124	0xc0d31517	-6.5963244
125	0xc042f44c	-3.0461607
126	0x3e3a9553	0.18221025
127	0x3f445f29	0.767077
128	0xc062da77	-3.544584
129	0xc0618374	-3.5236483
130	0x3f58dbcb	0.8471038
131	0x4086f86f	4.2178264
132	0x40c476f7	6.139522
133	0xbfd5d7f4	-1.6706529
134	0xc0dc613d	-6.88687
135	0xbfe84a70	-1.8147717
136	0xc0ee0df9	-7.4392056
137	0xc0c8de4a	-6.277135
138	0xc08ff0db	-4.4981513
139	0xbfff9362	-1.9966853
140	0x3fbc87b5	1.4728914
141	0x40a4212f	5.1290507
142	0x3f89b8c8	1.0759516
143	0x40d4fd94	6.6559544
144	0xc09aead2	-4.8411646
145	0x3fde0297	1.734454
146	0xbfdffaf1	-1.7498456
147	0xbd2cdf42	-0.042205103
148	0x403b7ed2	2.9296155
149	0x4071aaca	3.7760491
150	0x3fea1bfe	1.8289793
151	0xbfec1c95	-1.8446223
152	0x4000ef17	2.014593
153	0x405932c8	3.3937244
154	0x40b5d9c9	5.682835
155	0xbf33e93c	-0.7027776
156	0x3f8b1f0c	1.086885
157	0x40bcdf99	5.9022946
158	0xbf333fbf	-0.70019144
159	0xc0417d47	-3.0232713
160	0x3faabf4d	1.333963
161	0xbf8fd9b1	-1.1238309
162	0x3edba9b8	0.42902923
163	0x3f3242e4	0.69633317
164	0x3fb3ed9e	1.405689
165	0x40319d5c	2.7752295
166	0x409349f5	4.602778
167	0xbd150c1f	-0.036388513
168	0xbfc72b83	-1.5560154
169	0x4088f66f	4.280082
170	0xc04790db	-3.1182163
171	0x40059d57	2.0877283
172	0x3e893104	0.26795208
173	0xbde5afff	-0.11215209
174	0x3f8a3dff	1.080017
175	0x3ed79053	0.42102298
176	0x3f8a61a9	1.0811054
177	0xc02b9e39	-2.6815321
178	0xbfedf1ae	-1.858938
179	0xbe143acb	-0.14475553
180	0xc0c6de1a	-6.214612
181	0x3fea67e1	1.8312951
182	0x405e4e5a	3.4735322
183	0xc0511d73	-3.2674224
184	0x3e4d96a1	0.20076992
185	0x40a311d1	5.095925
186	0xc0d09b1f	-6.5189357
187	0xc10047c7	-8.017524
188	0x3fc17c0f	1.5115985
189	0x408574cc	4.1705074
190	0x411e8cb9	9.909356
191	0xc01c8206	-2.445436
192	0xc090b968	-4.5226326
193	0xbfbc2e5e	-1.470165
194	0x3f3c9fb5	0.73681194
195	0xbf6d82e2	-0.92777836
196	0x40e65f83	7.199159
197	0xbfbee83b	-1.4914621
198	0xc0ddc513	-6.930307
199	0x4063ef62	3.5614858
200	0x409dc3ab	4.9301353
201	0xc07796e2	-3.8685842
202	0x3f2f4620	0.6846638
203	0x3f32e86d	0.69885904
204	0x3f3bb539	0.733234
205	0xbdf30565	-0.11866263
206	0xc08606c6	-4.188327
207	0xc03b7ce3	-2.9294975
208	0xc0d0c8e2	-6.524522
209	0x3e15a6a8	0.14614356
210	0xc0b06145	-5.5118737
211	0x404fc57d	3.2464287
212	0x40846f91	4.138619
213	0x40065fee	2.099605
214	0xbf9b60ab	-1.2138876
215	0xbfbd8d8d	-1.4808823
216	0x3f947937	1.1599492
217	0x40125da4	2.2869654
218	0xbfb5e04d	-1.4209076
219	0x408450cb	4.1348624
220	0x401c8d0e	2.4461093
221	0xc096bf52	-4.7108545
222	0xbfff54a8	-1.994771
223	0xbc8e23bc	-0.017351024
224	0x4098fd81	4.7809453
225	0x4106d125	8.426061
226	0xbea394ee	-0.31949562
227	0xbe28669c	-0.16445392
228	0x3e6b473e	0.22976395
229	0x4138f4a4	11.559727
230	0x40e92f5b	7.2870307
231	0xbd16a062	-0.036774047
232	0x3ff45b2e	1.9090326
233	0x400e1e2f	2.2205923
234	0x3e436a86	0.19083604
235	0x3feb6d90	1.8392811
236	0x4070519f	3.7549818
237	0xbf42e82c	-0.76135516
238	0xbfdce588	-1.7257547
239	0xc0037ddb	-2.0545566
240	0xc0013bc2	-2.0192723
241	0x3f58213b	0.84425706
242	0x401b8046	2.4297042
243	0x3fe9f28f	1.8277148
244	0x3fc1eb23	1.5149883
245	0xbfed36cb	-1.8532346
246	0xc139bc24	-11.608433
247	0x3ed84883	0.42242822
248	0xc078cd9f	-3.88755
249	0x411a7b3e	9.655088
250	0x40ab749e	5.3579855
251	0x3f9e5fdb	1.2373003
252	0xc091039d	-4.531691
253	0xc042b350	-3.0421944
254	0xc0783ea8	-3.8788242
255	0xc04efd8c	-3.2342253

gru.weight_hh_l0 f4 [330, 110]
0	0xbf9c778d	-1.2223984
1	0x3fff50fc	1.994659
2	0xbe011e0b	-0.12609117
3	0xbf13a95d	-0.576803
4	0x3fabe75f	1.3429984
5	0x3e2786e1	0.16360046
6	0xbfe7cab6	-1.8108737
7	0x3f82fb7c	1.0232997
8	0x3f473b85	0.77825195
9	0xbfbb2250	-1.4619846
10	0x3ec47dfd	0.3837737
11	0xbe29b7a2	-0.16573957
12	0x3e17f1c2	0.14838317
13	0xbf7b3d04	-0.9813998
14	0x3f82d4ea	1.0221226
15	0xbc8bc5ce	-0.017062094
16	0x40184f1c	2.3798285
17	0x4033ed8d	2.811374
18	0xbeb77759	-0.35833243
19	0xbf8f6e4f	-1.1205539
20	0x3ee21b20	0.4416132
21	0xbf64373f	-0.891468
22	0x3ec2ec13	0.38070735
23	0xbf59b2b2	-0.8503829
24	0x4017f7df	2.3745039
25	0xbf9eee49	-1.2416469
26	0xbf8ca6c9	-1.0988399
27	0xbf1eb7bd	-0.6199911
28	0xbe8db67f	-0.27678296
29	0xc01fcaea	-2.49676
30	0x3f80d530	1.006506
31	0xbfe0c993	-1.7561516
32	0xc00a07f1	-2.1567347
33	0x3b0526fe	0.002031743
34	0xbfd65864	-1.6745725
35	0xc051c875	-3.27786
36	0x4008ce8d	2.1376069
37	0xbe0c3162	-0.13690713
38	0x405be65e	3.4359355
39	0x3f21b638	0.6316867
40	0xbe67a6d2	-0.2262223
41	0xbee17940	-0.4403782
42	0x40518f71	3.27438
43	0x3e2f20d3	0.17102365
44	0x3f2ceb6a	0.67546713
45	0xc02971b1	-2.6475642
46	0x3e3e91be	0.18610284
47	0xbf2824b7	-0.6568102
48	0xbf618eea	-0.88108695
49	0x3fbd1a15	1.4773585
50	0x4050ed5e	3.2644877
51	0x3df4cd68	0.11953241
52	0x3f214641	0.62997824
53	0x3fa5be8c	1.2948775
54	0xc0adda20	-5.4328766
55	0xbf824650	-1.0177708
56	0x3fc787f0	1.558836
57	0xbef88ec2	-0.48546416
58	0x4006d0bc	2.1064901
59	0x3ff23707	1.8923043
60	0xc0278015	-2.6171925
61	0xbf42cd4e	-0.7609452
62	0xbef742d3	-0.4829317
63	0x3f917a98	1.1365538
64	0x3fac6437	1.3468083
65	0xbe8cb6ae	-0.27483124
66	0x3f137c60	0.57611656
67	0x3f971047	1.1801842
68	0xbfe8e4e9	-1.8194858
69	0xc009d0f0	-2.1533775
70	0xc01e972c	-2.4779768
71	0xbc9005b5	-0.017580846
72	0xc02d80e6	-2.7109923
73	0xbf6aa8ca	-0.916638
74	0x3e767ec9	0.24071802
75	0x3efaa5c8	0.48954606
76	0xbfdaa433	-1.708136
77	0x3f61735f	0.8806667
78	0x3f9ed201	1.2407838
79	0x3f9ca79b	1.2238649
80	0x3ddf930c	0.10916719
81	0xbfa9b331	-1.325781
82	0x3f0ca16a	0.549338
83	0xbe8e16e7	-0.27751848
84	0x3eb6cecf	0.35704657
85	0xbfc8d1c0	-1.5689011
86	0xc02935d8	-2.6439114
87	0x4010af88	2.2607136
88	0xbf565d11	-0.8373576
89	0xbfeb0894	-1.8361993
90	0x403ebb9d	2.980201
91	0x3f4ae977	0.7926249
92	0xbf94d9f3	-1.1629013
93	0xbfe3af75	-1.778792
94	0xbeab66b8	-0.33476806
95	0xbe2249cb	-0.15848462
96	0xbf6f8284	-0.93558526
97	0x3fb15dca	1.3856747
98	0x4017df1d	2.3729928
99	0x40397a5c	2.8980932
100	0x3f032d9e	0.5124148
101	0xbf84d7ed	-1.0378395
102	0xbebd01bb	-0.36915383
103	0x3f910202	1.1328738
104	0x3ff7c45c	1.9356799
105	0xc0162c58	-2.3464565
106	0xbe036220	-0.128304
107	0x3ff743d0	1.931757
108	0x3fd95430	1.6978817
109	0xbef51081	-0.47864154
110	0x3f0ea1d3	0.55715674
111	0xbf0453eb	-0.5169055
112	0x3fdb1f02	1.7118838
113	0xbe591a7c	-0.21201509
114	0xbf8daa3a	-1.1067574
115	0xbf3d9323	-0.7405264
116	0xbd5438c7	-0.05181196
117	0xbe4a98f2	-0.19784907
118	0xbe95daf7	-0.2926862
119	0x3f39b039	0.7253452
120	0x3ebfce1a	0.3746193
121	0x400a8737	2.1645029
122	0xbd48b8a1	-0.0490042
123	0x3e68a5f3	0.22719555
124	0xbfaec6a1	-1.3654367
125	0xbfcd97d8	-1.6061964
126	0xbff4915f	-1.9106864
127	0xbf3f5425	-0.7473777
128	0xbfa134cc	-1.2594237
129	0x3f116305	0.56791717
130	0xbe4aaa86	-0.19791612
131	0x3fa457de	1.2839315
132	0x3f48d917	0.7845625
133	0xbf7748a7	-0.96595234
134	0xbe976007	-0.2956545
135	0x3e52dbf4	0.20591718
136	0x3de1067b	0.10987564
137	0x3fcb28cd	1.5871826
138	0x3fce248d	1.6104904
139	0xc056c54a	-3.3557916
140	0xc026b822	-2.6049886
141	0xbf532bba	-0.82488596
142	0x3f437d29	0.76362854
143	0xbfdef68e	-1.7418993
144	0xbefce5ff	-0.49394223
145	0x3eafa327	0.34304163
146	0xbfb18040	-1.3867264
147	0x3e3efe42	0.18651679
148	0x402db2bb	2.7140338
149	0x406bae86	3.682527
150	0xc002c7d6	-2.043447
151	0xbf68c74a	-0.9092909
152	0xbf703012	-0.9382335
153	0x3f21510d	0.630143
154	0x3fc6c629	1.5529224
155	0xbf50f77c	-0.8162763
156	0xbf23ba7d	-0.63956434
157	0x4068715f	3.6319196
158	0xbf1fb63b	-0.62387437
159	0x3ff82da0	1.9388924
160	0xbffe6be0	-1.9876671
161	0x3e0df9b9	0.13864793
162	0x3e84a36a	0.25905925
163	0xbf7f2208	-0.996613
164	0x3ff23f1c	1.892551
165	0xc03339e7	-2.800409
166	0xbfffaa7e	-1.9973905
167	0x3fb113ca	1.3834164
168	0xbfb8cb0f	-1.4436969
169	0xbe40f069	-0.18841709
170	0x402cf82b	2.702647
171	0x3faac5d6	1.3341625
172	0xbfa00344	-1.2500997
173	0x3dae2609	0.085033484
174	0xc0026033	-2.0371215
175	0x3e7ae77a	0.24502364
176	0x3f03f79a	0.51549685
177	0xbbaa8ff9	-0.005205151
178	0xc0249d76	-2.5721107
179	0x3fbf347a	1.493789
180	0x3c200c90	0.00976862
181	0x3f6a1e9e	0.9145297
182	0x3ff0c385	1.8809668
183	0x3fae91d2	1.3638251
184	0x3ea1b2a5	0.31581607
185	0x3f0abc22	0.5419332
186	0x40338970	2.8052635
187	0x402a9893	2.6655624
188	0x402bb905	2.6831677
189	0x4012026d	2.281398
190	0x4003e0f5	2.0606053
191	0x3f3afcdc	0.7304208
192	0xbfc88eb8	-1.5668554
193	0xbf1c4ad5	-0.61051685
194	0x3fcd5bc0	1.6043625
195	0x3f74e386	0.95659673
196	0x3f7c1e7a	0.98484004
197	0x3ef44e8d	0.4771618
198	0xbfc02669	-1.5011722
199	0xbf9d92f1	-1.2310468
200	0x3f8dc575	1.1075884
201	0x3d920f8a	0.0713187
202	0x4000c114	2.0117846
203	0x3d9ccece	0.07656632
204	0xc00b7bf2	-2.17944
205	0x3ece236e	0.40261406
206	0x3f47fd81	0.7812119
207	0x3e1963bf	0.14979456
208	0xbef1c7a1	-0.47222617
209	0x3f9db315	1.2320276
210	0xbddd2296	-0.10797612
211	0x3fb15765	1.3854796
212	0xbf9a2208	-1.2041636
213	0x3f3764fc	0.71638465
214	0x3f4d3629	0.80160767
215	0x40952bb0	4.661583
216	0x3fa22418	1.2667265
217	0xbf254042	-0.64551175
218	0xbf7bf1bc	-0.9841573
219	0x3e3f152d	0.18660422
220	0x3f87ffcb	1.0624937
221	0xbf154229	-0.5830408
222	0x3fcc1de5	1.5946623
223	0xbf909753	-1.129618
224	0x3fa2bd8e	1.2714097
225	0x401bfd7c	2.4373465
226	0x3f3ef7f4	0.74597096
227	0x3e8ecce6	0.278907
228	0xbe1b1923	-0.15146308
229	0x3ebc8aa1	0.36824515
230	0x3d4a38a0	0.049370408
231	0x3fc033c6	1.50158
232	0xbfe28cc1	-1.7699205
233	0xbfb61a6b	-1.4226812
234	0xbdce217b	-0.1006498
235	0xbffc0e0e	-1.9691789
236	0x3f352700	0.70762634
237	0xbfb6902b	-1.4262747
238	0x3e4fae54	0.20281345
239	0xbebb972f	-0.3663878
240	0x404b4602	3.176148
241	0x3fa5c5c7	1.2950982
242	0xbf8f88aa	-1.1213582
243	0x3ffc9977	1.9734334
244	0xbed3a5cd	-0.41337433
245	0xbe9b714c	-0.30359876
246	0xbf03e7f2	-0.51525795
247	0xbf76dfbc	-0.9643514
248	0xbf58df7f	-0.8471603
249	0x402e76c7	2.7259996
250	0xbe54e40a	-0.20790115
251	0xbf2ba947	-0.6705517
252	0xbf34a519	-0.7056442
253	0x40013c4b	2.019305
254	0x3fd03531	1.6266233
255	0xbe343872	-0.17599657

gru.bias_ih_l0 f4 [330]
0	0xbe644e14	-0.2229541
1	0xbf99bc81	-1.2010652
2	0xbf6b734d	-0.9197281
3	0xbf8d88f6	-1.1057422
4	0xbf329072	-0.69751656
5	0xbf4807cf	-0.78136915
6	0xbeae3364	-0.34023583
7	0xbf5aff9d	-0.85546285
8	0xbf801436	-1.0006168
9	0xbf7b0e62	-0.9806882
10	0xbf7800b1	-0.96876055
11	0xbf37d99c	-0.7181642
12	0xbf24030e	-0.6406716
13	0xbf7458f5	-0.9544824
14	0xbf370004	-0.714844
15	0xbdfdfaea	-0.12401374
16	0xbf83e24b	-1.0303434
17	0xbf33bff8	-0.70214796
18	0xbf5f2658	-0.8716788
19	0xbf38e1cb	-0.7221953
20	0xbf81b1a4	-1.0132337
21	0xbf1216b1	-0.57065874
22	0xbf8eae54	-1.1146951
23	0xbf694c25	-0.9113181
24	0xbf13f5a8	-0.57796717
25	0xbf84e36f	-1.0381907
26	0xbf322f15	-0.6960309
27	0xbf07befd	-0.530258
28	0xbf6f3186	-0.9343494
29	0xbf5fd8bb	-0.8744008
30	0xbe93fc1a	-0.28903276
31	0xbf481cc9	-0.7816892
32	0xbf19f28e	-0.60135734
33	0xbee9b4c9	-0.4564574
34	0xbf38b540	-0.72151566
35	0xbf26c27c	-0.6514051
36	0xbf7c5b12	-0.9857646
37	0xbefee657	-0.4978511
38	0xbf65aaf6	-0.8971399
39	0xbefcdd2a	-0.49387485
40	0xbf9cc540	-1.2247696
41	0xbef3a1d9	-0.47584417
42	0xbec1cd4b	-0.3785194
43	0xbe6e66c7	-0.23281394
44	0xbf14f40c	-0.58184886
45	0xbf3b8a83	-0.7325823
46	0xbf703176	-0.9382547
47	0xbed67898	-0.4188888
48	0xbf7ff55f	-0.9998378
49	0xbf50b899	-0.81531674
50	0xbf5bc389	-0.8584524
51	0xbf2aec11	-0.6676646
52	0xbf58f6df	-0.84751695
53	0xbf8f85a0	-1.1212654
54	0xbf62aaad	-0.8854168
55	0xbf12ae9a	-0.5729767
56	0xbf8c6a57	-1.0969952
57	0xbeea7476	-0.45791978
58	0xbf7ebec2	-0.99509823
59	0xbf17396d	-0.59072
60	0xbfbbac4e	-1.4661958
61	0xbf3e9024	-0.7443869
62	0xbf4e1ffa	-0.8051754
63	0xbf6396e8	-0.8890214
64	0xbf0381b3	-0.5136978
65	0xbf5513f1	-0.83233553
66	0xbf80e966	-1.0071228
67	0xbf24a915	-0.643205
68	0xbee7e397	-0.45290825
69	0xbefb691e	-0.49103636
70	0xbf349c4d	-0.70550996
71	0xbf914a08	-1.1350718
72	0xbf1a5441	-0.6028481
73	0xbf37f85d	-0.7186335
74	0xbf9e29c3	-1.2356495
75	0xbf2d3ba2	-0.6766912
76	0xbf562324	-0.8364737
77	0xbf9c7534	-1.2223268
78	0xbf3c3685	-0.7352069
79	0xbf4c3060	-0.79761314
80	0xbf888f6d	-1.066877
81	0xbf90656d	-1.1280953
82	0xbf6fa962	-0.9361783
83	0xbf81ef3a	-1.0151131
84	0xbf85853f	-1.0431288
85	0xbf11189d	-0.5667818
86	0xbf4cdb90	-0.80022526
87	0xbf620e5b	-0.88303155
88	0xbf58e04d	-0.84717256
89	0xbf6564de	-0.89607036
90	0xbf1a4860	-0.60266685
91	0xbe90e649	-0.28300694
92	0xbf8c322b	-1.095281
93	0xbf42bcd6	-0.7606939
94	0xbf5cfbc2	-0.8632165
95	0xbf320e98	-0.6955352
96	0xbf68a810	-0.90881443
97	0xbf84e4b2	-1.0382292
98	0xbf8517e4	-1.0397916
99	0xbfad9330	-1.3560543
100	0xbec21102	-0.379036
101	0xbf51c320	-0.8193836
102	0xbf7344c2	-0.9502679
103	0xbf6485c5	-0.89266616
104	0xbf1dea33	-0.61685485
105	0xbf3616f4	-0.71128774
106	0xbf6d3193	-0.9265377
107	0xbed51b5b	-0.41622433
108	0xbf638e4a	-0.8888899
109	0xbedd794e	-0.4325661
110	0x3f9418c9	1.1570064
111	0x3df658c8	0.120286524
112	0x3f08603c	0.5327184
113	0x3e2b7462	0.16743615
114	0x3ec33597	0.38126823
115	0x3ded06e1	0.11573578
116	0x3f92af91	1.1459829
117	0x3e9966a2	0.29961115
118	0x3e559456	0.20857367
119	0xbc8750b0	-0.016517967
120	0x3ef7d7b1	0.48406747
121	0x3ed23f89	0.41064098
122	0x3e0017eb	0.12509124
123	0x3e578b19	0.21049155
124	0x3f43744b	0.76349324
125	0x3ec8300a	0.3909915
126	0x3e886f52	0.2664743
127	0x3e9dc790	0.30816317
128	0x3df97a76	0.12181561
129	0x3ec5def3	0.3864666
130	0x3c871b1f	0.016492425
131	0x3e78d0bc	0.24298376
132	0x3f22aa3a	0.63540995
133	0x3d2a33ff	0.041553494
134	0x3ec213d5	0.37905756
135	0xbc890735	-0.01672707
136	0x3ec41820	0.38299656
137	0x3f0aa632	0.54159844
138	0xbe35828f	-0.17725585
139	0x3e71d378	0.23615825
140	0x3f1679e2	0.5877973
141	0x3eabbd78	0.3354299
142	0x3f090b7f	0.53533167
143	0x3e9b074f	0.30279014
144	0x3e50ce74	0.20391256
145	0x3eb76b6e	0.3582415
146	0x3f0da2d7	0.553266
147	0x3e8b770d	0.27239266
148	0x3ecc1b87	0.39864752
149	0x3f91ce11	1.1391011
150	0xbf1304b1	-0.57429034
151	0x3f40589c	0.7513521
152	0x3ef3e025	0.47631946
153	0x3f2f8c41	0.68573385
154	0x3f1f6497	0.6226286
155	0x3ec46651	0.3835931
156	0xbea849ab	-0.32868704
157	0x3f388c7b	0.72089356
158	0xbccd7a5a	-0.025082756
159	0x3be9ed50	0.0071388856
160	0x3e237eb3	0.159663
161	0x3ddb15ad	0.10697494
162	0x3e98fc7d	0.29880133
163	0x3d472a21	0.04862416
164	0xbe5f9491	-0.21834017
165	0x3f1a5c5f	0.602972
166	0x3e5dc090	0.21655488
167	0x3f716768	0.9429841
168	0x3d961999	0.07329101
169	0x3f05f9b0	0.5233412
170	0xbee44a45	-0.44587913
171	0x3f02b237	0.51053184
172	0x3f1bc4d8	0.60847235
173	0x3eff793d	0.49897185
174	0x3d29de16	0.041471563
175	0x3eeab2d7	0.4583957
176	0x3ee0f257	0.4393489
177	0x3f1c73c2	0.6111413
178	0x3f560706	0.83604467
179	0x3f53c98a	0.827294
180	0x3ef569dd	0.4793233
181	0x3f0ec37a	0.55767024
182	0x3edbfdf4	0.42967188
183	0x3f4effc5	0.80859023
184	0xbe8dc8a8	-0.2769215
185	0x3e9a4390	0.3012967
186	0x3f174e17	0.5910353
187	0xbf115b3e	-0.5677985
188	0x3deeb041	0.116547115
189	0x3f0f7238	0.5603366
190	0xbec097a1	-0.37615684
191	0x3e9518a0	0.2912035
192	0x3f050ec5	0.5197566
193	0xbe7b5aa4	-0.24546295
194	0x3eae5068	0.3404572
195	0x3e4fd500	0.20296097
196	0x3d3e497c	0.0464568
197	0xbd1117ba	-0.035423018
198	0x3f3861ae	0.7202405
199	0xbe2256bb	-0.15853398
200	0x3e245ae0	0.16050291
201	0x3ea77c7b	0.3271216
202	0xbeafdb69	-0.34347084
203	0x3f126b15	0.57194644
204	0x3f2ac9e2	0.667143
205	0x3e387ebc	0.18017095
206	0x3f128338	0.57231474
207	0xbea8b52d	-0.32950726
208	0x3f434ba4	0.76287293
209	0xbe47cd61	-0.1951194
210	0x3d55fb07	0.05224135
211	0x3ec95de3	0.39329442
212	0xbec07169	-0.37586525
213	0x3eb67e36	0.35643166
214	0x3dfb2e2a	0.122646645
215	0x3f1db920	0.61610603
216	0xbaf1e479	-0.0018454931
217	0x3f35e1c8	0.7104764
218	0x3e985108	0.29749322
219	0x3f2358a2	0.6380712
220	0xbbdff5fa	-0.0068347426
221	0x3c1381d7	0.009003124
222	0xbbd320a2	-0.006443099
223	0xbc2b0dce	-0.010440303
224	0x3b3afe08	0.0028532762
225	0x3c971c90	0.018446237
226	0x3d733221	0.05937398
227	0xbbe80f22	-0.007081882
228	0xbb653d76	-0.003497926
229	0x3c44d3b8	0.012013368
230	0xbc3644f7	-0.011124841
231	0x3ccc3002	0.024925236
232	0x3d14baab	0.036310833
233	0xbc3c68a2	-0.011499556
234	0xbc8d4d8e	-0.017248895
235	0x3b9df685	0.004820647
236	0x3a86cef5	0.0010285067
237	0x3b27db54	0.0025612907
238	0x3d2df235	0.042467315
239	0xbc855ead	-0.016280496
240	0xbd023e88	-0.031797916
241	0x3ad6a014	0.0016374611
242	0xbd328cd8	-0.04359135
243	0xbd4c5d0c	-0.049893424
244	0xbd10be0d	-0.035337497
245	0xbc903db1	-0.017607542
246	0xbbb28013	-0.0054473965
247	0xbd03ed63	-0.03220881
248	0x3bba0362	0.005676673
249	0x3b7c4284	0.0038491795
250	0xbc828153	-0.015930807
251	0x3b2191e0	0.0024653599
252	0x3c81b630	0.015833944
253	0xbb1a24d3	-0.0023520484
254	0xbc445498	-0.011983059
255	0xbcce0a23	-0.025151318

gru.bias_hh_l0 f4 [330]
0	0xbea95065	-0.3306915
1	0xbf98211d	-1.1885105
2	0xbf50d7c8	-0.81579256
3	0xbf807126	-1.003453
4	0xbf3ba498	-0.73298025
5	0xbf2e04ed	-0.67976266
6	0xbeacde0f	-0.33763167
7	0xbf3f86e5	-0.7481521
8	0xbf6d6de1	-0.92745787
9	0xbf711591	-0.9417353
10	0xbf69d2bc	-0.9133718
11	0xbf3a69e8	-0.7281785
12	0xbf120251	-0.57034785
13	0xbf898c01	-1.0745851
14	0xbf468681	-0.77548987
15	0xbe16f858	-0.14743173
16	0xbf6cf9d0	-0.92568684
17	0xbf39e899	-0.7262054
18	0xbf59c222	-0.8506185
19	0xbf48c6b0	-0.78428173
20	0xbf8e4586	-1.1114967
21	0xbf16597f	-0.5873031
22	0xbf9a735a	-1.2066453
23	0xbf56cbfa	-0.83904994
24	0xbf0a97ae	-0.54137695
25	0xbf89090e	-1.0705888
26	0xbf3b3875	-0.7313302
27	0xbf08dd10	-0.53462315
28	0xbf5e87b3	-0.8692581
29	0xbf594390	-0.8486872
30	0xbe7c3a29	-0.24631561
31	0xbf383525	-0.7195609
32	0xbf092e29	-0.5358606
33	0xbef8839a	-0.48537904
34	0xbf253cb2	-0.6454574
35	0xbf169c3e	-0.58832157
36	0xbf7fcee1	-0.9992505
37	0xbf0ab72e	-0.5418576
38	0xbf5e921a	-0.86941683
39	0xbecd83dd	-0.40139666
40	0xbf86abbd	-1.052116
41	0xbec68fb8	-0.38781524
42	0xbed7e85b	-0.4216946
43	0xbea7a456	-0.32742566
44	0xbf1dd681	-0.6165543
45	0xbf393365	-0.72344047
46	0xbf50ba96	-0.8153471
47	0xbf1186e4	-0.5684645
48	0xbf849064	-1.0356565
49	0xbf5c51a1	-0.86062056
50	0xbf4ad8bf	-0.7923698
51	0xbf2dcf1b	-0.6789414
52	0xbf79b2d7	-0.9753851
53	0xbf905d03	-1.1278385
54	0xbf84f6cc	-1.0387816
55	0xbf15940e	-0.5842904
56	0xbf833bfb	-1.025268
57	0xbeef6e70	-0.46763945
58	0xbf83e8bb	-1.0305399
59	0xbf0e6f19	-0.5563827
60	0xbfa803e4	-1.3126187
61	0xbf3f0d8d	-0.7463005
62	0xbf2a9750	-0.66637135
63	0xbf5156f9	-0.81773335
64	0xbef6662f	-0.48124835
65	0xbf69088b	-0.9102866
66	0xbf5c37bc	-0.86022544
67	0xbf1efe41	-0.6210671
68	0xbf086383	-0.5327684
69	0xbf046428	-0.51715326
70	0xbf3f8b4c	-0.74821925
71	0xbf8ef4af	-1.1168422
72	0xbf0b6214	-0.5444653
73	0xbf0e8de0	-0.55685234
74	0xbf912fef	-1.1342753
75	0xbf2c0c56	-0.67206323
76	0xbf59fd1c	-0.8515184
77	0xbfa3b66e	-1.2790048
78	0xbf405cf5	-0.7514184
79	0xbf43b2b3	-0.7644455
80	0xbf73cde1	-0.9523602
81	0xbf84817e	-1.0352018
82	0xbf8a396f	-1.0798777
83	0xbf77fa08	-0.9686589
84	0xbf921e9f	-1.1415595
85	0xbf061506	-0.5237583
86	0xbf4d9b57	-0.80315155
87	0xbf5d0008	-0.8632817
88	0xbf7a1397	-0.9768614
89	0xbf550477	-0.8320994
90	0xbf34b848	-0.7059369
91	0xbec0249a	-0.37527925
92	0xbf99ebff	-1.2025145
93	0xbf2951cc	-0.6614044
94	0xbf771859	-0.96521527
95	0xbf322510	-0.695878
96	0xbf802df8	-1.0014029
97	0xbf7f8fe0	-0.9982891
98	0xbf92b57d	-1.1461636
99	0xbfb4711e	-1.4097021
100	0xbeba0e4a	-0.36339027
101	0xbf4d1938	-0.80116606
102	0xbf8d075a	-1.1017869
103	0xbf752cff	-0.95771784
104	0xbf2ef5be	-0.6834372
105	0xbf4fcbf9	-0.8117061
106	0xbf530bdf	-0.8243999
107	0xbf05f9b5	-0.5233415
108	0xbf70da4c	-0.94083095
109	0xbefa2b19	-0.48861006
110	0x3f8f34de	1.1188009
111	0x3e2a9bd4	0.16661006
112	0x3f09ffaa	0.5390574
113	0x3e7f529b	0.24933855
114	0x3f1067cd	0.5640839
115	0x3e6c905b	0.23101942
116	0x3f959ab2	1.1687834
117	0x3e74e58d	0.23915692
118	0x3e4f1583	0.2022305
119	0xbcabfeeb	-0.020995578
120	0x3f180ddb	0.5939614
121	0x3ef375e6	0.47550887
122	0x3d9adb85	0.07561401
123	0x3e00b696	0.12569651
124	0x3f3b9152	0.73268616
125	0x3ed435df	0.4144735
126	0x3e96d258	0.29457355
127	0x3e7fa157	0.2496389
128	0x3e1aa5c2	0.15102294
129	0x3ed1b197	0.40955803
130	0x3de3dc5f	0.11126017
131	0x3e1f50c9	0.15558161
132	0x3f3541a0	0.7080326
133	0x3d65d028	0.056106716
134	0x3f026467	0.5093445
135	0xbd22af1b	-0.039717775
136	0x3eb1bab0	0.34712744
137	0x3eee2a97	0.46516868
138	0xbe36be0d	-0.17845936
139	0x3e36d9d4	0.17856532
140	0x3f1f5240	0.6223488
141	0x3e389b59	0.1802801
142	0x3eef653c	0.46756923
143	0x3eb924a3	0.36160764
144	0x3e39b263	0.18134455
145	0x3e8ede14	0.27903807
146	0x3ef15bc1	0.47140315
147	0x3ed665f6	0.41874665
148	0x3e740520	0.2383008
149	0x3f9315fc	1.1491084
150	0xbefaefcf	-0.49011084
151	0x3f257c23	0.6464254
152	0x3f134222	0.57522786
153	0x3f0ac079	0.5419994
154	0x3f1c3cdc	0.61030364
155	0x3eb0b0ef	0.3450999
156	0xbea6d79e	-0.32586378
157	0x3f3bf69f	0.7342319
158	0x3ca60399	0.020265387
159	0x3d5af27f	0.05345392
160	0x3e6168fa	0.22012702
161	0x3e2d278c	0.16909617
162	0x3de70fe7	0.1128233
163	0x3d84b9b1	0.0648073
164	0xbe5b3c5d	-0.21409746
165	0x3f00fb12	0.503831
166	0x3dc0fa85	0.09422783
167	0x3f5e7fa8	0.8691354
168	0xbb72ea9f	-0.0037066115
169	0x3f204a76	0.6261362
170	0xbef09e5b	-0.46995816
171	0x3f074854	0.5284474
172	0x3f1f864a	0.62314284
173	0x3f157951	0.5838824
174	0xbd59e338	-0.05319521
175	0x3eaaf01d	0.33386317
176	0x3ed3643f	0.4128742
177	0x3f2411f6	0.64089906
178	0x3f635b5e	0.8881129
179	0x3f4413bb	0.76592606
180	0x3f14a64d	0.58066255
181	0x3ef9090b	0.48639712
182	0x3edd2401	0.4319153
183	0x3f473528	0.77815485
184	0xbe76f8c7	-0.24118339
185	0x3e82390d	0.2543415
186	0x3ef09310	0.469872
187	0xbf268185	-0.6504138
188	0x3de9f8d5	0.11424414
189	0x3f04c8ab	0.51868695
190	0xbe6e8b59	-0.23295344
191	0x3e81edf7	0.25376865
192	0x3f0b019a	0.5429932
193	0xbe9236b0	-0.28557348
194	0x3ea9754c	0.33097303
195	0x3e2d9228	0.16950285
196	0x3d8fd108	0.070222914
197	0xbd3f26b5	-0.046667773
198	0x3f322c4d	0.6959885
199	0xbe3008f3	-0.17190914
200	0x3e1623fe	0.14662167
201	0x3e86f7e7	0.2636101
202	0xbe7e33ba	-0.2482442
203	0x3ee941c1	0.4555798
204	0x3f370fd4	0.71508527
205	0x3e6e6e91	0.23284365
206	0x3f19b0ea	0.60035574
207	0xbec53369	-0.38515785
208	0x3f442f70	0.76634884
209	0xbe6efa86	-0.23337755
210	0x3e1f76bd	0.15572639
211	0x3eca1db9	0.39475802
212	0xbeb76b44	-0.35824025
213	0x3ed44a2d	0.41462842
214	0xbd2e0eab	-0.042494457
215	0x3f24695d	0.6422327
216	0x3d521d73	0.051297616
217	0x3f205c77	0.6264109
218	0x3e4c4973	0.19949894
219	0x3f037376	0.51348054
220	0x3dcb6882	0.09932043
221	0xbe93c269	-0.2885926
222	0x3dd562ad	0.104192115
223	0x3e81d01f	0.25354096
224	0x3e24078b	0.16018502
225	0xbdde4e07	-0.10854726
226	0xbe6e357a	-0.23262587
227	0xbda10bce	-0.0786358
228	0x3e38b9af	0.18039583
229	0xbdcab6b1	-0.09898127
230	0x3e567ece	0.2094681
231	0xbd69e9e4	-0.05710782
232	0xbda5d8ef	-0.080980174
233	0xbe77b2b6	-0.24189267
234	0xbcc5c515	-0.024141828
235	0xbd65d284	-0.056108966
236	0xbe366014	-0.17810088
237	0x3c245426	0.010029828
238	0xbe477942	-0.1947985
239	0xbc87e782	-0.016589884
240	0x3ea3b1a1	0.31971458
241	0x3df5fbc4	0.12010911
242	0xbe412a32	-0.18863752
243	0xbd5dab0e	-0.05411821
244	0x3d3fede9	0.04685775
245	0x3d99a404	0.075019866
246	0x3e214ea7	0.1575266
247	0x3dd501c9	0.10400731
248	0xbe2dfd00	-0.16991043
249	0xbe7cc727	-0.24685346
250	0xbdf79485	-0.12088875
251	0x3da4abd9	0.0804059
252	0xbdba71d3	-0.091037415
253	0x3b61ddb5	0.0034464423
254	0x3e336e57	0.1752256
255	0x3e6128f4	0.21988279

fc.weight f4 [3, 110]
0	0x3d881c51	0.06646026
1	0xbd4b386d	-0.04961436
2	0xbdb22935	-0.08699266
3	0xbbac03ca	-0.005249475
4	0xbcbe357a	-0.023218859
5	0x3db16a7d	0.08662889
6	0xbd5e35f6	-0.05425068
7	0xbcaa2f5c	-0.020774536
8	0xbd8ce179	-0.06878943
9	0xbd146cfc	-0.036236748
10	0xbcd32404	-0.02577401
11	0xbd2dbad7	-0.042414512
12	0x3d6a12fa	0.057147004
13	0x3d909d13	0.070612095
14	0xbda0c64c	-0.07850322
15	0x3d5b3ef8	0.05352685
16	0xbdc615a0	-0.096720934
17	0x3df49320	0.11942124
18	0x3c3433c2	0.010998668
19	0x3e19147e	0.14949223
20	0xbd9641a5	-0.073367395
21	0x3b32cd28	0.0027282927
22	0xbc7558f0	-0.014974818
23	0x3d2d8b49	0.04236916
24	0x3c8cb352	0.01717535
25	0x3d8a5f73	0.06756487
26	0xbcba6621	-0.022753777
27	0x3d458a08	0.04822734
28	0x3ce42a00	0.027852058
29	0xbd29e792	-0.04148061
30	0xbdbc8a39	-0.092060514
31	0x3d1d5826	0.038414143
32	0xbe03a75f	-0.12856816
33	0x3d6960d2	0.0569771
34	0xbba3bc22	-0.0049967924
35	0xbda8d376	-0.08243458
36	0xbb4349a0	-0.0029798523
37	0xbd4fe22f	-0.050752815
38	0xbc37a800	-0.011209488
39	0xbcf87e79	-0.030333744
40	0x3bb63af9	0.0055612293
41	0xbde5864b	-0.11207255
42	0x3d45beb0	0.048277557
43	0x3de447da	0.11146517
44	0xbd2be48d	-0.04196601
45	0x3dd116ce	0.10209428
46	0x3d4b50d2	0.049637623
47	0x3d92990b	0.07158097
48	0x3cc43503	0.02395106
49	0x3bff21f1	0.0077860286
50	0x3d154536	0.036442958
51	0x3c8b23ab	0.016984781
52	0x3da1cb1a	0.07900067
53	0x3cc78217	0.024354024
54	0x3d39f948	0.04540375
55	0x3c29f246	0.010372704
56	0xbd0b8e7a	-0.034071423
57	0xbc7f466a	-0.015580753
58	0xbbdd48b7	-0.006753053
59	0x3cc1610f	0.023605851
60	0xbd034e56	-0.03205713
61	0xbdbfaf32	-0.09359588
62	0x3d47dd7d	0.048795212
63	0xbda7953e	-0.081827626
64	0x3c64e5f6	0.013970843
65	0x3d6261f4	0.055269197
66	0xbd8a239b	-0.067450725
67	0xbe0ae672	-0.1356447
68	0x3dde5cb3	0.10857525
69	0x3ba3c197	0.004997443
70	0xbc2ee654	-0.010675032
71	0x3cbd80dd	0.023132736
72	0x3d5edb95	0.05440863
73	0xbd5e6676	-0.054296933
74	0xbd2c3b07	-0.04204848
75	0xbd4efb19	-0.050532434
76	0xbc617fb3	-0.013763356
77	0x3c4ea1a6	0.012611782
78	0x3cc95ee7	0.024581386
79	0x3d866c89	0.0656367
80	0xba316278	-0.0006766687
81	0x3d268740	0.04065633
82	0x3d77eb9f	0.06052744
83	0x3dd2cd2d	0.102930404
84	0x3cdc49ad	0.0268906
85	0xbc9d340b	-0.019189855
86	0xbd83b614	-0.06431213
87	0xbcb9d413	-0.022684133
88	0x3cad37b5	0.021144727
89	0xbbab1e36	-0.0052221073
90	0x3dd99f48	0.106260836
91	0xbd85c9c0	-0.065326214
92	0x3dd80b09	0.1054898
93	0x3c3c31e8	0.011486508
94	0xbe068936	-0.1313828
95	0x3cf8f5db	0.03039067
96	0xbddca2cf	-0.10773241
97	0xbcff6298	-0.031174943
98	0xbde32c8b	-0.1109248
99	0x3d87a115	0.06622521
100	0x3d0d5f9b	0.034515005
101	0xbdd5c7c9	-0.104384966
102	0xbd481cf0	-0.048855722
103	0xbd61c360	-0.055117965
104	0xb8f480c0	-0.00011658808
105	0x3c7914b4	0.01520269
106	0xbca439aa	-0.020047028
107	0x3dbbd5d2	0.09171642
108	0xbda05644	-0.07828954
109	0x3cc94270	0.024567813
110	0x3da9d7f7	0.08293145
111	0x39bec218	0.00036384235
112	0x3d56138d	0.05226474
113	0xbdf69e6d	-0.12041936
114	0xbd8b0c57	-0.06789463
115	0xbbb22cd8	-0.0054374747
116	0xbdd0074e	-0.10157643
117	0x3dcf70ba	0.10128923
118	0xbca28ca8	-0.01984246
119	0xbdd92c6c	-0.10604176
120	0xbd28e097	-0.04122981
121	0x3d32f10b	0.043686908
122	0x3d9a2ac2	0.07527687
123	0x3be9746a	0.0071244733
124	0x3bbd43b8	0.005775895
125	0x3bac89d5	0.0052654543
126	0xbc9d512f	-0.01920375
127	0x3d2d9435	0.04237767
128	0xbcb1fbd0	-0.021726519
129	0xbc6d275a	-0.014474714
130	0xbc0b46eb	-0.008500795
131	0xbd83657a	-0.064158395
132	0x3d04b4c2	0.032398947
133	0x3dc92c2f	0.098228805
134	0xbbcfcc9a	-0.006341529
135	0xbd0fbed3	-0.035094094
136	0x3d57d9ed	0.052698065
137	0x3d0bf67e	0.03417062
138	0x3d56c9ee	0.05243867
139	0xbd11b18a	-0.035569705
140	0xbdec715e	-0.115450606
141	0x3e14e1fb	0.1453933
142	0x3cc649f4	0.024205185
143	0xbc60d18c	-0.013721835
144	0x3de8c31e	0.11365341
145	0xbd6375a9	-0.05553213
146	0x3bb6e9aa	0.005582054
147	0xbdc72778	-0.09724325
148	0xbddfd46c	-0.10929188
149	0xbe189bf8	-0.14903247
150	0xbdfd1d76	-0.12359135
151	0xbd88662e	-0.06660114
152	0x3df3de0d	0.11907587
153	0x3dcb5852	0.09928955
154	0xbc8c1e64	-0.017104335
155	0x3d939481	0.07206059
156	0xbca3fce7	-0.020018054
157	0xbc959fe6	-0.018264722
158	0x3bc522ea	0.006016125
159	0x3cbcab1d	0.023030812
160	0xbd08ec9c	-0.033428773
161	0xbcf02688	-0.029315248
162	0xbd2ea113	-0.04263408
163	0xbd0f3460	-0.034962058
164	0xbd65496d	-0.055978227
165	0xbe231d9a	-0.15929261
166	0xbc20a4f2	-0.009804951
167	0xbddf7525	-0.109110154
168	0x3da95760	0.082686186
169	0x3e2407dd	0.16018625
170	0x3c821993	0.015881335
171	0x3d7bbeb2	0.061461158
172	0x3d464e10	0.04841429
173	0xbd325c77	-0.043545213
174	0x3d1b88c0	0.03797221
175	0x3d88a048	0.06671196
176	0x3daf0b62	0.08547093
177	0xbd877d60	-0.0661571
178	0x3df67362	0.12033726
179	0x3d9f0fe6	0.07766704
180	0xbd602b24	-0.054728642
181	0xbdaf87e0	-0.08570838
182	0x3d6a8d59	0.057263706
183	0xbc1651f2	-0.009174811
184	0x3c8e3154	0.017357506
185	0x3dba0458	0.0908286
186	0xbd0861b9	-0.03329632
187	0xbc8d2580	-0.017229795
188	0x3d8db9a7	0.06920176
189	0xbbe0ffa8	-0.006866414
190	0x3ddf5876	0.109055445
191	0xbb00c037	-0.001964582
192	0x3da4de0a	0.08050163
193	0x3dc43ed4	0.09582296
194	0x3d056b76	0.032573186
195	0xbc15a00f	-0.009132399
196	0x3d8cb9f3	0.068714045
197	0xbd1d1376	-0.038348638
198	0x3de5212b	0.11187967
199	0x3ccf502c	0.025306784
200	0x3d3c29c7	0.04593828
201	0xbd8a477f	-0.06751918
202	0xbd068f44	-0.032851472
203	0xbcd0b401	-0.025476458
204	0x3d11af64	0.035567656
205	0x3d794655	0.06085809
206	0x3c9e2902	0.019306663
207	0xbd5c1e7e	-0.053740017
208	0xbd1631db	-0.03666864
209	0x3bcaa21a	0.006183875
210	0x3d5dc3ce	0.054141812
211	0x3de6b81f	0.11265587
212	0x3dcbedda	0.09957476
213	0x3ce5304b	0.02797713
214	0xbba0a502	-0.004902483
215	0x3b512c1d	0.0031917163
216	0xbc53a986	-0.0129188355
217	0xbd402531	-0.04691047
218	0xbdda0fbe	-0.10647534
219	0x3d3903b1	0.045169536
220	0x3da41ba1	0.08013082
221	0xbcc050f5	-0.023476103
222	0x3d3d1228	0.046159893
223	0xbc7771e2	-0.015102835
224	0xbd560370	-0.052249372
225	0xbcb05e36	-0.021529298
226	0xbd5007f7	-0.050788846
227	0xbd273431	-0.040821258
228	0x3d6ef743	0.058341276
229	0xbd380aff	-0.04493236
230	0xbd478b57	-0.04871687
231	0xbd05357e	-0.032521717
232	0x3d8b7286	0.06808953
233	0xbc06a370	-0.0082176775
234	0x3d0eddb6	0.03487941
235	0x3dc5052e	0.096201286
236	0xbda70677	-0.0815553
237	0x3c40faae	0.011778517
238	0x3db71173	0.08938875
239	0x3d4d239e	0.050082795
240	0x3d109fd5	0.035308678
241	0xbc4798c0	-0.0121824145
242	0xbd7cae65	-0.061689753
243	0x3dc06221	0.093937166
244	0xbe3283ee	-0.1743314
245	0xbd8ef523	-0.0698035
246	0xbd91a68d	-0.07111845
247	0x3d9bc235	0.076054014
248	0xbd03c684	-0.03217174
249	0xbbfda951	-0.0077411314
250	0xbd963e6d	-0.073361255
251	0x3c8f00a9	0.01745637
252	0x3bc56b28	0.006024737
253	0xbd868b36	-0.06569521
254	0x3c1f4035	0.009719898
255	0xbdae14e4	-0.08500078

fc.bias f4 [3]
0	0x3b0662c8	0.0020505656
1	0x3a236770	0.000623337
2	0x3b39e3cb	0.0028364535
