models/SSD-5-hidden-2-input-2-layer.pth (torch, 5534 bytes, 10 tensors)

gru.weight_ih_l0 f4 [15, 2]
000000 92 c3 21 bf 25 0c 53 3d 0c 0d aa 3f bb c1 97 3e
       -0.6318904 0.051525254 1.3285232 0.29639992
000010 85 10 ba bf b0 39 7d bf 27 74 bb 3f 41 0b 54 bf
       -1.4536291 -0.9891615 1.4644822 -0.8282967
000020 0f c4 cf 3f 2b ba 80 3f 24 35 68 3f e0 ef 15 bf
       1.6231707 1.0056814 0.90706086 -0.58569145
000030 90 13 e4 bf 15 de fe be c6 6b b7 3f d8 48 1f 3b
       -1.781847 -0.4977881 1.4329765 0.0024304893
000040 d5 0a 88 bf 9e 2c 70 3f be 10 47 bf 6f 44 53 be
       -1.0628306 0.9381808 -0.7775992 -0.20631574
000050 60 d2 82 bf 9f b4 28 3f e6 3f a0 bf c6 4e db 3c
       -1.0220451 0.65900606 -1.25195 0.02677096
000060 18 7f e8 bf 8f 3b 1e bf cf 6e 87 3f 77 65 e9 bd
       -1.8163786 -0.6180963 1.0580691 -0.11396306
000070 72 ab b8 bf 0f f8 c9 bf
       -1.4427321 -1.5778826

gru.weight_hh_l0 f4 [15, 5]
000000 e5 ff 8d be 72 26 57 3e 01 9a 6d 3c 45 79 7f be
       -0.27734295 0.2101076 0.014502049 -0.24948604
000010 4f 86 3d 3c 37 46 99 3e f6 4a 81 be b8 a7 bc be
       0.011567666 0.29936382 -0.25252503 -0.3684671
000020 f7 d4 e5 3e 07 41 94 be f6 4f 00 3f f9 7e 08 3f
       0.44889042 -0.28955862 0.5012201 0.53318745
000030 16 06 6f be 6c f7 dc be fc 63 4d 3d 9d f9 10 3f
       -0.23342165 -0.43157518 0.05014418 0.5663088
000040 8f 5f 9b be 4f 0a ad 3e 76 09 bb 3e f2 97 bc 3d
       -0.30346343 0.33796927 0.36530656 0.09208669
000050 b2 a7 81 bd 7c 30 96 be c6 cd 7b be 60 45 99 be
       -0.063308135 -0.29333866 -0.24590215 -0.2993574
000060 ea bb a2 3e bd 06 22 be cd a3 29 3f 26 0c 2f bf
       0.31783992 -0.15822883 0.66265565 -0.6837791
000070 ec 29 4b be e2 b3 c8 3e 19 29 ee be c9 24 dc 3c
       -0.1984021 0.3919974 -0.4651573 0.02687301
000080 99 52 36 be 9c 83 4f bf 1d e4 89 3f 0d cd 85 bf
       -0.17804946 -0.81060195 1.077274 -1.0453202
000090 c4 4f 8c 3e 7d e6 82 bf ac 86 22 bf 48 79 a3 3f
       0.27404606 -1.022659 -0.6348674 1.2771387
0000a0 23 bb fa be c6 09 f6 bd 07 bc 25 3d 42 4a 19 bf
       -0.489709 -0.12013583 0.04046252 -0.59878933
0000b0 91 02 31 3f ce 89 9f bf 33 dc 7c 3f 6e 78 8c bf
       0.6914454 -1.246393 0.987735 -1.0974252
0000c0 84 dc 45 bf a4 e6 1f 3f 5c 98 33 bd 5a e3 40 be
       -0.77289605 0.62461305 -0.043846473 -0.18836728
0000d0 a0 f7 95 3b 36 96 9f 3e 27 95 8d be f4 65 87 be
       0.0045766383 0.3116929 -0.27652857 -0.26444972
0000e0 b4 79 0c 3f 44 e6 09 bf fd 0b f1 be bb 96 c4 bd
       0.54873204 -0.5386698 -0.4707946 -0.09599062
0000f0 21 ab 20 3f ce 78 ef be 68 be 9d 3d fa 38 dc bd
       0.6276112 -0.46771854 0.07702333 -0.10753055
000100 89 44 2b 3e 88 82 2a 3e bf 2e 14 bd 85 26 fc 3e
       0.16725363 0.16651356 -0.036177393 0.49248138
000110 c8 ba b2 3e a4 4d 09 bf 9c cf b7 3d c9 7b af bd
       0.34908128 -0.53634095 0.08975145 -0.08568532
000120 0e 87 93 be cf 73 0f 3e a3 26 26 be
       -0.28813976 0.14009021 -0.16225676

gru.bias_ih_l0 f4 [15]
000000 e9 a0 ce 3d e7 86 e3 be 39 87 4f 3e 09 fd cd bc
       0.10089285 -0.4443886 0.20266427 -0.02514507
000010 90 c2 04 be 87 3e 29 bf c8 58 b7 be b7 f9 10 bf
       -0.12964845 -0.66111034 -0.35809922 -0.56631035
000020 39 ac d9 bd ec 94 7f bf 96 88 88 3e 51 30 67 3d
       -0.10628552 -0.9983661 0.26666707 0.056442562
000030 88 ca d1 3d c3 b3 f5 3e db 26 b2 bd
       0.10243708 0.4798871 -0.08698817

gru.bias_hh_l0 f4 [15]
000000 ce da 8e 3e 9c 47 9d be 1f de 07 bd 05 fd 83 3e
       0.2790131 -0.30718696 -0.033170816 0.25778976
000010 39 ee fa be fa d7 04 be 2a 1c 21 bf 2f 36 7e bf
       -0.49009874 -0.12973014 -0.629336 -0.9930143
000020 27 2c dd be c6 e8 34 bf 68 47 22 3f 0e 49 8b be
       -0.43197748 -0.70667684 0.6339021 -0.27204174
000030 3c 97 5c 3e ff 82 3a 3f 7a 17 a8 be
       0.21542066 0.72856134 -0.3283041

gru.weight_ih_l1 f4 [15, 5]
000000 2e 9b e5 be 9a 3a 5e be e9 5b 16 bf bc 71 ff bd
       -0.44844955 -0.21702042 -0.58733994 -0.12472865
000010 54 9a 84 bd 11 e3 1a be 24 9e 7b bf 04 cd 9a bf
       -0.06474748 -0.15125681 -0.9828818 -1.2093816
000020 23 48 09 3f 47 08 9b bf ca e5 75 be ff d0 93 3d
       0.53625697 -1.2111901 -0.24013439 0.07217597
000030 5c 9d a8 3e 93 cb 57 3f 54 a4 80 bd 1c ad 18 3d
       0.32932556 0.84295005 -0.06281343 0.037274465
000040 7e 14 a4 be 42 52 5f be e9 3d 91 be 7a 9e c1 be
       -0.32046884 -0.21808723 -0.28367546 -0.3781622
000050 db 16 44 bb 04 e3 2c 3e e2 b9 30 3f 8e 0e 02 be
       -0.002992085 0.16883475 0.69033635 -0.12700865
000060 ab 7c e6 be 7c 19 46 3d 37 57 0b 3f 40 9f 09 bf
       -0.4501699 0.048364148 0.54429954 -0.5375862
000070 48 c1 d0 3d f9 d0 26 3e 03 55 9b bf 13 73 19 3f
       0.101931155 0.16290654 -1.2135319 0.59941214
000080 48 0e 97 bf ec f0 9e bf 18 8d 4f 3f af 1e a6 bd
       -1.1801233 -1.2417274 0.81074667 -0.08111321
000090 66 27 ad 3e 3c 2c 98 bf 07 a1 24 be db 21 ef be
       0.3381912 -1.1888499 -0.16077052 -0.46705517
0000a0 67 96 d1 be 0f f0 84 3f c1 ee 94 3d ff 39 8b bf
       -0.4093506 1.038576 0.07272101 -1.0877074
0000b0 d1 02 c2 3e eb ac f9 be 47 2d 27 3f 5b 5b e2 be
       0.37892774 -0.48764738 0.6530346 -0.44210324
0000c0 37 55 48 bf 30 b0 87 3f aa 65 d0 3d d4 d1 14 bf
       -0.7825503 1.0600643 0.10175641 -0.5813267
0000d0 92 41 73 be 82 e0 84 3d ee 75 24 bf f4 77 47 3f
       -0.23755482 0.06488134 -0.64242446 0.7791741
0000e0 59 26 39 3f d0 ed a6 3f fb 34 28 be 66 15 a9 3f
       0.7232414 1.3041325 -0.1642646 1.3209655
0000f0 7e ac b8 3d 24 a7 d0 be 33 03 72 3f 48 19 19 3f
       0.09017275 -0.40752518 0.9453613 0.598042
000100 3d 1c 8c 3e 2b a9 e4 be 24 10 d4 3d 7c 12 d2 3e
       0.27365294 -0.44660315 0.10354641 0.41029727
000110 3c 02 89 3e a3 99 68 3f dd 04 3b bf 2b 28 5b 3d
       0.26759517 0.9085943 -0.73054296 0.053505104
000120 20 58 af 3e ca e1 19 bf be 33 3a 3f
       0.34246922 -0.6011015 0.727352

gru.weight_hh_l1 f4 [15, 5]
000000 73 89 ba be c6 3f 21 ba 7f be ac 3d a3 a7 0a 3e
       -0.3643299 -0.00061511656 0.08434772 0.13540511
000010 0e 86 d1 3e 24 6e 88 3e 56 98 be 3c 95 b6 7c 3e
       0.40922588 0.2664653 0.023265999 0.24679025
000020 cb 32 c1 be 60 96 24 3f 68 7b 7b 3e b2 e5 a1 be
       -0.37734064 0.64291954 0.24558794 -0.31620556
000030 54 d0 bc 3e cc 83 2e be 1d 94 88 bf d8 b7 8b be
       0.36877692 -0.17042464 -1.06702 -0.272887
000040 7d 12 85 be c6 cd ed 3e 34 cf b0 3e 12 1e 7e 3c
       -0.25990668 0.46446055 0.34533083 0.015510099
000050 92 49 92 3e e8 dc 27 3e 16 6a a4 3e dc a5 50 3e
       0.28571755 0.16392863 0.32112187 0.2037577
000060 7b b8 09 3e d6 96 1d bf 0c 3a ba 3e 72 ad fc 3b
       0.1344928 -0.6155828 0.3637241 0.007711106
000070 3c 3c 93 3e 82 fb 31 3f 2a 7f 02 bf 42 1b 2f 3e
       0.28756893 0.69524395 -0.50975287 0.17100242
000080 c8 e1 02 bf 95 bf 50 3f ca 1e 04 3f a7 bb 46 bf
       -0.51125765 0.8154233 0.5160948 -0.77630085
000090 00 c9 4b be ad 43 78 be 6f 23 59 3e 09 3c 4f 3e
       -0.19900894 -0.24244566 0.21204923 0.20237745
0000a0 f2 73 13 bf f4 1c 27 3f a1 93 57 bf ad b1 2e 3f
       -0.57598794 0.65278554 -0.8420964 0.6823986
0000b0 2a 0e b7 3d a7 59 5c bf 86 39 02 3e c9 49 99 be
       0.089382485 -0.860743 0.12717256 -0.29939106
0000c0 ce 9e fe 3e d7 b2 8c 3e 8d 50 36 3f 08 37 9d bb
       0.49730533 0.27480194 0.7121666 -0.00479782
0000d0 3f 6c af 3d c7 2b f4 be a4 51 b5 be 99 3b f8 be
       0.08565568 -0.4768965 -0.3541385 -0.4848297
0000e0 9a 51 f7 be a4 ac d5 3e 59 f2 06 3f 07 ba 90 3e
       -0.48304445 0.41733277 0.52713543 0.28266928
0000f0 0e 02 fa 3e 05 14 4a bf 60 1e 86 3e 60 61 ab bd
       0.48829693 -0.789368 0.2619505 -0.08368182
000100 b6 25 22 bd b7 90 04 bf 22 76 59 3e 0e c8 85 be
       -0.039586745 -0.5178332 0.2123647 -0.26129192
000110 3f 04 9d bd 06 e3 aa be 4c 09 3e bf 36 91 36 3f
       -0.076668255 -0.3337633 -0.74232936 0.71315324
000120 ef d2 87 be 54 d9 b8 3e 37 b2 00 3f
       -0.26528117 0.36103308 0.50271934

gru.bias_ih_l1 f4 [15]
000000 a8 f0 5f 3e b4 bb 1b bf 8d 0e ca 3c c1 48 69 be
       0.21869147 -0.6083329 0.024665141 -0.2278166
000010 92 12 20 3e d2 3f 1f bf 72 15 10 bf 90 85 fe 3d
       0.15632084 -0.6220676 -0.5628272 0.12427819
000020 d4 2c 65 be 02 5a b1 3e 4f 83 d7 3e 07 77 38 3e
       -0.22380382 0.34638983 0.42092368 0.18014155
000030 a3 5f 8d bd bf ec 08 3c 37 72 86 be
       -0.06903007 0.008357226 -0.26259014

gru.bias_hh_l1 f4 [15]
000000 37 a8 f2 bd 8b e4 be 3d 03 79 2a 3e 14 05 97 bd
       -0.11848491 0.09320935 0.16647725 -0.073740155
000010 57 24 2b 3f 7c 81 69 be ea 08 b5 bf 22 12 6f 3e
       0.66852325 -0.228033 -1.4143345 0.23346761
000020 af 7a bd be 1d 1a 00 3d 10 b6 3f be b4 4a 69 bf
       -0.37007663 0.031274904 -0.18721795 -0.9112961
000030 93 2a d2 3e a4 6e 5f bd 98 0a 56 3e
       0.41048107 -0.054548874 0.20902479

fc.weight f4 [6, 5]
000000 ed e9 39 3f 6e 04 c5 bf e9 72 eb 3d 2d 48 23 bf
       0.7262257 -1.5391977 0.11496527 -0.63782007
000010 50 39 88 be 64 6a 74 bf fb 41 bc 3e 2f 47 a5 bf
       -0.26606226 -0.9547484 0.3676909 -1.2912349
000020 55 09 08 3e 19 d5 8e 3f 71 12 3e be f9 6a dd 3f
       0.1328481 1.1158782 -0.18561722 1.729827
000030 d3 c3 2f 3f 99 21 16 3f 5a 5e 46 bd 6d d9 18 3f
       0.6865818 0.58645016 -0.048429824 0.59706765
000040 5d 59 05 be e8 18 2a be 54 29 57 bf 31 b3 0c bf
       -0.1302237 -0.16611063 -0.84047437 -0.54960924
000050 68 fe 86 bf 40 58 a9 3d 5d 03 87 bf 88 79 ef 3e
       -1.0546389 0.082687855 -1.0547901 0.46772408
000060 c5 27 5a 3f af ed 19 be 1e 80 85 3f 3b d6 03 3f
       0.85216933 -0.15032075 1.0429723 0.51498765
000070 76 2b 02 3f e3 59 69 be
       0.50847566 -0.22788195

fc.bias f4 [6]
000000 10 63 82 be 7a ee cd 3b a1 6d 28 3e 65 89 f6 be
       -0.25466204 0.006284532 0.1644807 -0.481517
000010 e9 a6 e4 3e 8d e2 a6 be
       0.44658592 -0.3259472
