models/SSD-5-hidden-5-input-2-layer-2-disc.pth (torch, 4760 bytes, 10 tensors)

gru.weight_ih_l0 f4 [15, 5]
0.05419971 0.17829244 0.47318295 0.03964901 0.6095166 0.26667386 0.012922943 -0.19100095
0.17904271 -0.0023318203 -2.3008647 2.216517 7.2717147 -1.9036796 -6.7391086 -0.21168536
-0.014377507 0.10378441 -0.038834825 -0.21429117 2.5609593 36.150803 -25.461042 -13.0840435
-5.4131 0.30694517 0.5987102 0.42831016 0.30159575 1.7500702 2.0600686 0.44283903
0.6437554 0.20698355 -0.86304194 -0.16366455 -0.06075857 -0.52074236 -0.17053095 0.4844023
2.3843484 -0.53189963 1.7262311 0.37437466 1.1544622 -0.4497555 1.0531286 1.3665869
-0.7030271 -1.3021054 -0.013871045 -0.32023573 -0.70713615 -0.13644707 -0.72311676 1.6821913
0.28620452 -0.06413456 0.3632619 -0.44440112 0.43745 -0.10183183 -0.9467561 0.046506178
0.8810782 -0.03885519 0.5164934 0.90899825 0.17188884 1.7240101 -1.1584791 -0.0017586957
-0.49385184 0.4146635 -0.14915416
00000000: 8400 5e3d 4b92 363e 0945 f23e 0067 223d
00000010: 4809 1c3f 7a89 883e c0ba 533c c195 43be
00000020: f956 373e 74d1 18bb 5e41 13c0 6adb 0d40
00000030: e3b1 e840 c6ab f3bf c7a6 d7c0 0cc4 58be
00000040: a38f 6bbc ec8c d43d 4411 1fbd 256f 5bbe
00000050: c2e6 2340 6c9a 1042 37b0 cbc1 3e58 51c1
00000060: 1d38 adc0 eb27 9d3e 1245 193f 784b db3e
00000070: c26a 9a3e 4d02 e03f 2ad8 0340 ccbb e23e
00000080: 27cd 243f 7ff3 533e 51f0 5cbf ae97 27be
00000090: fadd 78bd 5f4f 05bf aa9f 2ebe 9403 f83e
000000a0: 2a99 1840 932a 08bf 24f5 dc3f 09ae bf3e
000000b0: 6bc5 933f 5a46 e6be ebcc 863f 52ec ae3f
000000c0: 96f9 33bf 64ab a6bf 6143 63bc f0f5 a3be
000000d0: e006 35bf c8b8 0bbe 2e1e 39bf 0b52 d73f
000000e0: 6689 923e fb58 83bd 77fd b93e 8b88 e3be
000000f0: 72f9 df3e 358d d0bd 9c5e 72bf 437d 3e3d
00000100: 578e 613f 9f26 1fbd e938 043f 1cb4 683f
00000110: a103 303e 5dac dc3f 0b49 94bf 0984 e6ba
00000120: 26da fcbe c64e d43e debb 18be

gru.weight_hh_l0 f4 [15, 5]
0.9157494 0.47132972 0.6679518 -0.15257968 -0.30999228 -0.15927233 -0.54023445 0.10494836
0.014935706 -0.33780107 0.16602321 0.8593513 -9.16272 1.4107951 -1.4859161 0.23367493
0.0032213295 -0.24748035 0.0944126 -0.4755935 19.109781 50.624 12.123206 10.167119
-14.0755415 -1.741698 -0.22195666 0.61922514 1.6600533 -4.264125 0.007874447 4.0324287
0.39541775 0.431636 -1.4340364 -0.12752661 -0.46084258 0.30740517 -0.38068053 -3.2134523
0.41912514 0.7499057 1.6588862 4.7678123 1.7732649 -6.458975 -0.09649119 -2.025962
-3.434671 -0.64922595 -0.33383095 -0.33932668 -1.2789848 -5.096854 -4.593311 -2.2926598
7.3248305 2.7496626 0.45414343 0.04754336 0.26178944 0.13393775 -0.0924511 0.18925871
-0.31461474 -6.756188 0.7891954 3.6243372 3.660847 -0.98001885 -11.226312 -1.591432
0.11352866 -3.936331 0.9922143
00000000: 8d6e 6a3f 2152 f13e e4fe 2a3f d93d 1cbe
00000010: 4fb7 9ebe 4918 23be ce4c 0abf 2aef d63d
00000020: e4b4 743c 43f4 acbe fd01 2a3e 72fe 5b3f
00000030: 809a 12c1 ef94 b43f 8032 bebf 7b48 6f3e
00000040: f11c 533b 7d6b 7dbe 655b c13d fe80 f3be
00000050: d5e0 9841 fa7e 4a42 a7f8 4141 85ac 2241
00000060: 6b35 61c1 f6ef debf 9b48 63be 8a85 1e3f
00000070: a07c d43f b673 88c0 d303 013c a809 8140
00000080: 3274 ca3e 65ff dc3e 818e b7bf 5696 02be
00000090: 8ff3 ebbe 3664 9d3e 8fe8 c2be 34a9 4dc0
000000a0: 9297 d63e d2f9 3f3f 6256 d43f eb91 9840
000000b0: 58fa e23f ecaf cec0 2c9d c5bd 5da9 01c0
000000c0: a6d1 5bc0 ac33 26bf e4eb aabe 3abc adbe
000000d0: c6b5 a3bf 6e19 a3c0 67fc 92c0 f0ba 12c0
000000e0: 0365 ea40 79fa 2f40 7d85 e83e d4bc 423d
000000f0: 4409 863e fa26 093e 0157 bdbd 09cd 413e
00000100: 2f15 a1be b132 d8c0 b608 4a3f 24f5 6740
00000110: 514b 6a40 84e2 7abf f99e 33c1 0bb4 cbbf
00000120: b781 e83d d9ec 7bc0 c201 7e3f

gru.bias_ih_l0 f4 [15]
-1.2278004 -0.8975947 -0.8664333 -1.3506209 2.5961275 -1.1501597 -1.0102268 -1.1370393
-1.9315695 1.6924596 -0.01563189 0.02086359 0.063089825 0.015770301 -0.554498
00000000: 9028 9dbf c4c8 65bf 93ce 5dbf 25e1 acbf
00000010: f426 2640 6f38 93bf 1d4f 81bf 818a 91bf
00000020: ab3d f7bf 84a2 d83f 730e 80bc 1fea aa3c
00000030: 3d35 813d b830 813c 95f3 0dbf

gru.bias_hh_l0 f4 [15]
-1.8157692 -1.6269904 -0.31650102 -0.66489863 2.24464 -1.140902 -1.2461865 -0.72662187
-1.9520413 1.8461933 -0.21693826 -0.0062251776 -0.37615427 0.08319664 0.8564584
00000000: 206b e8bf 3941 d0bf 6c0c a2be cc36 2abf
00000010: 2fa8 0f40 1409 92bf 0a83 9fbf e403 3abf
00000020: 7ddc f9bf 1050 ec3f 1025 5ebe 93fc cbbb
00000030: 4b97 c0be 0063 aa3d dc40 5b3f

gru.weight_ih_l1 f4 [15, 5]
0.22107208 -2.7103918 4.294986 -1.7796812 0.44431847 0.33709064 0.3403213 -0.0055935965
0.47370666 -2.1426136 3.3626578 -1.4819622 -0.6833687 -1.2184316 2.5512981 5.7963576
6.2483177 0.25104368 1.3716736 -0.43098402 -2.9089024 4.989105 2.4885137 -0.97768176
1.5676332 -1.9181111 -1.6229831 0.7753031 -2.6531863 -6.1050076 -3.4721541 -0.15395142
0.4290614 -1.6715063 -10.395923 -3.2334416 -0.2838272 -0.046225768 -1.8252972 -6.3758583
-3.2724187 -0.09240529 0.3106374 -1.4752902 -9.370338 -3.122692 1.9343363 1.5970227
-1.0872296 -8.238305 0.8443037 -0.60726297 0.77823156 0.4425269 -0.17112619 0.7863807
-0.2741141 2.0256782 -0.26778513 0.34942487 -2.3370934 0.1868228 0.63005567 -0.54288363
0.9223864 -0.17183508 -0.18823674 0.66011304 1.194411 -0.303091 0.17566864 0.16711676
0.20715351 0.09578542 -1.0447439
00000000: b860 623e 0f77 2dc0 8670 8940 98cc e3bf
00000010: b67d e33e 2597 ac3e 983e ae3e 7d4a b7bb
00000020: ae89 f23e 9520 09c0 c935 5740 f0b0 bdbf
00000030: 40f1 2ebf 91f5 9bbf 7848 2340 c37b b940
00000040: 38f2 c740 cc88 803e 0093 af3f f0a9 dcbe
00000050: 752b 3ac0 c0a6 9f40 cf43 1f40 5a49 7abf
00000060: 34a8 c83f aa84 f5bf e9bd cfbf 447a 463f
00000070: cecd 29c0 395c c3c0 c637 5ec0 71a5 1dbe
00000080: f0ad db3e ebf3 d5bf b355 26c1 b5f0 4ec0
00000090: cc51 91be 3b57 3dbd 57a3 e9bf 0807 ccc0
000000a0: 4f6f 51c0 fc3e bdbd de0b 9f3e 4fd6 bcbf
000000b0: e8ec 15c1 30da 47c0 5598 f73f 3d6b cc3f
000000c0: 572a 8bbf 19d0 03c1 4a24 583f 9675 1bbf
000000d0: 2f3a 473f e392 e23e b43b 2fbe 3f50 493f
000000e0: af58 8cbe b6a4 0140 221b 89be d1e7 b23e
000000f0: f092 15c0 7a4e 3f3e 544b 213f 6cfa 0abf
00000100: 8421 6c3f 89f5 2fbe 22c1 40be 2bfd 283f
00000110: 76e2 983f be2e 9bbe 7be2 333e a820 2b3e
00000120: 0d20 543e 252b c43d 2bba 85bf

gru.weight_hh_l1 f4 [15, 5]
0.59101164 2.4140167 -0.48225886 -0.3292814 -0.7330148 0.08780248 -0.53916377 0.112735
0.33842963 0.7100719 0.32139766 1.8892171 -3.1602054 -0.9198175 -1.1178026 0.1756001
0.73267525 -0.36782834 -3.3948064 -0.15056115 -0.45591202 -0.54875547 1.209761 -0.12940781
2.1921685 -1.0512618 1.7101603 -0.9213625 -0.008568928 -2.6909602 -0.37809294 0.6626339
4.840191 -0.39141312 -3.760761 0.07682815 0.09577667 2.4888585 -0.5915881 -1.8335232
-1.7081857 0.49108127 4.2485576 -0.8277709 -3.014766 -0.113272056 0.46203637 4.8435745
-2.0846605 -0.6048315 1.742524 0.8235087 0.7196948 1.023041 1.3739208 1.7732205
1.9763104 0.531329 -0.30123734 -0.38895154 -0.8182154 0.52213496 -0.29765478 -0.006252476
0.26700586 -0.10553721 0.03371719 -0.1971773 -0.178743 -0.049848717 0.1758349 -1.2853141
-1.9432046 0.27640393 1.066296
00000000: 8a4c 173f 407f 1a40 a2ea f6be 9297 a8be
00000010: dca6 3bbf c9d1 b33d a306 0abf 9ce1 e63d
00000020: a646 ad3e 46c7 353f 3c8e a43e ded1 f13f
00000030: ce40 4ac0 2979 6bbf 2814 8fbf 83d0 333e
00000040: 9b90 3b3f ff53 bcbe 8244 59c0 b42c 1abe
00000050: 4d6d e9be 3d7b 0cbf 73d9 9a3f 7b83 04be
00000060: 7d4c 0c40 bf8f 86bf 88e6 da3f 6ade 6bbf
00000070: b064 0cbc b138 2cc0 6695 c1be 60a2 293f
00000080: d8e2 9a40 4d67 c8be 4fb0 70c0 1458 9d3d
00000090: 8f26 c43d 7549 1f40 5172 17bf e3b0 eabf
000000a0: d4a5 dabf 016f fb3e 2ff4 8740 cbe8 53bf
000000b0: edf1 40c0 2efb e7bd 0890 ec3e 90fe 9a40
000000c0: 146b 05c0 3dd6 1abf 070b df3f 77d1 523f
000000d0: eb3d 383f 02f3 823f a3dc af3f e4f8 e23f
000000e0: bdf7 fc3f 2d05 083f c83b 9abe a824 c7be
000000f0: 9176 51bf a3aa 053f 3566 98be 92e1 ccbb
00000100: feb4 883e e523 d8bd 091b 0a3d d9e8 49be
00000110: 6808 37be 2b2e 4cbd 100e 343e 2c85 a4bf
00000120: eeba f8bf d184 8d3e 637c 883f

gru.bias_ih_l1 f4 [15]
0.44826278 -0.96864176 -0.30600414 0.1374841 -0.96120864 0.5559021 1.3932139 0.7894902
1.199494 0.32756335 0.729452 -0.16127162 0.18833214 0.57395905 0.12529211
00000000: b382 e53e e8f8 77bf 93ac 9cbe a2c8 0c3e
00000010: c511 76bf 9a4f 0e3f d554 b23f 081c 4a3f
00000020: 0589 993f 62b6 a73e 5ebd 3a3f 6324 25be
00000030: 24da 403e fbee 123f 934c 003e

gru.bias_hh_l1 f4 [15]
0.21003734 -0.5423571 0.03139806 -0.35396484 -1.1378399 0.6325027 0.78312707 0.040445983
1.8027011 0.525324 -0.38607788 -0.32915136 -0.7013354 -1.2119607 1.2070549
00000000: 0714 573e ead7 0abf 419b 003d e13a b5be
00000010: bda4 91bf b2eb 213f 047b 483f b0aa 253d
00000020: e9be e63f a27b 063f 00ac c5be 8786 a8be
00000030: b78a 33bf 8721 9bbf c680 9a3f

fc.weight f4 [25, 5]
-11.240402 -2.6185117 37.75396 -24.146803 28.893818 -6.5538025 -2.5932262 19.382248
-11.0626545 15.647826 0.16479944 -1.347568 0.5994781 -0.10486148 -3.6379495 8.326639
2.5981815 -11.17983 6.105838 -28.96701 12.619207 5.2188783 -19.868465 10.818722
-52.504673 -4.744209 -12.518603 17.892147 -2.6374683 4.514138 -4.6996922 -6.3582892
10.083205 0.84638935 4.584554 -0.9153965 2.5201988 -0.23906285 0.30629292 0.6008191
4.273642 10.934662 -5.693004 -2.5501335 -8.347791 6.684327 16.861986 -7.7469807
-4.9854846 -14.760525 -13.992805 -32.93268 25.838106 5.9506054 -1.0359529 -8.0187025
-16.827219 14.564962 4.3172317 2.0529556 -0.2857208 8.217545 -1.1273775 1.4989163
3.0309253 6.4125576 30.680073 -8.762783 -6.037877 -1.9650716 10.66618 46.58108
-10.928749 -11.712204 -6.963787 -4.8073535 -2.8007183 15.642284 -2.394864 11.128857
-0.8510275 -3.3811758 10.18131 -1.8498037 6.4244833 1.530848 -0.9381962 0.5742658
-0.8322649 -0.68718606 4.5633097 2.1814203 -6.0840135 -2.0401227 -11.560932 5.4682584
4.924435 -10.179975 -1.5770614 -20.237453 3.7806056 8.78841 25.681599 39.62944
13.008311 2.279433 2.486819 11.534988 25.02524 10.510623 3.075945 -4.856568
-2.1881862 3.9150462 0.82388705 5.2929544 -9.737043 -6.5612454 -19.782755 -15.862043
4.788391 -12.469115 -6.758169 -37.3199 -28.941563
00000000: b0d8 33c1 b295 27c0 0e04 1742 a72c c1c1
00000010: 8a26 e741 c0b8 d1c0 6bf7 25c0 d80e 9b41
00000020: a200 31c1 7f5d 7a41 2fc1 283e 1c7d acbf
00000030: 6677 193f 9ec1 d6bd 2ad4 68c0 ea39 0541
00000040: 9b48 2640 95e0 32c1 0663 c340 70bc e7c1
00000050: 46e8 4941 0d01 a740 9ef2 9ec1 7c19 2d41
00000060: c904 52c2 8fd0 97c0 334c 48c1 1e23 8f41
00000070: 48cc 28c0 d273 9040 e163 96c0 1b77 cbc0
00000080: cf54 2141 f9ac 583f abb4 9240 6d57 6abf
00000090: f04a 2140 e4cc 74be 6dd2 9c3e 48cf 193f
000000a0: adc1 8840 60f4 2e41 172d b6c0 6335 23c0
000000b0: 8d90 05c1 02e6 d540 59e5 8641 44e7 f7c0
000000c0: 1789 9fc0 1c2b 6cc1 87e2 5fc1 10bb 03c2
000000d0: 71b4 ce41 5c6b be40 1b9a 84bf 9b4c 00c1
000000e0: 259e 86c1 160a 6941 c326 8a40 a063 0340
000000f0: ff49 92be 107b 0341 e84d 90bf 7ddc bf3f
00000100: aefa 4140 ac33 cd40 ca70 f541 5c34 0cc1
00000110: 4a36 c1c0 7787 fbbf aca8 2a41 0753 3a42
00000120: 28dc 2ec1 3065 3bc1 58d7 dec0 d7d5 99c0
00000130: f83e 33c0 cc46 7a41 7445 19c0 cc0f 3241
00000140: f0dc 59bf 2f65 58c0 a5e6 2241 5ec6 ecbf
00000150: 5e95 cd40 d4f2 c33f a02d 70bf 1503 133f
00000160: 500f 55bf 6deb 2fbf a206 9240 649c 0b40
00000170: 3db0 c2c0 5f91 02c0 94f9 38c1 f9fb ae40
00000180: f994 9d40 2de1 22c1 26dd c9bf 4ee6 a1c1
00000190: 71f5 7140 549d 0c41 ea73 cd41 8c84 1e42
000001a0: 0b22 5041 3be2 1140 0b28 1f40 508f 3841
000001b0: b133 c841 832b 2841 48dc 4440 0169 9bc0
000001c0: 3e0b 0cc0 1e90 7a40 43ea 523f e25f a940
000001d0: eeca 1bc1 b9f5 d1c0 1543 9ec1 eeca 7dc1
000001e0: 803a 9940 7f81 47c1 ec42 d8c0 9447 15c2
000001f0: 5288 e7c1

fc.bias f4 [25]
-2.684388 1.3258035 4.2665477 2.615235 1.0226955 -2.645463 0.18840824 2.1999927
0.2010792 -1.1722746 -1.0519537 0.8857657 2.4206572 0.5320201 -1.4359365 -0.41875398
1.1651458 3.873392 1.9737613 0.2772607 -1.3948818 2.24017 4.9501595 3.7432854
2.9821875
00000000: 03cd 2bc0 eeb3 a93f 8f87 8840 0360 2740
00000010: b0e7 823f 444f 29c0 17ee 403e aecc 0c40
00000020: b5e7 4d3e 180d 96bf 6ba6 86bf 8ac1 623f
00000030: 0cec 1a40 7832 083f c4cc b7bf ec66 d6be
00000040: 7f23 953f a8e5 7740 36a4 fc3f 1df5 8d3e
00000050: 7d8b b2bf f25e 0f40 b567 9e40 fd91 6f40
00000060: 29dc 3e40
