models/SSD-15-hidden-5-input-2-layer-2-disc.pth (torch, 14047 bytes, 10 tensors)

gru.weight_ih_l0 f4 [45, 5]
00000000: f4df 3dbc a869 d03e d672 1d3f b208 29bf
00000010: 1a85 b53f 02de 51bf 3c69 23bf 20cb 943d
00000020: 8926 683f ac6c 07bf 7d09 22c0 8b23 92c0
00000030: a067 dabf 4ddc 20bf 452f fdbe 3e12 dd3e
00000040: 001b 883e bc0d 733e 9c48 34bf 1d94 27bd
00000050: 1042 633e 62ce 0cbf c357 073e 99bd cd3d
00000060: bd6e 013f 047d 3ebe 4bdd 5c3f 5d26 b33d
00000070: e969 9e3f 6ba7 68bf 4815 38c0 c21f 1840
00000080: 4112 c8be f4ad a03e e300 153f 23a8 7bbe
00000090: af5e 5f3f cfba c5bf 07d7 09c0 8f52 f33e
000000a0: 3c46 87be dd76 613f 5cea c9be 5f75 1cbf
000000b0: f0e0 8dbe ef99 dcba 392b 0440 394b 7e3f
000000c0: 29b3 f5be 6e84 0040 c43b b83f b40d a2bf
000000d0: 7010 91bf 6d18 a2bf bf65 85bf d6f6 06bf
000000e0: 71e5 3f3d abe6 133f 5241 abbd cceb 2d3d
000000f0: d72d 43bd 2e4f f4be 3d30 86be 2a52 7a3f
00000100: 20c4 123f 9c12 163f f5f5 313e 6c46 543f
00000110: fdc1 bfbf eeb7 223e bdf4 21c0 27ce a040
00000120: 6f11 4640 b545 11c0 e224 c83f 01fa eabf
00000130: efb6 cabf 6c43 c53e 72f2 0fbd e7ed 2bbd
00000140: 2cfb c23f e67f 7b3f 138b 393e abdd 17bf
00000150: 1288 e1be 15fa 3940 b266 ffbf 9a71 d33f
00000160: f07a bcbf 7dd7 00c0 8845 b9bc 5a94 233e
00000170: b86f 0bbf 06bf 1c3f 2c5c 1b3e 05ee 053e
00000180: 85da 003e 13cc 6a3e 697c 04bf ff82 51bf
00000190: c0e9 b0be 78f9 02bf 069e 043f e80f 88bc
000001a0: 9ed7 92bf e84e 70bf f7f5 c6be a06f a23d
000001b0: 72c3 e03e 9832 a53e d071 d0bd 9ea4 8abf
000001c0: 5081 183f e608 053f 08c2 023e 235e 67bc
000001d0: 955c abbd 26df b53e b3ae 2bbe b040 91be
000001e0: 4e63 4540 dd36 dc3f 8f1f 41bf 204b 4cbf
000001f0: 3010 bdbc 31cc 513f 9037 39c0 0e15 853e
00000200: ba48 b2bf 100f debe baed 4f3d 81d4 73bd
00000210: 6543 17be a69a a5be fd37 22be 67da 423f
00000220: 81d2 e5bf 80cf b1bd 0db3 d33f 8b7f 5fbf
00000230: c3ef b2be ba96 99be 00d7 9cbe e95c dc3e
00000240: d076 973e 7bec 3fbe af1f 11bf 98fe 8840
00000250: ec3d 03c0 c755 ea40 bb76 62bf 4ba9 05bf
00000260: 20d8 39bf 8356 62bf e030 61bf 7e25 b9be
00000270: c94c 35c0 b873 c5bf aa81 943e f972 49bf
00000280: 25d5 66be 304a 063f a3e2 823f 711c 703f
00000290: 7ca5 a13e 54bf 993f a3e5 d43f 7b04 15c0
000002a0: 6778 40c0 9208 1440 2c3f f5bf fa32 df3e
000002b0: c801 c7bf 9e05 8a40 9e20 3240 120c 33bf
000002c0: a133 39bf 5c4b efbe cf8e 4abf a78c f1bf
000002d0: 55d8 9e3f 9021 b73e 6052 8e3c 0d0b ab3f
000002e0: 3f16 663e 0b33 ef3d 7e3d b1bf 9f00 39bf
000002f0: 9296 0ec0 148d 84bf 3b3c 2d40 ae2c 56c0
00000300: 1cec 9ebd 8a24 433f 673a 793f 0e3e 463e
00000310: 41d1 b1bf f2ef bbbe c346 56be 66e4 4ebf
00000320: 692d cc3f 1c43 6c3f 18ca a33f 4f2d de3f
00000330: 1267 eb3f b5a9 f43f 90bb 1840 cbdc 71bf
00000340: ed0f 3b3f aec9 0ec0 cac5 83bf 8a34 90bf
00000350: b4dd 3ec0 d630 dc3e 0991 32c0 8db8 75be
00000360: 2393 933e f198 2ec0 ebd4 ca3f 649d bcbe
00000370: c739 da3f 70cc a6bf c465 81bf 0356 0240
00000380: 9b1b d93e
-0.011589039 0.4070561 0.6150335 -0.66028893 1.4181244 -0.8197938 -0.6383245 0.072653055
0.906838 -0.52900195 -2.531829 -4.5668387 -1.7062874 -0.6283615 -0.49450126 0.4317798
0.265831 0.23735708 -0.70423293 -0.040912736 0.2219317 -0.55002415 0.13217072 0.100459285
0.505596 -0.18602377 0.86275166 0.087475516 1.2376071 -0.9088046 -2.876299 2.3769383
-0.39076427 0.31382716 0.5820448 -0.24575858 0.8725385 -1.5447634 -2.1537492 0.47523925
-0.26420772 0.88071996 -0.39436615 -0.61116594 -0.27710676 -0.0016830544 2.065138 0.9933353
-0.4798825 2.0080829 1.4393239 -1.2660432 -1.1333141 -1.2663704 -1.0421675 -0.5272039
0.04684967 0.57773846 -0.08362068 0.0424612 -0.04765114 -0.4771666 -0.26208678 0.9778162
0.57330513 0.58622146 0.17378981 0.82919955 -1.4981076 0.15890476 -2.5305626 5.025165
3.094814 -2.2698796 1.5636256 -1.8357545 -1.5837077 0.38528 -0.035143323 -0.04197493
1.5232902 0.9824203 0.18119459 -0.59322613 -0.44049126 2.9058888 -1.9953215 1.6519043
-1.4725018 -2.0131524 -0.022616163 0.1597456 -0.54467344 0.6122898 0.1517188 0.13079078
0.12583359 0.2292941 -0.51752335 -0.8184051 -0.34553337 -0.5116191 0.51803625 -0.016609147
-1.1472051 -0.938704 -0.3885953 0.07931447 0.43899113 0.32265162 -0.10177958 -1.0831487
0.59572315 0.519667 0.1276933 -0.014121565 -0.08367268 0.3552181 -0.16765861 -0.28369665
3.084186 1.7204243 -0.7543878 -0.7980213 -0.023079008 0.81952196 -2.8940163 0.25992626
-1.3928444 -0.43370867 0.050763823 -0.05952883 -0.14771803 -0.3234455 -0.1584167 0.76114506
-1.7954866 -0.086821556 1.6539017 -0.8730399 -0.3494855 -0.29997808 -0.30632782 0.43039635
0.29582834 -0.18742554 -0.5668897 4.2810783 -2.0506544 7.322971 -0.8846242 -0.52211446
-0.72595406 -0.88413256 -0.879652 -0.36161417 -2.8328116 -1.542594 0.29005176 -0.7869106
-0.22542246 0.5245695 1.0225414 0.937934 0.31571567 1.2011514 1.663258 -2.3283985
-3.0073488 2.313023 -1.9159904 0.4359358 -1.5547419 4.3131857 2.7832408 -0.6994029
-0.72344404 -0.46737182 -0.7912416 -1.8871049 1.2409769 0.35767794 0.017373264 1.3362747
0.22469424 0.116796575 -1.3846891 -0.7226657 -2.22794 -1.0355554 2.7068012 -3.346477
-0.07759878 0.7622763 0.9735474 0.1935961 -1.3891984 -0.367065 -0.20925431 -0.8081726
1.5951358 0.922899 1.2796049 1.7357577 1.839083 1.911429 2.386448 -0.9447753
0.73071176 -2.2310596 -1.0294735 -1.1266034 -2.9822817 0.4300601 -2.7901022 -0.23996182
0.28823194 -2.7280848 1.5846227 -0.3683883 1.7048882 -1.3031139 -1.0109181 2.0364997
0.42403874

gru.weight_hh_l0 f4 [45, 15]
00000000: fce5 76bf bef0 85bf 9926 9fbe b815 b03e
00000010: 1e4f 0a3f 5743 523f a8b9 c4be 0b8d 41bd
00000020: 1c23 ae3f 0602 873f 7f6b cfbe f8ed b93e
00000030: 63a9 c43e efa2 a5bf 8987 03bf e9ce d6bf
00000040: 808f 783f b2ad fa3e 5237 14bf 89df dd3c
00000050: 601f 0b3f e0df 09bf 4664 cabd c679 60bd
00000060: f3e8 0b3e c048 02bf c840 853c f1a9 f6be
00000070: 0f5a 1b3f 59cc 79bd 9a21 5f3e 5b06 32be
00000080: 5d3d dfbf a032 0bbe 7bbb 8f3d f0c6 343f
00000090: 10c9 2c3f b58e b2bd ecca 063f 772e 3c3b
000000a0: 5485 17bf b335 07c0 7092 1b3f c9a6 573e
000000b0: ab54 2dbe 1b3c 8dbf a359 903e cda3 673c
000000c0: c53a b4bb 4337 e7bd 8281 9f3d b350 e3be
000000d0: dc02 1bbd 329b 483e 42ab a5bc 5541 60bd
000000e0: 177b 2d3e c0e1 55be 1df8 a4be 5f33 ad3d
000000f0: 2bb4 1bbf a510 93be 52d2 9f3e 30de 02be
00000100: 2451 86be 3d16 88bd a8f7 9dbe 7441 0c3c
00000110: ee6f 8a3c 4428 263d 10d6 9b3e 8b36 2dbf
00000120: 8b56 dc3c ee32 df3e 4dfe f93d 25e3 e0bf
00000130: 2d76 1f3f 3e3b 783d 40cd 00bf d5a0 f73e
00000140: 72af aa3e 1e30 3ebf 372d 773e 645a fdbe
00000150: 0c1e c9bd be79 c7bd f3ab 5a3f 96f7 f63b
00000160: 441c 773c 0c6f 743e 3847 3cbe a0ce 61bf
00000170: 6d63 07bf 0d05 85bf 7a3c dc3f 3d48 afbe
00000180: a112 6bbe 1c63 1e3e 7bcb d3bf 8fd7 58be
00000190: 0dcb 2ebf a02d 663f 09aa 5c3f a401 4c3e
000001a0: 3bd5 3b3e 84bf 243f 6054 113d 77df ce3e
000001b0: c4ec 363f cc48 7ebf e3b9 00c0 3fa7 cc3e
000001c0: 482d 5e3f f337 debe 84cf 623f a18f 1a3e
000001d0: 12b1 43c0 013d ca3f 9dec ca3e a548 94be
000001e0: 26bf b6bf afdb 4fbd ef91 1ebe 2948 283e
000001f0: 6736 9ebe 991a 173e 573a 99be ee4a 93be
00000200: 3b24 753e 92a2 8f3a 26a2 c5be 822c 03be
00000210: 04e0 93ba cb4b e23d 0582 e43c d70f 5cbe
00000220: ecbd 6840 42c4 63bf aaf4 16c0 c202 bb3f
00000230: 22b6 52bf 9f4e b1be eb22 263d 468e 47bf
00000240: cb85 4cbf 8b51 113f f3c5 7d3f 132d dcbf
00000250: 3766 5ebe d7ef e5be 7584 02bf c427 383f
00000260: 2ad8 283e 6c29 6f3f 0883 6fbf 809b b33e
00000270: 5953 80be 9f56 c13e 5ac3 473f d906 b93d
00000280: badd e43e 765a 3cbf af4d 29bd f839 77be
00000290: 40db 603e 3fac 7fbf 281e aabe c8d9 c8be
000002a0: 8307 45be d8e8 723d 50d4 3a3d ffe4 bcbe
000002b0: 6ab9 7ebe ca37 53be bc66 58ba fda7 70be
000002c0: 9667 dfbc 3537 9abd fba9 0fbf a635 b83d
000002d0: 5f7d 13c0 81a5 f2be 2982 503f de7d 9d3f
000002e0: a97d 853f af0d 523f e04d 97be ac4e 61be
000002f0: 3fe8 523f ac8a 823e 411f 323f f336 19be
00000300: 0dae 4e3f ece4 e4be 092a 40bc 69df aebf
00000310: 9573 c0be 01ef a5bd 6656 5f3e 4859 bebe
00000320: a62d ab3e 799f e4be 8a5b 93be 91b9 703d
00000330: ee2d e73d 65da 9abe 8719 9dbe 5b79 99be
00000340: 72f5 b5be c991 983e 5bef 43c0 7fa6 1c40
00000350: b00f d23f 4a4e f8bf 2199 9fbf 8452 1f3f
00000360: 9dc9 02bf 08d8 78bf 59bd a3bf 20d8 32bf
00000370: 59cf 893f 473a 913f bd8d a9bf dca1 b6bf
00000380: 70cd 7abe e881 643f ee92 c8bf e41a 8fbf
00000390: 5bee c6bf bc8d e13e 74b2 59bf 5ace 333e
000003a0: 1422 99be b172 e83f 7dfc b6bd 4a1a 3d3f
000003b0: 97ee 183f 0150 40bc a122 953e 801a 36bf
000003c0: 1b1e 6540 581a 57c0 b5a8 26be e35c 153f
000003d0: bbe1 7ebf e4ba b63e 1ef3 0740 384d 14bc
000003e0: 6d85 103f ea63 4f3f 2876 5d3f 3e72 18bd
000003f0: 8815 483f 9ba8 703e 260e 01bf 7e93 4c3f
-0.9644468 -1.0464094 -0.31084135 0.3439157 0.54026973 0.82134 -0.38422894 -0.04725365
1.3604465 1.0547493 -0.405117 0.36314368 0.38410482 -1.2940348 -0.51378685 -1.6781894
0.97093964 0.48960644 -0.5789691 0.027084129 0.5434475 -0.5385723 -0.09882407 -0.054803632
0.13663082 -0.5089226 0.016266242 -0.4817653 0.60684294 -0.060985897 0.21790162 -0.17385237
-1.7440602 -0.1359353 0.07018181 0.70616055 0.674943 -0.087186255 0.52653384 0.0028714219
-0.5918782 -2.1126525 0.6077032 0.21059717 -0.1692683 -1.1033968 0.28193387 0.014138174
-0.00550017 -0.11289837 0.077883735 -0.44397506 -0.037844524 0.19590452 -0.020223264 -0.054749805
0.16941486 -0.20886898 -0.32220545 0.08457064 -0.6082179 -0.28723636 0.3121515 -0.1278007
-0.2623378 -0.066448666 -0.3085301 0.008560527 0.016899075 0.040565744 0.30436754 -0.6766135
0.026896736 0.43593544 0.12206707 -1.7569319 0.62289697 0.060603373 -0.50313187 0.48364893
0.3333698 -0.7429217 0.24138342 -0.49483025 -0.09820184 -0.09740017 0.85418624 0.0075368388
0.015082423 0.23870486 -0.18386543 -0.8820591 -0.52886087 -1.0392166 1.7205956 -0.342348
-0.22956325 0.15467495 -1.6546472 -0.21175979 -0.6827858 0.8991337 0.86196953 0.19922501
0.1834306 0.6435473 0.035480857 0.40404865 0.71455026 -0.9932983 -2.0113456 0.3997135
0.86787844 -0.4340206 0.88597894 0.15093853 -3.0576825 1.5799867 0.39633647 -0.28961673
-1.4277084 -0.050746616 -0.15485357 0.16433777 -0.3090088 0.1475624 -0.29927322 -0.28768104
0.23939602 0.0010958484 -0.38600272 -0.12809947 -0.0011281972 0.110496126 0.02789403 -0.21490417
3.636592 -0.8897134 -2.358683 1.4610217 -0.8230916 -0.34630296 0.040560644 -0.7795147
-0.7989165 0.5676505 0.9913017 -1.7201256 -0.2171868 -0.44909546 -0.50983363 0.7193568
0.1648871 0.9342258 -0.9355931 0.35079575 -0.2506359 0.377614 0.7803246 0.09034509
0.44700414 -0.7357553 -0.04133385 -0.24143207 0.21958637 -0.998722 -0.33226132 -0.39228654
-0.19241147 0.05930409 0.045612633 -0.3689346 -0.24875417 -0.2062675 -0.00082550547 -0.23501582
-0.027271073 -0.07530061 -0.56118745 0.089946076 -2.304527 -0.47391894 0.8144861 1.2304037
1.0428973 0.8205213 -0.295516 -0.22002667 0.8238563 0.25496423 0.6957894 -0.14962368
0.8073433 -0.44705904 -0.011728772 -1.3661929 -0.37588182 -0.08102227 0.21810302 -0.3717749
0.33433264 -0.44652918 -0.28780776 0.05877072 0.11288057 -0.30244747 -0.30683538 -0.299754
-0.35538822 0.29798725 -3.061484 2.447662 1.6411037 -1.9398892 -1.2468606 0.62235284
-0.5108889 -0.9720464 -1.2792159 -0.6986103 1.0766402 1.134591 -1.324638 -1.4268146
-0.2449243 0.8926072 -1.5669839 -1.1180081 -1.554149 0.44053447 -0.8503792 0.17559186
-0.29908812 1.8160001 -0.08934877 0.7386824 0.5973906 -0.011737824 0.29127982 -0.71134186
3.5799625 -3.360983 -0.16275294 0.5834486 -0.9956319 0.3568946 2.1242137 -0.0090516135
0.5645359 0.8101183 0.8650842 -0.037218325 0.78157854 0.23501818 -0.50412214 0.79912555

gru.bias_ih_l0 f4 [45]
00000000: 98c0 71bf 1f4b 9fbf 5f7f f8be 3804 c6bf
00000010: 5fb1 9fbf c414 08c0 8442 8fbf 49ee 96bd
00000020: f93c ebbf 6d19 c9be 2c25 74bf 3944 e0bf
00000030: 5c0b 64bf 5d8a cabf 5c43 07c0 ab5f 203f
00000040: fc44 a53f 49e7 b5bf bc5b 733f fdb1 763f
00000050: 0093 2b3f 9874 27bd c307 82bf 293a 713f
00000060: 8cd7 e1be a57f 6bbf 2f40 2a3f 0a0b d73f
00000070: bc13 6a3f 956d efbf 44ad 6abe e324 8a3d
00000080: 7042 363e 197e 1f3c f828 eb3c 7bd5 ce3b
00000090: cb59 05bf 664a 01bd 4e0e 473c 6109 20be
000000a0: ef13 b4bd d514 a4ba f70c aa3c 8424 c03b
000000b0: da11 393e
-0.944345 -1.24448 -0.48534676 -1.5470037 -1.2476004 -2.1262674 -1.1192174 -0.07369668
-1.8377982 -0.3927721 -0.9536922 -1.752082 -0.89079833 -1.5823475 -2.1134863 0.6264598
1.2911677 -1.4211208 0.9506185 0.9636534 0.6702118 -0.040882677 -1.0158619 0.9422937
-0.44109762 -0.91991645 0.66504186 1.6800244 0.9143636 -1.8705317 -0.22917658 0.06745317
0.17798781 0.009734654 0.028706059 0.00631207 -0.5209014 -0.031565093 0.012149407 -0.15628578
-0.087928645 -0.0012518415 0.020758135 0.005863728 0.18073216

gru.bias_hh_l0 f4 [45]
00000000: fa9c 87bf 0884 cdbf 43e6 84be 286b b7bf
00000010: c9bb 93bf c627 07c0 87c0 97bf 84fb 113d
00000020: 7ce4 d5bf 20dd 29be c9ac 81bf 8fb8 d9bf
00000030: 9235 0dbf 7bdd f2bf ddd3 eebf 9bdf 103f
00000040: 910c cb3f 55d3 d0bf c12f 433f fb70 7c3f
00000050: 88c0 1e3f 39ca 95be 3acd 29bf 7a27 663f
00000060: 5413 9abe d0c3 8abf 354d f93e 8b2c b73f
00000070: 089f 313f 9abc e3bf 3b19 cc3d d900 abbe
00000080: c3a3 87bd 5fad fd3e e963 9f3d 827a f3be
00000090: 2b0d de3e 7758 aebe 1ec5 433e 6a2a 6bbd
000000a0: 7d56 1f3f 61ca 6a3d 3a0c 283e 9ac1 8cbe
000000b0: f458 f1be
-1.059478 -1.6055918 -0.25956926 -1.4329576 -1.1541682 -2.1118026 -1.185563 0.035640255
-1.6710353 -0.16588259 -1.0130855 -1.7009448 -0.55159867 -1.897384 -1.8658406 0.56591195
1.586321 -1.6314493 0.7624474 0.98609895 0.6201253 -0.29255846 -0.66328776 0.89903986
-0.3009287 -1.0841007 0.48691717 1.4310468 0.6938329 -1.7791932 0.0996575 -0.33399084
-0.06623032 0.49546334 0.07782728 -0.47554404 0.4336942 -0.34051868 0.19118163 -0.057413496
0.62241346 0.05732191 0.16410914 -0.27491456 -0.47138178

gru.weight_ih_l1 f4 [45, 15]
00000000: 9be5 3cbd 71b7 9540 4507 49c0 5a77 7cc0
00000010: 7db2 43c0 9746 183f f45f 75bf 959e 3e40
00000020: 54a9 1ac1 d467 3cc1 cb97 11c1 5000 3240
00000030: b525 87c0 e779 4d40 a2fa e6bf e887 a1c0
00000040: a02b febf fada 0e40 16f4 1441 4a39 4640
00000050: 9941 8440 9ace 243e ad68 fabf a1cf 99be
00000060: ec07 3140 4a71 d2bf d069 a73e b3dd 0540
00000070: 2f3a d4c0 19cc d83f 26aa 533f 9195 1441
00000080: e468 06bf 4fa4 9b3e 6c0b 723e 1109 f33e
00000090: c0c5 8540 8164 3d40 3c6e f0c0 515b 9640
000000a0: 2865 6d3f 1623 3ac0 adcd bc3f 1cc9 df3f
000000b0: 1c06 7e3f e03b f8bf 8c89 b43f cf13 913e
000000c0: 9aa6 3abe 0eba 58bf bce1 3440 6588 dbbf
000000d0: c3e2 85bf 5871 5140 8299 0ac0 28c3 5cbf
000000e0: 4a83 1040 8f48 92bf 6773 f8bf 5b99 64bf
000000f0: f969 0841 678f 8740 5762 ce40 759b 0841
00000100: 2ee6 7640 9ccc 9640 bf2e da40 ab4a 1dc1
00000110: 97c9 0841 823c 2d41 5623 5cbe e7a3 bfc0
00000120: 0d8c 06c1 ef86 7441 f1a1 00c1 9d5e 51bf
00000130: 8aa5 55c0 3a41 6bc0 e84b a9c0 fd9d 6a41
00000140: f548 3ebf 0ddc 55bf dcab 7a40 fcf9 d03f
00000150: 18cc 59c0 c18e 9bc0 b690 10c0 234b e440
00000160: 2128 1cc0 c91e 743e eb3a 0f40 df34 b0be
00000170: 7bb8 9dbf 993a 31c0 eaec e63f 97dc 1a40
00000180: 450f f03f 438a e63f fb8a 3d40 caa8 14c0
00000190: 6884 29bf 8347 613f e169 f6bf 7790 87be
000001a0: 15e9 d1bf 8e22 27c0 14ea cabf 87c4 313f
000001b0: 972f 8040 7d0c fa40 90c4 40bf 6bce d4c0
000001c0: 0a78 a4bf 1509 66bf cff7 80bd 565f 44c0
000001d0: b725 f240 4251 3e40 de2c d2c0 f326 623e
000001e0: c89d 9a3e eec6 2a40 d258 5b3e e469 bbbf
000001f0: 0e10 3e40 ded6 43c0 0a78 833e f400 0ebf
00000200: bc23 93bf 5d3b c940 1819 4ebf 423e 90bf
00000210: bf57 bebf 9145 6440 d204 bdc0 c4ef 00c0
00000220: 6d35 1fc1 46ec 4e40 f6e1 3c41 e35f b13f
00000230: f11a d9bf d742 8a3f e990 f43e 5b84 083e
00000240: add1 4b40 5336 34bf 4edb b0c0 3bbb 88bf
00000250: c3e6 f740 a88c 57c0 8c56 cebf 5314 acbf
00000260: 4791 f9bf 7a16 a6bf ca22 b840 8265 8d40
00000270: ad18 08c0 d1e5 20c0 0dc6 ce3f 3dda b63e
00000280: 52f0 4940 d467 5740 8b92 2e40 4104 5040
00000290: be77 dbbe 625e 91bc f35b da3d 58e4 53c0
000002a0: 5b5c 38c0 8de6 553f f8aa b4c0 31ae 93be
000002b0: e44e 9ebe 50e9 4e40 7201 59be 1beb 36c0
000002c0: b1f3 ea3e 9378 253f 8cd0 3440 91a5 01c0
000002d0: ee71 ddc0 72b9 44bf 0caf 3340 e9a9 0dc1
000002e0: cebc 00c1 ba36 1540 225f 0dbf 1331 6e3f
000002f0: c154 21c1 ca5f 88be 4bba 51c0 5598 413e
00000300: c58d 65c1 07fd 8840 669f b940 ae80 23c1
00000310: fa57 91c1 b401 1141 691a acc0 78f7 9b3f
00000320: 2b75 9440 2147 2740 03c3 6a40 43ca 0c41
00000330: b8ef 973f 448d 1cc0 fb20 c4c0 3bd4 f83f
00000340: fb71 0c40 5f4c e3c0 e03b 1dc0 e4cf 66c0
00000350: af12 98bf 7b82 70bf 5510 d83f 1344 bd3f
00000360: d351 0d3d c5d6 973e 72d0 2840 fadb 20bf
00000370: 85d0 8cbf e065 753e 555f 88be a10b 843f
00000380: 5524 d8bf 1222 f53f e875 a240 2f56 6a3f
00000390: 707a bbbf 51c6 7a3f 0680 bfbe 5e44 173f
000003a0: c2ae ab3d 3567 94bf 789d 1e40 7419 ac3f
000003b0: c13c e43e 663a 943f df48 0f40 9547 99be
000003c0: 19d7 7c40 10e1 63bf 615d 563e 627c c23f
000003d0: 24da aabe ca9e 263f b8af 7240 70b1 0fc0
000003e0: d04b c240 7cb3 8dbf cc12 9bbf c5a7 dabf
000003f0: a87d 3cbe 11a4 8740 4d66 68be 749d 7840
-0.046117406 4.6786427 -3.1410687 -3.9447846 -3.057769 0.5948271 -0.9584954 2.978429
-9.66634 -11.775349 -9.099559 2.781269 -4.223353 3.2105653 -1.8045237 -5.04784
-1.9857063 2.2321153 9.309591 3.0972466 4.1330075 0.16094437 -1.9563195 -0.3004122
2.7661085 -1.6440823 0.32697916 2.0916564 -6.6321025 1.6937286 0.826815 9.286515
-0.525038 0.30398795 0.2363717 0.47467855 4.1803894 2.9592593 -7.5134563 4.698647
0.9273248 -2.9083915 1.4750267 1.7483249 0.9922807 -1.9393272 1.4104476 0.28335425
-0.18227616 -0.84658897 2.8262777 -1.7150999 -1.0459827 3.272543 -2.1656194 -0.86235285
2.2580132 -1.1428393 -1.9410218 -0.892965 8.525872 4.236255 6.4495044 8.537953
3.857799 4.7124767 6.8182063 -9.8307295 8.549216 10.827272 -0.21497855 -5.9887576
-8.409192 15.282943 -8.039536 -0.81784993 -3.3382287 -3.675856 -5.290516 14.663571
-0.74330074 -0.83538896 3.9167395 1.6326289 -3.403082 -4.861176 -2.2588325 7.134172
-2.4399493 0.23839869 2.237971 -0.34415337 -1.2321924 -2.7692015 1.804105 2.4197137
1.875466 1.8010944 2.9616077 -2.322802 -0.6621766 0.87999743 -1.9251062 -0.26477405
-1.6399256 -2.611484 -1.5852685 0.694405 4.0058093 7.8140244 -0.7529993 -6.6501975
-1.2849133 -0.8985761 -0.06297266 -3.0683188 7.567104 2.9737096 -6.567977 0.2208517
0.30198503 2.6683917 0.21420601 -1.464169 2.96973 -3.0599895 0.2567752 -0.55470204
-1.149528 6.2884965 -0.8050704 -1.1269 -1.4870528 3.566746 -5.9068384 -2.0146341
-9.950543 3.233171 11.805166 1.3857387 -1.6961347 1.0801648 0.47766808 0.1333174
3.1846726 -0.7039539 -5.5267706 -1.0682138 7.746919 -3.36796 -1.6120162 -1.3443702
-1.949746 -1.2975609 5.7542467 4.418641 -2.126506 -2.5140269 1.615419 0.35713378
3.155293 3.3657122 2.7276943 3.2502596 -0.42864794 -0.0177452 0.10662069 -3.310812
-2.880637 0.8355492 -5.64587 -0.28843835 -0.30919564 3.2329903 -0.21191958 -2.8580997
0.45889047 0.64637107 2.8252287 -2.0257304 -6.9201574 -0.7684547 2.807559 -8.853982
-8.046095 2.3314652 -0.55223286 0.9304363 -10.083192 -0.2663558 -3.2769954 0.18905766
-14.347112 4.280887 5.800708 -10.218916 -18.167957 9.062916 -5.378224 1.2184896
4.6393027 2.6137164 3.6681526 8.79938 1.1870031 -2.4461222 -6.129026 1.9439768
2.1944568 -7.1030726 -2.4567795 -3.6064386 -1.1880702 -0.939491 1.6879984 1.47864
0.03450186 0.29656044 2.6377225 -0.6283566 -1.1001135 0.23964643 -0.26635233 1.0316049
-1.6886088 1.9151022 5.076893 0.91537756 -1.464674 0.97958857 -0.37402362 0.59088695
0.08382942 -1.1593996 2.4783611 1.3445268 0.44577602 1.1580322 2.2388227 -0.29937425
3.9506285 -0.89015293 0.20934059 1.5194209 -0.33369553 0.6508604 3.791975 -2.245205
6.0717545 -1.1070399 -1.2115111 -1.7082449 -0.18407309 4.2387776 -0.22695275 3.8846102

gru.weight_hh_l1 f4 [45, 15]
00000000: 774d f840 00be 0dc0 3efa 29bf bbd7 d9c0
00000010: 63ce 25bf 453b 27c0 873d efc0 617f eac0
00000020: 9bfe 2cbd be56 1e40 3de9 3541 2b6a 79c0
00000030: 9359 1440 7604 ce3f fbfe 473e 12ff 24be
00000040: 3c7c 62c0 fd84 3a3f 0f95 88bf e9f4 59be
00000050: 309b 843f 2c75 d2be 6099 97bf 2cc9 72be
00000060: bfe3 c0bf 4afa 7b3f e030 afbe 2d83 ed3f
00000070: 0279 b83e 3d69 95bc b42f 2c40 baca 5d3f
00000080: ee15 233b d774 c6bf 0666 e43f 2940 2dbe
00000090: 56a5 2140 5fb0 0bbe 0cea 3ac0 85cc 323e
000000a0: ca3d 81c0 73b7 7bbf 6252 4e3f 3a3e 1340
000000b0: 3994 0fbf 5e2a 853e 5a58 afbe 74da c6bd
000000c0: d29b 843f b0b7 71bd 0ad5 cebe 9ab6 5e3e
000000d0: 869c 74bf 1d30 1e3f 1d9c 903d 7ed0 ad3e
000000e0: 8fe6 b2bf 7bd5 5dbe 2c9a 52be 6d95 fabe
000000f0: 30d4 e4bd a963 0ec0 ae87 d1c0 991f 83c0
00000100: f2a3 12c0 b185 69bf 06c5 8240 35ae 5cc0
00000110: fedf abbf 9706 9dbf e53b 6fc0 183b aebf
00000120: b327 a4bf bb3f d43f a4ad a1c0 9c17 ec3f
00000130: d94a c23f 8d90 ac3f fcde 61bf 0e04 7640
00000140: e06c 3dc0 9d12 c2bf 6490 dcbf 752a 7cbe
00000150: 8f78 f33f 3c3c d4bf 89f4 ecbf 7172 0740
00000160: d665 1fbe ffdd f5bf b900 9e3f a3bf 65bf
00000170: 4028 853d 8a2c ba3f 8fd2 903e 5bdb 62bf
00000180: e482 7bbe fcf2 fe3f 0527 16bf d5c0 0c3f
00000190: 4bda c13f 67ca afbe 7184 e13e 3ba7 4abe
000001a0: e2f8 993f 8936 0c3f 6cd4 1740 02a6 e8be
000001b0: b363 c33f eccf 653f 6cec 313f bc0e c13e
000001c0: f040 54bf 1c4e d13f f57c 9abf 0456 77bf
000001d0: 4ea6 873f 9fb4 923f e371 913f c5f9 8f3f
000001e0: 0277 0d40 9c12 693f 2d09 9cbe eba0 f3bf
000001f0: bb95 8cbf 3d94 d53e 022b 89bf 014f 39bd
00000200: 9957 a5bf 477c 2e3f dad5 5a3f 3d38 ec3d
00000210: d838 9ebe 3aa2 183e 3207 943e a561 1740
00000220: e394 40bf b00a 22c0 6a0c a3c0 49aa 52c0
00000230: f70a 4b3f 206d 44c0 8550 cbc0 ebf6 8240
00000240: 25ad 33c0 433f ab3f dcaa bb3f 0d91 a440
00000250: 94f5 0540 1229 3140 9b0b d1bd 1f4e c9bf
00000260: 5491 a03f b67f 90c0 bd42 17c0 bbf0 cd3f
00000270: efc2 adbd 4375 92be 966e 293e fc23 1cc0
00000280: c805 0f3e e5df bd3f e77d d93e 8507 ff3f
00000290: 915e fe3f 47e9 aa3f 19d6 4fbe 00b1 883e
000002a0: 0943 dcbf ed6f ab3e b782 883f 8d0b 41bf
000002b0: 46e2 643f daea 433f fd35 6e3e 443b 1140
000002c0: 8b89 73bf a983 643d e7d8 97be bf14 833f
000002d0: 332c 0a41 db90 1f40 8eec 9fbf e39b d23f
000002e0: 01a6 01be e8be c23f f703 a93f 3c96 b140
000002f0: e9ff 3bc0 5316 70c0 1a3a 173f 8e79 c240
00000300: 8a73 ee40 1668 68bf f92c 8440 44ec 67be
00000310: 2e2a 2340 4c4c b7be cf37 13c0 ed8b 7f40
00000320: 9cb9 e1c0 db62 5dc0 190b 30c1 0871 31be
00000330: ebb3 e33f e239 a9bf 3880 2bc1 f3c3 6740
00000340: 0582 623f ab5c 57c0 39e9 a8bf 49be 5fbf
00000350: d72c a6bf 1b5a 41bf cab1 0bbf b7b5 14bf
00000360: 2121 58bf 4b6c ccbf ac14 3a3f 2332 463f
00000370: 6f9a 3f3f c510 f9bf 92e1 d43e 423d dcbe
00000380: 5728 8bb8 4bf5 ae3f 2e39 4fbf d8bd 5abe
00000390: 79fb 16c0 0c0c 463f 7d08 8d3f 4f2a c93e
000003a0: 0590 3f3d 97ba 863f 2467 e9be d565 d93f
000003b0: bf6e 55bf f861 f5bd 29c5 963e 95bd 91be
000003c0: 7de6 543f 7426 883f d879 36bf 8eb6 b23f
000003d0: 178d 91bf 6d28 203f b4f2 ec3f f411 ed3e
000003e0: db2b fbbe 71c4 00c0 176b 94bf 08dc 73bf
000003f0: 5eca aebf 5f84 0cbf fc42 903f ce7b da3f
7.759456 -2.2147217 -0.66397464 -6.8075843 -0.64768046 -2.6129925 -7.4762607 -7.328049
-0.042235 2.4740443 11.369443 -3.897105 2.3179672 1.6095111 0.19530861 -0.16112927
-3.5388327 0.72859174 -1.0670489 -0.21284832 1.035986 -0.4110502 -1.1843681 -0.23709553
-1.5069503 0.98428786 -0.34216976 1.8555657 0.36029822 -0.018238658 2.6904116 0.8663746
0.0024884897 -1.5504407 1.7843635 -0.16919006 2.5257163 -0.13641499 -2.920535 0.1746083
-4.0387926 -0.98326796 0.80594456 2.300673 -0.56085545 0.26008886 -0.34247094 -0.097096354
1.0360053 -0.05901307 -0.4039691 0.21749344 -0.95551336 0.61792165 0.07061026 0.3394813
-1.3976611 -0.21663468 -0.20566624 -0.48942128 -0.11173284 -2.2248328 -6.5478125 -4.097607
-2.2912564 -0.9121962 4.0865507 -3.4481328 -1.3427732 -1.2267636 -3.7380307 -1.3611784
-1.2824615 1.6581949 -5.0524464 1.8444705 1.5179092 1.3481613 -0.8823087 3.8439975
-2.9597702 -1.516193 -1.7231565 -0.24625571 1.9021167 -1.6580882 -1.8512126 2.11636
-0.15566191 -1.9208373 1.234397 -0.8974554 0.06501818 1.4544842 0.28285643 -0.8861596
-0.2456165 1.9917903 -0.5865329 0.5498174 1.5144743 -0.34334108 0.44046357 -0.19790356
1.2029078 0.54770714 2.3723402 -0.45439154 1.5264801 0.8977039 0.69501376 0.37706554
-0.82911587 1.6351962 -1.2069384 -0.96615624 1.0597627 1.1461371 1.136288 1.1248099
2.2103887 0.9104402 -0.3047575 -1.9033483 -1.0983194 0.4171466 -1.071625 -0.04524136
-1.2917358 0.6815838 0.8548256 0.11534164 -0.30902743 0.14905635 0.2891174 2.3653347
-0.75227183 -2.5319023 -5.0952654 -3.2916434 0.79313606 -3.0691605 -6.353579 4.0926414
-2.807443 1.3378681 1.4661517 5.1427064 2.093114 2.7681317 -0.10207292 -1.5726966
1.2544351 -4.5155897 -2.3634484 1.608909 -0.08484446 -0.2860509 0.16546091 -2.4396963
0.13967049 1.4833952 0.42478868 1.992417 1.9872609 1.335244 -0.20296516 0.2669754
-1.7207958 0.3348383 1.0664891 -0.7540825 0.89407766 0.7653023 0.23262782 2.2692423
-0.9513175 0.055789623 -0.2965767 1.0240706 8.635791 2.4932163 -1.2494066 1.6453823
-0.12660982 1.521451 1.3204335 5.549589 -2.9374945 -3.7513626 0.5907303 6.077338
7.451604 -0.9078382 4.13049 -0.22648722 2.5494494 -0.35800397 -2.3002813 3.9929154
-7.0539074 -3.4591587 -11.002709 -0.17328274 1.7789282 -1.322079 -10.718803 3.6213348
0.88479644 -3.365031 -1.3196174 -0.8739973 -1.2982434 -0.75528115 -0.5456816 -0.58089775
-0.8442555 -1.5970548 0.7268779 0.7742025 0.7484502 -1.9458243 0.41578346 -0.43015486
-6.6355504e-05 1.3668607 -0.80946624 -0.21361482 -2.3590987 0.7736213 1.1018215 0.3929009
0.046768207 1.0525693 -0.45586503 1.6984202 -0.8337211 -0.11981577 0.29447296 -0.28464952
0.831642 1.0636735 -0.7127967 1.3961961 -1.1371182 0.62561685 1.8511567 0.4630276
-0.49056897 -2.0119898 -1.1595181 -0.95257616 -1.3655508 -0.5488948 1.1270442 1.7069032

gru.bias_ih_l1 f4 [45]
00000000: 685c 953f ed2b 8cbf db18 e1bd e1ab e4bf
00000010: 1e3c 08bf 65b6 5ebd da4e 6b3d dd78 2cc0
00000020: 547d 1bbf 1574 72bf 4bd6 9dbf cf26 0c3f
00000030: 565f 8b3f 6eee 96bf bfc6 ddbf 1b2c 2340
00000040: b3b5 923f 71f3 823f aeb4 b53f 8cad bfbe
00000050: ae05 263e 7dc5 173f f272 d0bf 40f5 c53f
00000060: 9b71 dfbf b627 a63f cc43 4d3e 2fd2 f73f
00000070: b630 65c0 78c2 bbbe 62f7 19bb 0252 19bf
00000080: 3a90 7fbf a1a7 503e 914c 8d3e d6d4 20be
00000090: c623 38be 1456 973c 1b9a 39be 7911 2cbe
000000a0: 3316 323e f794 f1bd 72e8 7c3f abf1 f43e
000000b0: 9aee 0abc
1.1668825 -1.0950905 -0.10991069 -1.7864953 -0.5321673 -0.054373164 0.057448246 -2.694877
-0.6073811 -0.9470838 -1.2331022 0.5474672 1.0888469 -1.1791513 -1.7326277 2.549567
1.14617 1.0230542 1.4195764 -0.37437093 0.16213104 0.5928572 -1.6285079 1.5465469
-1.7456545 1.2980869 0.20045394 1.9361018 -3.581098 -0.36671805 -0.00234934 -0.5989076
-0.9982945 0.20376445 0.27597478 -0.1570619 -0.17982396 0.018473662 -0.18125193 -0.1680354
0.17391281 -0.11795991 0.98792183 0.47840628 -0.008479739

gru.bias_hh_l1 f4 [45]
00000000: a0ca 993f f06e 9fbf 6ee2 97bd b070 f1bf
00000010: 45ad d9be a627 96bd f5e7 3cbe 40c7 2fc0
00000020: 349b c5be f3f4 25bf b52c c0bf 43f4 e43e
00000030: 1b6d 7f3f 47b7 95bf 1913 cabf cc69 1f40
00000040: 3c7a 923f 5fb1 853f 270d a03f a405 d2be
00000050: cb2f eb3e d582 773f ff35 f2bf 280d b83f
00000060: 0572 dfbf beaa bc3f 09d7 b73d 6938 0840
00000070: 5c24 67c0 1ec2 ebbe e157 7cbf d520 44bf
00000080: 900f 01bf f3a3 523f ef12 49bd 6ab3 9ebf
00000090: 1b2b a9bd 3ea6 06bf f0d8 f5be df10 2d3e
000000a0: 773d f13d 82ca 3abf 7dca c8bf a559 573f
000000b0: b738 1f3e
1.2014961 -1.245573 -0.07416235 -1.8862514 -0.42515007 -0.07331781 -0.1844786 -2.7465363
-0.38594973 -0.6482689 -1.5013644 0.44717607 0.99775857 -1.1696557 -1.5787078 2.4908323
1.1443553 1.0444754 1.2504014 -0.41019928 0.459349 0.9668401 -1.8922728 1.4379015
-1.7456671 1.4739606 0.089765616 2.128443 -3.6115942 -0.46046537 -0.9857159 -0.766126
-0.5041437 0.82281417 -0.049090322 -1.2398503 -0.08260175 -0.52597415 -0.48017073 0.16900967
0.117793016 -0.7296525 -1.5686795 0.8412116 0.15548979

fc.weight f4 [25, 15]
00000000: e31c c3c0 73dd 6a40 4dc9 2741 eb33 4841
00000010: b968 c3c0 59bb b540 90fe 17c0 bf3d d440
00000020: 1ce8 1641 4b2c 16be c3dd cec0 4363 32c0
00000030: 7179 d5c0 9a0a 273e dcd1 9c40 1d69 32c0
00000040: edf2 bd3d ec2e 3e40 4cb1 cf40 2c3b 58c0
00000050: 7095 4440 4592 92bf f0a4 a440 5d61 ba40
00000060: 3aec 2d3f 4b32 3ec0 5920 91bf 7e79 af3f
00000070: 475e 003e 7bab 363f 9608 b23f 6908 efbf
00000080: a50d 7bc0 3607 57bf aa5e ac3f 4e0f 1abf
00000090: b888 8fbd b6c3 913f 0099 8ebd b727 023f
000000a0: d43c b53f e55e eebf e466 7540 8906 a73f
000000b0: 2cc0 ebbf ee48 153f 2acd 373f 6b96 bdbf
000000c0: 25dd b8c0 3375 ec3f d6a2 11c0 1355 44bf
000000d0: 64e7 18c0 2aed 89c0 2212 83c0 fe95 dc40
000000e0: 8fd5 94be 2430 0fc0 c124 e3bb 8f84 44bf
000000f0: deca 0dc0 7e0d ce40 4862 2240 af7c dfc0
00000100: 9d3a 833f 8974 14c0 09e6 fdbf 949f a0c0
00000110: 0460 a4c0 8ee9 12c1 50ed 1541 3456 4140
00000120: dbd8 3ac1 5742 d1bf bc68 12bf b200 39c1
00000130: 0cf2 4940 3b9c 7741 402b 473e 428a c640
00000140: bad0 ce40 9e73 4640 1220 44c0 cf04 5740
00000150: 06a7 5a3f 055d 00c0 77c4 8d41 c98e cfc0
00000160: 2f9b c73f 5c84 aa3f 2794 62c0 e55d 85bd
00000170: 1ae7 cd40 6218 833e 391b 2340 0198 3040
00000180: 1da9 d03f ff70 6bc0 fb55 863f 3aef 0f3f
00000190: d735 0dc0 158d 1141 095f 4240 cd4d 0b40
000001a0: 3a66 24bf 546f 2440 0a9c 13c0 d3b3 0ac0
000001b0: 13f2 c8be a4df 943f ac7a 1cbf 8d2c 9cbd
000001c0: 0144 6cc0 f367 12c0 db00 15bf afdd 38bf
000001d0: d020 aabf d0bb f340 9835 083f f897 5fbf
000001e0: 8e37 843e ef63 5740 935e 5fc0 a994 3f3f
000001f0: d913 c7bf 75de 15c0 cb11 35c0 c66f 1440
00000200: fa3e edbf 22fd 90c0 373f b740 206c 96c0
00000210: 3ecb 2340 daf0 11c0 7818 a73f d2f2 9ec0
00000220: 35b0 2641 ff88 06bf d148 5040 a8a5 8ac0
00000230: b624 03c0 1e4d 81c0 4401 f440 9dfc d13f
00000240: 6867 0ec1 d081 2941 7955 aac0 3b7a c5c0
00000250: cd28 a0c0 9104 d43f 556e 29c1 3f20 0440
00000260: 0f65 0441 abbd 1941 f426 2dc0 030d 7d40
00000270: 6334 9cc0 cec6 a23f c8c1 c7be 1c55 8ebf
00000280: aeee e03f 41da 2741 5f34 92c0 96f2 9e3f
00000290: 1b38 30c1 5ce6 5ac0 25a4 05be 4404 df3f
000002a0: 1264 8d40 3881 38be 98d5 d23f d401 a8bf
000002b0: 36ea 23be bc80 b3be e562 91be 919a 64bf
000002c0: 3eb2 a140 f93f 4140 c8bc 1940 6b3b e0c0
000002d0: 6bd0 0540 e411 efbf 38c8 73c0 c624 cdbf
000002e0: 381f 0d40 1d3d 3ebf fd09 3f3f 8509 b6bf
000002f0: 3fb4 91bf 118f 133f 1b8f 5ebf edec 02c0
00000300: 6754 d040 c90c f43f c9e4 d4bd f456 54bf
00000310: bd31 e53f 7d57 08c0 0761 72c0 313e b23f
00000320: 5563 eabf 80d6 d43f d69f 793f 1996 42bf
00000330: 7875 aabf 90f1 423f 4398 64c0 6c39 2540
00000340: 1e4c 0fbf 4e7d 2341 05e5 77c0 2fc8 b740
00000350: 7f1a b53f 540b b5c0 7504 5c3f f7f6 b9bf
00000360: 5cf0 4340 3b4e 5740 72ed 473f 5aed 62c0
00000370: 5f3b fd3f 9b43 8ac0 50a6 54c0 a206 fabf
00000380: 0158 8d41 ea52 1dc1 8f47 97be 56ab 4141
00000390: fff4 3ac1 3ad3 80c0 3c29 9440 fb19 2dc1
000003a0: 2af2 f040 e8f3 2840 217e 89c0 4812 ebc0
000003b0: 53af 9840 fd16 3bc1 603b 5a40 a83a e43f
000003c0: 54d6 67c0 00d9 acbf 6515 9a40 fce1 e1c0
000003d0: 75c6 08bf 5c9e 2e40 a7a3 a8c0 f829 b740
000003e0: f2ad c13d 3108 0ebf f438 aac0 0c99 4f40
000003f0: 3299 f6bf be62 893f 41ed 7cbf ab77 0c40
-6.097276 3.6697662 10.486646 12.512675 -6.1065335 5.6791196 -2.3749123 6.6325374
9.431667 -0.14665334 -6.4645705 -2.7873085 -6.6710744 0.16312638 4.9006176 -2.7876656
0.0927485 2.971614 6.4903927 -3.3786116 3.071621 -1.1450888 5.145134 5.824385
0.6793858 -2.9718196 -1.1337997 1.3708951 0.12535964 0.7135541 1.390887 -1.8674442
-3.9227078 -0.8399538 1.3466389 -0.60179603 -0.07008499 1.1387851 -0.06962776 0.5084185
1.4159188 -1.862271 3.834405 1.3048869 -1.8418021 0.58314407 0.7179743 -1.4811529
-5.776995 1.8473266 -2.2755637 -0.7669231 -2.389123 -4.3102007 -4.0959635 6.8933096
-0.29069182 -2.2373133 -0.0069318716 -0.7676477 -2.215507 6.439147 2.5372486 -6.98397
1.0252262 -2.3196127 -1.9835826 -5.0194798 -5.1367207 -9.18202 9.370438 3.0208864
-11.677943 -1.634837 -0.5719106 -11.56267 3.1553984 15.475642 0.19450092 6.204377
6.4629793 3.1008067 -3.0644574 3.3596685 0.8541111 -2.0056775 17.72093 -6.48618
1.5594233 1.3321643 -3.5402925 -0.065120496 6.4344606 0.2560454 2.5485365 2.7592776
1.6301609 -3.6787717 1.0494989 0.56224406 -2.2064111 9.096944 3.0370505 2.1766236
-0.64218485 2.569295 -2.3063989 -2.1672256 -0.39247188 1.163075 -0.6112468 -0.07625685
-3.6916506 -2.2875946 -0.5820443 -0.7221326 -1.3291264 7.6166763 0.5320678 -0.8734126
0.25823635 3.3654745 -3.4901474 0.7483621 -1.5552932 -2.3417027 -2.829211 2.319322
-1.8534844 -4.5309 5.7264667 -4.700699 2.55928 -2.2803254 1.3054342 -4.967141
10.418019 -0.5255279 3.2544444 -4.3327217 -2.0491157 -4.0406637 7.6251545 1.6405216
-8.900246 10.5941925 -5.3229337 -6.1711707 -5.0049806 1.6563894 -10.589437 2.0644681
8.2746725 9.608806 -2.7055025 3.9539192 -4.881395 1.271692 -0.3901503 -1.1119723
1.7572839 10.490785 -4.568893 1.2417781 -11.013698 -3.42031 -0.13050897 1.7423177
4.4184656 -0.18018043 1.6471434 -1.3125558 -0.16007313 -0.35059154 -0.28395763 -0.8929835
5.053008 3.0195296 2.4021473 -7.007253 2.0908458 -1.8677335 -3.8090954 -1.6026847
2.2050304 -0.74312 0.74624616 -1.4221655 -1.1383132 0.57640177 -0.8693711 -2.0457108
6.510303 1.9066402 -0.103952 -0.8294518 1.7905804 -2.1303399 -3.787172 1.3925229
-1.8311564 1.662796 0.97509515 -0.7601028 -1.3317099 0.76149845 -3.5717933 2.5816298
-0.5597552 10.218092 -3.8733532 5.7431865 1.4148711 -5.657633 0.859443 -1.4528493
3.0615454 3.3641498 0.7809669 -3.5457368 1.9783744 -4.3207526 -3.322651 -1.9533274
17.66797 -9.832743 -0.29546782 12.10433 -11.6848135 -4.0257845 4.6300335 -10.818843
7.529561 2.6398869 -4.2966466 -7.3459816 4.771402 -11.693112 3.409874 1.78304
-3.6224566 -1.3503723 4.8151116 -7.058836 -0.5342782 2.7284155 -5.269977 5.723873
0.094570056 -0.5548125 -5.3194523 3.2437162 -1.9265501 1.0733259 -0.9879952 2.194804

fc.bias f4 [25]
00000000: ad42 63c0 6401 543e f57d af3f 38a3 2f3f
00000010: b0de f0bc e5bc 15c0 d059 0d3f cd4f f03f
00000020: eba9 70bc aaf1 92bf 44fd 0ec0 b588 0c3f
00000030: 5da2 0f40 5e6d de3f 6ee9 59bf 156c c9c0
00000040: 9e06 cabe 3213 2640 88d6 fb3f 0074 41c0
00000050: 43cd 58c0 153c d03f 8810 5940 38a7 3c3e
00000060: fdaf b2c0
-3.5509446 0.20703655 1.3710314 0.6860843 -0.02940306 -2.3396542 0.5521517 1.8774353
-0.014688949 -1.148 -2.234208 0.548961 2.2442849 1.7377126 -0.8512181 -6.2944436
-0.39458174 2.5949216 1.9674845 -3.022705 -3.3875282 1.6268336 3.391634 0.18423164
-5.583983
