models/SSD-10-hidden-1-input-2-layer-2-disc.pth (torch, 7135 bytes, 10 tensors)

gru.weight_ih_l0 f4 [30, 1]
0	0x40d513ad	6.658652
1	0x3ef51f71	0.4787555
2	0xc139e9ba	-11.619562
3	0xc1152bb1	-9.323167
4	0x3ff97ccf	1.9491214
5	0xc0d54017	-6.6640735
6	0x4122c243	10.172427
7	0xc11d8ef8	-9.8474045
8	0xc11023ab	-9.008708
9	0xc0bb2af9	-5.8489957
10	0xc11ccd4e	-9.800123
11	0xc1ce170e	-25.761257
12	0x40425a98	3.0367794
13	0x3f27c1bb	0.65529984
14	0x3e89ef97	0.26940605
15	0xc0b8482d	-5.7588105
16	0xc0936697	-4.606273
17	0x40b8ad77	5.771175
18	0x40d1b233	6.553003
19	0x3f781fb1	0.9692336
20	0x40f55d32	7.6676264
21	0xc087d36f	-4.24456
22	0xc051e620	-3.2796707
23	0x40b9be9d	5.804518
24	0x4178a7b2	15.540941
25	0x40a6e798	5.2157707
26	0x404b4f06	3.1766982
27	0x403439d3	2.8160293
28	0xc08f1afe	-4.472045
29	0xbfbc2c8a	-1.4701092

gru.weight_hh_l0 f4 [30, 10]
0	0x3d29386c	0.041313574
1	0x3b8e702b	0.0043468676
2	0xbf49ba21	-0.78799635
3	0x3f50fb8f	0.8163385
4	0xbf9b1da0	-1.2118416
5	0x3e9b1d21	0.3029566
6	0x3f5a701c	0.85327315
7	0xbe83836c	-0.25686204
8	0xc0235356	-2.5519614
9	0x3f599b85	0.8500293
10	0xbe1e3eda	-0.15453663
11	0x3f8dc43a	1.1075509
12	0xbdbc30a1	-0.09188963
13	0xbf2f1cd4	-0.68403363
14	0x3d257f3b	0.04040454
15	0x3c4914eb	0.012273054
16	0xbf2541e3	-0.6455366
17	0x3f146012	0.5795909
18	0x3e123fc8	0.14282143
19	0xbe090e8d	-0.13384457
20	0x3e631fb7	0.22180067
21	0xbf8f1b29	-1.1180164
22	0xc00e1889	-2.2202475
23	0xbfb788a7	-1.4338578
24	0x3e9f894d	0.3115944
25	0x3ef12af9	0.47103098
26	0x4003b8b5	2.0581486
27	0x401b6611	2.4281046
28	0x400671db	2.1006992
29	0xbf87d1c8	-1.0610895
30	0xbfffce3f	-1.9984816
31	0xbd29a930	-0.041421115
32	0x3eb4189b	0.35175022
33	0xbe82a429	-0.2551587
34	0xbe497c71	-0.19676377
35	0xbfc05540	-1.5026016
36	0x3f8fd63f	1.1237258
37	0x3effa1fa	0.49928266
38	0x3ee9dfa2	0.4567843
39	0xbf2a754c	-0.6658523
40	0x3f3d2857	0.7388968
41	0x3dd68a91	0.10475648
42	0xbbf8d00d	-0.007593161
43	0x3e2a25e3	0.16616015
44	0xbd5b0fc2	-0.053481825
45	0x3d4e4899	0.050362203
46	0x3e52af34	0.20574647
47	0xbf1265e3	-0.57186717
48	0xbdbec495	-0.09314839
49	0x3e870a95	0.2637526
50	0x3ee9b20f	0.4564366
51	0x40801d06	4.003543
52	0xbf1ab690	-0.6043482
53	0x400409ae	2.0630908
54	0x4009c8be	2.1528773
55	0x404ed11e	3.2315135
56	0x4019ac43	2.401139
57	0x3f827be5	1.019406
58	0x3ffa6549	1.956216
59	0x403c5ace	2.9430423
60	0xc010f0fe	-2.264709
61	0x4055c9e5	3.3404477
62	0x403b25f5	2.9241917
63	0x3fc20bb3	1.515982
64	0xbf9d50c5	-1.2290274
65	0x3fb286ad	1.394735
66	0xc08fd121	-4.4942784
67	0xbf8d9699	-1.1061584
68	0xbe4e2000	-0.20129395
69	0xbfe03b56	-1.7518108
70	0xbfa1e180	-1.2646942
71	0x3f772af6	0.9654993
72	0xbe5d585d	-0.21615739
73	0xbf98b9fd	-1.1931759
74	0xc082fd52	-4.093423
75	0xbfc02890	-1.5012379
76	0x40145c3d	2.3181298
77	0xbe99b995	-0.300244
78	0xbfe49a6f	-1.7859629
79	0xbf2a7023	-0.6657736
80	0xc010ad4a	-2.2605767
81	0x3ff194b8	1.887351
82	0xbf9870ed	-1.1909462
83	0x3f2ee6df	0.6832103
84	0xc02142c2	-2.5196996
85	0x403659fa	2.8492417
86	0x3f7f675b	0.9976708
87	0x3ef09fa5	0.469968
88	0x3f667f0a	0.90037596
89	0xbff61239	-1.9224311
90	0x3c6ec3b2	0.014573025
91	0x3fad5edb	1.3544573
92	0x3e27c074	0.16382009
93	0xbf65a934	-0.8971131
94	0x3f252206	0.6450504
95	0xbeeedf1b	-0.4665459
96	0x3dadc9be	0.08485745
97	0xbe558ac3	-0.20853715
98	0xbe078285	-0.13233383
99	0x3f304913	0.688615
100	0xc11611bf	-9.379333
101	0x40c61e27	6.1911807
102	0xbe4bc751	-0.19900252
103	0x40bc55b4	5.885462
104	0xc0168243	-2.3517005
105	0x3f561fb3	0.8364212
106	0x4122e618	10.181175
107	0xbe05de82	-0.13073161
108	0xc01252aa	-2.2862954
109	0xbf4cd259	-0.80008465
110	0x3dacba2b	0.08433946
111	0x405538f5	3.3316014
112	0x3fb87b84	1.4412694
113	0xc077ccf9	-3.8718855
114	0xc0aae72e	-5.34072
115	0xc00fbbc5	-2.2458355
116	0x402b5024	2.6767664
117	0xbf4b5c04	-0.7943728
118	0xc015cd91	-2.3406718
119	0xbf8f137b	-1.117782
120	0xc0b5de75	-5.6834054
121	0xbd07d6c6	-0.03316381
122	0xc018c55c	-2.3870459
123	0x3fdf6c7d	1.7454983
124	0xbfb58ce4	-1.4183621
125	0xbf39aac4	-0.7252619
126	0x40c85cb2	6.2613153
127	0x3ee48ca9	0.44638565
128	0x407ec5e7	3.980829
129	0x403bd4b9	2.9348586
130	0xbe9c2c8e	-0.30502743
131	0x3f8abc2d	1.0838677
132	0xbefa04b8	-0.48831725
133	0x3fe6ac93	1.8021415
134	0x3f8d7eb9	1.1054298
135	0x3fcad128	1.584508
136	0x3edd92f5	0.43276182
137	0xbf76c1df	-0.96389574
138	0xc008b74f	-2.1361883
139	0x3f84c35d	1.037212
140	0xbf4b81cd	-0.79494935
141	0x3ea2a4a6	0.31766242
142	0xbe11dfa2	-0.14245465
143	0x3ed97ba5	0.42477146
144	0xbf80b553	-1.0055336
145	0x4068e2c5	3.638841
146	0x403f6d86	2.9910598
147	0x3e975b0d	0.29561654
148	0xbf013a9a	-0.50480044
149	0x3f779977	0.96718544
150	0xbfb53dea	-1.415952
151	0x3f3153c5	0.6926845
152	0xbeb21d93	-0.34788188
153	0xbebb0f78	-0.3653524
154	0xbf890b4f	-1.0706576
155	0xbe056e25	-0.13030298
156	0x4037ce80	2.8719788
157	0x3f0257ad	0.5091503
158	0xbfa9a2f5	-1.3252856
159	0x3fcd8bdd	1.6058308
160	0xbf865061	-1.049328
161	0xbe177770	-0.14791656
162	0x3f5c02eb	0.8594195
163	0x3f99a469	1.2003299
164	0xc03a6dc8	-2.9129505
165	0xbf6738e3	-0.9032118
166	0xc02ae1d8	-2.6700344
167	0xc001ed4e	-2.030109
168	0xbd002d5f	-0.03129327
169	0x3f0e80d8	0.5566535
170	0x3de08228	0.10962325
171	0x3fa0b328	1.2554674
172	0xbe790188	-0.2431699
173	0x400617cc	2.0952024
174	0xbf79a25f	-0.97513384
175	0x41156391	9.336808
176	0x40611b5a	3.5172944
177	0x4126ba71	10.420518
178	0xbf290cfb	-0.6603543
179	0x3f881864	1.0632443
180	0xbf9ad8d1	-1.2097417
181	0xbfb209fb	-1.3909296
182	0x3ed95420	0.42446995
183	0x4065c188	3.5899372
184	0xbe87d009	-0.26525906
185	0x3f6a7c0d	0.91595536
186	0x3ff8412f	1.9394892
187	0x3ef3ec65	0.47641292
188	0xc001b6d0	-2.026783
189	0x3f551f59	0.8325096
190	0x3e93af5d	0.2884473
191	0xbe210393	-0.1572402
192	0xbf1bec5c	-0.6090753
193	0xbf6f33ba	-0.93438303
194	0xbf63d51c	-0.88997054
195	0xbe10e304	-0.141491
196	0x3f847cd9	1.03506
197	0xbf7909fb	-0.97280854
198	0xbfa2c385	-1.2715918
199	0x3feef187	1.8667458
200	0xbee49088	-0.4464152
201	0xc02153a6	-2.5207305
202	0xbfac0f94	-1.3442254
203	0x3e1bc65e	0.1521239
204	0xc07bc671	-3.933987
205	0xc018fabf	-2.3903043
206	0xbe7e320f	-0.24823783
207	0x40c06e42	6.013459
208	0x408de6a8	4.4344063
209	0xbfbffa0e	-1.4998186
210	0x3efeaa61	0.49739364
211	0xc09f67ec	-4.981436
212	0xbfbf0cab	-1.4925741
213	0x3f9fd2b5	1.2486178
214	0xc050841b	-3.258063
215	0xbf25d41d	-0.64776784
216	0xbf23e262	-0.6401731
217	0x3fdd0b84	1.7269139
218	0xc04f0038	-3.2343884
219	0x40155291	2.3331645
220	0x3dadf5ae	0.08494125
221	0x3ce3caa6	0.027806591
222	0xbde6f1b1	-0.11276568
223	0x3f1c2d2a	0.61006415
224	0xbfb39c72	-1.4032118
225	0x3eff45fb	0.49858078
226	0xbf6b6527	-0.9195122
227	0xbea03bcf	-0.3129563
228	0xbf2e7648	-0.6814923
229	0xbfeb97d8	-1.8405714
230	0x41122232	9.133348
231	0x406d110e	3.704166
232	0xc0cd199d	-6.4093766
233	0x4056ba61	3.3551257
234	0x402b09e0	2.6724777
235	0x3f6eea02	0.9332582
236	0x3fef94b7	1.8717259
237	0x4041d0c5	3.0283673
238	0x3e85b0ab	0.2611135
239	0x403b2271	2.9239771
240	0x40c90272	6.2815485
241	0xc02f03ec	-2.7346144
242	0xbf0cd0a1	-0.5500584
243	0x3fbde7be	1.4836347
244	0x40ea1953	7.3155913
245	0x400e72e8	2.2257633
246	0xbf180eed	-0.59397775
247	0xbffbd38a	-1.9673932
248	0xbfd0f5ad	-1.6324974
249	0xbd03d42f	-0.032184776
250	0xbd18c34f	-0.037295636
251	0xbf2c2547	-0.6724438
252	0x3fc1c1e6	1.5137298
253	0x40005e7d	2.005767
254	0xc047df16	-3.122991
255	0xbd79ccf3	-0.06098647

gru.bias_ih_l0 f4 [30]
0	0xbfc49870	-1.535902
1	0xbf52bdb0	-0.8232069
2	0xbecabf3d	-0.39599028
3	0xbfbf53b9	-1.4947425
4	0xbfb930d1	-1.4468023
5	0xbf91ccd4	-1.1390634
6	0x3f850159	1.0391036
7	0xbf97e0e8	-1.1865511
8	0xbf05ceb1	-0.5226851
9	0xbe4d1d24	-0.20030648
10	0xc0abf366	-5.3734617
11	0xc0603357	-3.5031335
12	0xc02332ec	-2.549983
13	0x3ec25a75	0.37959638
14	0x3ec4271a	0.38311082
15	0xbf0a7182	-0.5407945
16	0x3fb2c64d	1.3966767
17	0xc05fe321	-3.4982378
18	0xbccc4ed0	-0.024939924
19	0xbf1a2552	-0.60213196
20	0x3e1fb7fa	0.15597525
21	0x3e05dab5	0.13071711
22	0x3df6e15f	0.12054705
23	0xbc36cade	-0.011156766
24	0xbd5359e8	-0.051599413
25	0xbed03361	-0.406642
26	0x3e04caaa	0.12967935
27	0xbe4f1656	-0.20223364
28	0xbe40fc9a	-0.1884636
29	0xbdaa2b79	-0.08309073

gru.bias_hh_l0 f4 [30]
0	0xbff993b6	-1.9498203
1	0xbf7bf5d2	-0.9842197
2	0xbda2b0a9	-0.079438515
3	0xbfe88056	-1.8164165
4	0xbf814e78	-1.0102072
5	0xbf84ae98	-1.0365782
6	0x3f62353f	0.883625
7	0xbfc1a808	-1.5129404
8	0xbf65b318	-0.897264
9	0xbe806405	-0.2507631
10	0xc0b8d2b8	-5.7757225
11	0xc0586b0f	-3.3815343
12	0xc01306e6	-2.297296
13	0x3e503e73	0.20336322
14	0x3ebc9759	0.3683422
15	0xbdc158f6	-0.09440796
16	0x3fc6a6c5	1.5519644
17	0xc0536b67	-3.3034303
18	0x3e216d4c	0.1576435
19	0xbee24fdd	-0.44201556
20	0xbf7494e4	-0.9553969
21	0xbf383f1e	-0.7197131
22	0xbd5d056a	-0.05396024
23	0x3fbaa388	1.4581156
24	0x3ea7197e	0.32636636
25	0x3f36ff63	0.7148344
26	0xbfa3c618	-1.2794828
27	0x3f2542c0	0.6455498
28	0x3f0ce5ec	0.5503833
29	0x3dc4c5d4	0.09608045

gru.weight_ih_l1 f4 [30, 10]
0	0x40eb852d	7.360007
1	0xc034d123	-2.8252647
2	0xbf90e855	-1.1320902
3	0xc04b12bb	-3.1730182
4	0x3f527669	0.8221193
5	0xbee4669c	-0.44609535
6	0x3fce607a	1.6123192
7	0x40d53a51	6.6633687
8	0xc004fa53	-2.0777786
9	0x3f526c98	0.8219695
10	0x405cf7dd	3.4526284
11	0xbf4b08bc	-0.793102
12	0x3f30c013	0.6904308
13	0xc023e2f7	-2.5607278
14	0x3fafb327	1.3726548
15	0x40bb379f	5.8505397
16	0xbf93f598	-1.1559324
17	0x3f625201	0.8840638
18	0xbe95bd3e	-0.29245943
19	0x3f846658	1.0343733
20	0xc1126328	-9.149208
21	0x40dce4f7	6.90295
22	0x41329044	11.160221
23	0x40c5d83b	6.1826453
24	0xc158c10c	-13.547131
25	0x3fa6f5b0	1.3043728
26	0x3f4b30ee	0.79371536
27	0xc104b4c6	-8.294134
28	0x418a8284	17.313728
29	0x40f31142	7.5958567
30	0x41116ad8	9.088585
31	0xc14d3b03	-12.826907
32	0xc0ec8894	-7.391672
33	0x40cff3b8	6.498501
34	0xc10f2903	-8.947513
35	0xc1521fa3	-13.132724
36	0xc18ea730	-17.831635
37	0x3fd4ec46	1.6634605
38	0x3ea06d26	0.31333274
39	0x4082f828	4.0927925
40	0x3f115bc0	0.56780624
41	0xc08a3e6d	-4.3201203
42	0x405f4246	3.48842
43	0x3fd4250f	1.6573809
44	0x3fb45dec	1.4091163
45	0xc094dd4f	-4.652015
46	0xc0aad6a9	-5.3387036
47	0x40b0686f	5.5127482
48	0x40b39780	5.6122437
49	0x40a61abc	5.1907635
50	0xbfe8b35a	-1.8179734
51	0xbfff09eb	-1.9924902
52	0xbf930211	-1.1485006
53	0xbf7bf438	-0.98419523
54	0x405690ab	3.3525798
55	0x409556da	4.666852
56	0x4033f57e	2.8118587
57	0xbf512e16	-0.81710947
58	0xc07ead07	-3.9793108
59	0x3e70715a	0.2348074
60	0x409dd4d7	4.9322314
61	0xbe9e398a	-0.30903274
62	0x3dc7901c	0.097442836
63	0x3fbc48c3	1.4709705
64	0x3e62c11c	0.22143978
65	0xc089fce4	-4.3121204
66	0x3fb4efa3	1.4135631
67	0x3ea391f3	0.31947288
68	0xbf373aab	-0.71573895
69	0x3f9da0c7	1.231469
70	0x3f7fca79	0.99918324
71	0x3e65fa47	0.22458754
72	0xbf5af78b	-0.8553397
73	0xbf608e41	-0.8771706
74	0x3f5ca6c7	0.8619198
75	0xc051e348	-3.2794971
76	0x3ea63c7c	0.3246802
77	0xbff6980b	-1.926515
78	0xbee09a0c	-0.43867528
79	0x3fbea76d	1.4894844
80	0x3fb28b6d	1.3948799
81	0x409b3699	4.8504148
82	0xbfc08ce9	-1.5043002
83	0xc0d9bd17	-6.8043323
84	0xc068efed	-3.639644
85	0x40ec5e9e	7.38655
86	0xc108fecf	-8.562209
87	0x3f90b609	1.1305553
88	0xbfdf13f0	-1.742796
89	0x3eb9cb96	0.36288136
90	0x3f92dee6	1.1474273
91	0xbf62b174	-0.8855202
92	0xc02abc48	-2.6677418
93	0x40706932	3.7564206
94	0x40a2b6c8	5.084812
95	0x407354c8	3.8020496
96	0x40116dfa	2.2723374
97	0xbcd17b67	-0.025571538
98	0xbfcaec71	-1.5853406
99	0x405cd5be	3.4505458
100	0xc034d4d5	-2.8254902
101	0x401029a9	2.2525427
102	0xbe0a9015	-0.13531525
103	0x40de2772	6.942315
104	0x407903e0	3.8908615
105	0x4085b860	4.1787567
106	0x404d4a96	3.2076774
107	0x3fc18c16	1.5120876
108	0xbe9a4e9f	-0.30138108
109	0xc104fec0	-8.312195
110	0x40368571	2.8518946
111	0x3f24d22b	0.6438319
112	0x4014f091	2.327183
113	0xbfaca6b0	-1.3488369
114	0xbe1cfd6a	-0.15331045
115	0xbfa0a681	-1.2550813
116	0xbf3e12f1	-0.7424765
117	0x3f6f450d	0.9346474
118	0x400a1016	2.1572318
119	0xbfd97ba8	-1.6990862
120	0x3ecb160f	0.39665267
121	0xbf9f2309	-1.2432567
122	0xbfb0beb5	-1.3808199
123	0x3eb00f0e	0.34386486
124	0x3dc162cf	0.09442674
125	0x400a2213	2.1583297
126	0xc0708a94	-3.7584581
127	0xbedb2277	-0.42799732
128	0xbfabc00d	-1.3417984
129	0x3f74232f	0.95366186
130	0x3f8bb0ff	1.091339
131	0xbd0731ea	-0.033006586
132	0xbf9631fe	-1.1734006
133	0xbfdfc8ac	-1.7483115
134	0xbd5b3cf8	-0.05352494
135	0xbe708379	-0.23487653
136	0x40084797	2.1293695
137	0xbeaaee81	-0.3338509
138	0x3fc3fd7d	1.5311733
139	0xbe92e5d5	-0.28690973
140	0x3f31fcf4	0.695266
141	0x3f1558c3	0.58338565
142	0x3f8ea609	1.114442
143	0xc07b09d6	-3.9224753
144	0xbfaf356b	-1.3688177
145	0x3fd5abc0	1.6693039
146	0x3fe7c74a	1.8107693
147	0xbef6e212	-0.48219353
148	0x3fa496ec	1.2858558
149	0xbee9b936	-0.45649117
150	0x3d0d995d	0.034570087
151	0xbf40c679	-0.75302845
152	0xbf25f47f	-0.64826196
153	0xbf963d6b	-1.1737493
154	0x3e973291	0.29530767
155	0x40483f16	3.1288505
156	0x3e8954d6	0.26822537
157	0x3f3150a2	0.6926366
158	0xbff11f1b	-1.8837618
159	0x3efaea62	0.49006945
160	0xc01285aa	-2.2894082
161	0xbe9c7df0	-0.30564833
162	0xbf3b3d42	-0.73140347
163	0xbfbfeef1	-1.4994794
164	0x3fc540da	1.5410416
165	0x41049e15	8.288594
166	0x405ccdcf	3.4500616
167	0xc04accf7	-3.16876
168	0xbcf92661	-0.030413808
169	0x401e7b0c	2.4762602
170	0x4020998e	2.5093722
171	0x403378ca	2.8042474
172	0xc01ba5b4	-2.4319887
173	0x3e42ddb4	0.19029886
174	0x3e981825	0.2970592
175	0xbf1e6808	-0.6187749
176	0x3cc78746	0.024356496
177	0x3f8ef928	1.1169786
178	0xc03a352c	-2.9094954
179	0x4043d0b2	3.0596128
180	0xc0881f5f	-4.2538295
181	0xc0b15411	-5.541512
182	0xbf037bf4	-0.5136101
183	0x40d70854	6.7197666
184	0x40179865	2.3686764
185	0xbf8a0448	-1.0782557
186	0x40ad1362	5.408616
187	0x40ae1e22	5.4411783
188	0xc0b037f2	-5.5068293
189	0x3f5d339a	0.8640686
190	0xc07cd48c	-3.9504728
191	0x3e93207c	0.2873572
192	0xbe4fca85	-0.20292099
193	0xbf97eb85	-1.186875
194	0x4051ff6d	3.281215
195	0x40384d26	2.8797088
196	0x3fc9db84	1.5770116
197	0x40544539	3.316725
198	0x3fd5d1d7	1.6704663
199	0x407d84fd	3.961242
200	0x3fc857bf	1.5651778
201	0x3eb28ffc	0.34875476
202	0xbf65b9d7	-0.89736694
203	0x3fcef76a	1.6169255
204	0x4022e327	2.5451143
205	0xbf2268eb	-0.6344134
206	0x3f0cbe3c	0.54977775
207	0xbf96261c	-1.173038
208	0xbe84b454	-0.2591883
209	0x3e0dc14e	0.13843271
210	0x403d7515	2.9602711
211	0x3f009b95	0.502374
212	0xbe16ab46	-0.14713773
213	0x3f7aa30c	0.9790504
214	0x3f4c36e6	0.7977127
215	0x3f0bfc2a	0.54681647
216	0xbf536db6	-0.8258928
217	0xbf268e06	-0.6506046
218	0xbf9c4c6b	-1.2210821
219	0x3f480f5e	0.7814845
220	0x4138215b	11.508143
221	0xbfb3e969	-1.4055606
222	0xc09a48ca	-4.8213854
223	0x401e38c3	2.4722145
224	0xc02c147e	-2.6887507
225	0xc0cf787d	-6.483458
226	0xc0a6b409	-5.209477
227	0xc07fcc5d	-3.9968483
228	0xbe9bd7a5	-0.3043796
229	0x3f64a6e2	0.8931714
230	0x3fbd90af	1.4809779
231	0x3f370c2a	0.71502936
232	0xbf162446	-0.586491
233	0xc003d973	-2.060147
234	0xbe50744c	-0.20356864
235	0x3fb9de6e	1.4521005
236	0xbf4dfc37	-0.80462974
237	0xbeddbdf3	-0.43308982
238	0x3fff10be	1.9926984
239	0xbe4e03de	-0.20118663
240	0xbfb16301	-1.3858339
241	0xc05ffe68	-3.4999027
242	0xc054105d	-3.3134987
243	0x40c0aca9	6.0210767
244	0x403a1ac9	2.9078848
245	0x40ca17a0	6.315384
246	0x412e2bce	10.8856945
247	0x40be5ca0	5.948807
248	0xbf9387fc	-1.1525874
249	0xbfec65b4	-1.8468537
250	0x3e94c653	0.2905756
251	0xbeca68ab	-0.3953298
252	0x3cea726e	0.028619017
253	0x3fd49867	1.660901
254	0x3f7b0f32	0.9807006
255	0xbf1ba283	-0.6079485

gru.weight_hh_l1 f4 [30, 10]
0	0x4039424d	2.8946717
1	0x401d0862	2.4536366
2	0x3f901538	1.1256475
3	0x4001e871	2.029812
4	0x4003e947	2.061113
5	0x4066a217	3.6036432
6	0xbfff7553	-1.995768
7	0x3ef45831	0.47723535
8	0x3f3b0ffd	0.7307127
9	0x3f318137	0.6933779
10	0x3f8f8b38	1.1214361
11	0xc029a0ec	-2.650447
12	0xbe97c378	-0.29641318
13	0xbe008e66	-0.1255432
14	0x3ac58990	0.0015070904
15	0x400ab9f6	2.1676002
16	0xbfa430b4	-1.2827363
17	0xbdbf7bb2	-0.09349765
18	0xbf58229e	-0.8442782
19	0x3fa3065e	1.2736318
20	0xc0404e95	-3.0047963
21	0x40d40f5b	6.6268744
22	0xbf2d09b4	-0.6759293
23	0x40776a1d	3.8658516
24	0x40a95d13	5.2926116
25	0x405dc537	3.465162
26	0xbf7608b0	-0.96107006
27	0xbfb7fe49	-1.4374477
28	0xc0964f2f	-4.697166
29	0x3f269b5d	0.65080816
30	0x3f9648b0	1.1740932
31	0x403a5c45	2.9118817
32	0xbf9f0ae9	-1.2425205
33	0x40a7e5ca	5.2468004
34	0xbfe04b7e	-1.7523038
35	0xbfcefce4	-1.6170926
36	0x416bd285	14.738896
37	0x40b0e5ba	5.528043
38	0xbf90c218	-1.1309233
39	0xbfa7444a	-1.3067715
40	0xc0672a4f	-3.6119573
41	0x4055d30c	3.3410063
42	0xc04246e9	-3.035578
43	0x414d5e6a	12.83555
44	0x409bd20d	4.869391
45	0xbfda8c15	-1.7074
46	0xc118aefc	-9.542721
47	0x4044a420	3.0725174
48	0x3dcac333	0.099005125
49	0x4081b64e	4.053504
50	0xc00104a0	-2.0159073
51	0xc00de109	-2.21686
52	0x3d0590d8	0.032608837
53	0xbd767411	-0.060169283
54	0x3fd8bce1	1.6932641
55	0x3d797e0b	0.06091122
56	0xbf213056	-0.6296438
57	0xbfbb7500	-1.464508
58	0x3fccdc7b	1.6004785
59	0xbf147838	-0.5799594
60	0xbd893852	-0.06700195
61	0x3f895f3e	1.0732191
62	0xbe844b4a	-0.2583869
63	0x40243e0d	2.5662873
64	0x3f1b15dc	0.6058023
65	0x3fc9b718	1.5759001
66	0xbfad21bf	-1.3525923
67	0x3eb4f225	0.35340992
68	0x3f2f1a91	0.6839991
69	0x3f269dc4	0.6508448
70	0x3d7e3712	0.062064238
71	0xbf628de2	-0.88497746
72	0xbf0abb7a	-0.54192317
73	0xc00d2017	-2.2050836
74	0x3fa4b333	1.2867187
75	0xbe55643d	-0.20839019
76	0xbf8ca79a	-1.0988648
77	0xc008662a	-2.1312356
78	0xbf3bfc00	-0.73431396
79	0x3e478d89	0.19487585
80	0x40fd8770	7.922783
81	0x3f7156ef	0.94273275
82	0xbfc87770	-1.566145
83	0x3fbb24ce	1.4620607
84	0xbf7ebe2f	-0.9950895
85	0xc0e25193	-7.072458
86	0xbfef6e8a	-1.8705609
87	0x3fb6520c	1.4243789
88	0x4074b2dd	3.823417
89	0x3d91c02c	0.07116732
90	0x4029867b	2.648833
91	0x3f256979	0.64614064
92	0xbf4e2df1	-0.8053885
93	0x3e74013e	0.23828599
94	0x3fadafea	1.356931
95	0x3ffc3b9e	1.9705694
96	0x3f43903d	0.76391965
97	0x3dd3f145	0.10348753
98	0x3e8d94e7	0.27652666
99	0x3ee03772	0.437923
100	0x40163783	2.3471382
101	0xc0271dd4	-2.6111956
102	0xbd740c8e	-0.059582286
103	0x4021ee90	2.5301857
104	0xbdd2d06f	-0.10293662
105	0xbfe0d8b2	-1.756613
106	0x3f8ddc83	1.108292
107	0x3f8d0987	1.1018533
108	0xc012bad5	-2.2926533
109	0xc037af32	-2.870068
110	0x3eb2f891	0.34955266
111	0x3e9b5aa6	0.30342597
112	0x3f71c407	0.9443974
113	0xbfa6b6f5	-1.3024584
114	0xbf44c2bf	-0.7685966
115	0xbfd3a4e0	-1.6534691
116	0x3f328b79	0.6974407
117	0x3fcacb5d	1.5843312
118	0xbf733f96	-0.950189
119	0xbf0fc028	-0.5615258
120	0xbe3dcb4c	-0.18534583
121	0x3f85e914	1.0461755
122	0xbe7b2d24	-0.24528939
123	0x3f933ad0	1.1502323
124	0x3f6f22c2	0.9341241
125	0xbf39635c	-0.72417235
126	0xc018c246	-2.3868575
127	0x3dbce183	0.092227004
128	0xbf75ab46	-0.9596447
129	0xbfe37f4c	-1.7773223
130	0x3ea833e4	0.3285209
131	0x3f72b805	0.9481204
132	0xbe6bc331	-0.23023678
133	0xc0274d4d	-2.614093
134	0xbf4fe98b	-0.81215733
135	0x3e7bf588	0.24605381
136	0xbda3fd8f	-0.08007347
137	0x3f3c4039	0.73535496
138	0x3f1397ce	0.5765351
139	0x3f2c02de	0.67191875
140	0x3f59b893	0.8504726
141	0x3d6fd1b1	0.058549587
142	0xbe6ba1d1	-0.23010947
143	0x402455c3	2.5677345
144	0xbe54244a	-0.20716968
145	0x3e6fdbea	0.23423734
146	0xbef5bda6	-0.47996253
147	0x3f8c29de	1.0950277
148	0x3f2a878e	0.6661309
149	0x3f636ea3	0.88840693
150	0x3edcacd8	0.4310062
151	0xbf870947	-1.0549706
152	0xbcf0ceff	-0.029395578
153	0xbf8694b7	-1.0514134
154	0xbf316215	-0.69290286
155	0xbd2e0624	-0.042486325
156	0x3fb51e2d	1.4149834
157	0x3e4258c4	0.18979174
158	0x3f9251be	1.1431196
159	0x3fb30f89	1.3989116
160	0xbdd7cf78	-0.105376184
161	0xbe1a2220	-0.1505208
162	0x3f87ee32	1.0619566
163	0x3e1cbd26	0.1530653
164	0xbedd36a1	-0.4320574
165	0xc0269da7	-2.6033723
166	0x4084c21b	4.1486945
167	0xc021db67	-2.5290163
168	0x3f895fe7	1.0732392
169	0x3f8633fa	1.0484612
170	0x3f131d4b	0.5746657
171	0xbf9c7c96	-1.2225521
172	0xbbb43bfc	-0.0055003148
173	0xbfdd120c	-1.7271132
174	0xbf9b37df	-1.2126426
175	0xc0841e1b	-4.128675
176	0xbfd29408	-1.6451426
177	0xbee64f8a	-0.44982558
178	0xc022df06	-2.5448623
179	0xbf284fc1	-0.65746695
180	0x3fc4614b	1.5342191
181	0x3ea1abad	0.3157629
182	0x3f0c35c3	0.54769534
183	0x3f3adb56	0.7299093
184	0xbf53bed4	-0.82713056
185	0xbfbeb668	-1.4899416
186	0x3f4bffdf	0.79687303
187	0xc013671b	-2.303168
188	0x4038f0f8	2.8897076
189	0xc064854b	-3.5706356
190	0xbb8f7710	-0.004378207
191	0x4008f548	2.1399708
192	0xbee99ce6	-0.45627517
193	0x3ecd8859	0.40143088
194	0x3fe051b7	1.7524937
195	0xbfd9c825	-1.7014204
196	0xc067bcce	-3.6208987
197	0xc02225fe	-2.5335689
198	0x3f04b68f	0.5184106
199	0xbfe39789	-1.778062
200	0x3da88652	0.082287446
201	0x3e98658f	0.29764983
202	0xbf4f1d54	-0.80904126
203	0x3dcdb9b3	0.10045185
204	0x3f4422f2	0.7661582
205	0x3e055ff6	0.13024887
206	0x3ed157b3	0.40887222
207	0xbf643bec	-0.89153934
208	0xbfe4a9a1	-1.7864267
209	0x3ca4846b	0.020082673
210	0xbf388e89	-0.7209249
211	0x3df654e6	0.12027912
212	0xbf173523	-0.59065455
213	0xc01f2e95	-2.4872181
214	0xbe9c2c83	-0.3050271
215	0x3fc16603	1.5109257
216	0xbe7de1d3	-0.24793176
217	0x3ec52c57	0.3851039
218	0xbfba6fa9	-1.4565326
219	0x3fc60bae	1.5472314
220	0x417cfbf2	15.81151
221	0xbffd7ac1	-1.9803087
222	0x3fbcfef7	1.4765309
223	0xc11127b0	-9.072189
224	0xc0119e5a	-2.27529
225	0xc055ccd4	-3.3406267
226	0x4182ac99	16.334276
227	0xc0f9dfb6	-7.8085585
228	0x40aa1464	5.314989
229	0x402373ac	2.553935
230	0x3fbfa082	1.4970858
231	0x411e51a0	9.894928
232	0x406e3a0e	3.7222934
233	0xc0fa9c86	-7.831607
234	0xc09c4fda	-4.8847475
235	0xc11e3b6e	-9.889509
236	0x408e5f0d	4.449103
237	0xc0ef7603	-7.4831557
238	0x408e49ac	4.446493
239	0x4062427a	3.5353074
240	0xc0a9f911	-5.3116536
241	0xbeb0a10d	-0.34497872
242	0xbf9778be	-1.1833723
243	0x3f8a11f7	1.0786732
244	0xc0b7f0eb	-5.748159
245	0xc10aba77	-8.670524
246	0x404db642	3.2142491
247	0x3f8103f0	1.0079327
248	0xbedd88a4	-0.4326831
249	0xbf972a3a	-1.1809762
250	0x409876ff	4.764526
251	0x4001cf9c	2.0282965
252	0xbda55e60	-0.08074641
253	0x40646901	3.568909
254	0x3f9a5612	1.2057517
255	0x408c7224	4.388933

gru.bias_ih_l1 f4 [30]
0	0xbf91f383	-1.1402439
1	0x3fa51a7d	1.2898709
2	0x4091d619	4.557385
3	0x4028f24a	2.6397882
4	0xbfdd1139	-1.7270881
5	0x3f3c3d05	0.7353061
6	0xc00baa50	-2.18227
7	0xbed80148	-0.42188478
8	0x40709d62	3.759606
9	0xbefe7d23	-0.49704847
10	0xbfb96a1d	-1.4485508
11	0xbf8534ba	-1.0406716
12	0x3f7dab32	0.9908935
13	0x3fa4caf9	1.2874442
14	0x3fd8bd86	1.6932838
15	0x3ee64b85	0.44979492
16	0x3f088cb3	0.5333969
17	0xbff04dde	-1.8773763
18	0xc02ecb39	-2.7311537
19	0xc01bb154	-2.4326982
20	0xbf659b94	-0.8969052
21	0xbe125af0	-0.14292502
22	0xc100d6dd	-8.052457
23	0x3f829cae	1.0204065
24	0x40ad101c	5.4082165
25	0xbe9785b8	-0.29594207
26	0xbf4fdd65	-0.81197196
27	0x3e97a34d	0.29616776
28	0x3ea8b917	0.32953712
29	0x3ff116b2	1.8835051

gru.bias_hh_l1 f4 [30]
0	0xbf89df59	-1.0771285
1	0x3fae0511	1.3595296
2	0x4089d118	4.306774
3	0x400e0425	2.219003
4	0xbfe6fa31	-1.8045102
5	0x3f51dc60	0.8197689
6	0xbfe1ef34	-1.7651124
7	0xbead5a9b	-0.3385819
8	0x405407e7	3.3129823
9	0xbf193b7d	-0.59856397
10	0xbfb9a65c	-1.4503894
11	0xbf34812d	-0.70509607
12	0x3f420dc4	0.75802255
13	0x3f9f72fb	1.2456964
14	0x3fbf03c1	1.4923021
15	0x3f49da89	0.78849083
16	0x3e3d2a66	0.18473205
17	0xbfee108a	-1.8598797
18	0xc02eab7e	-2.729217
19	0xc01d4fcf	-2.4579961
20	0x3f801cdf	1.0008811
21	0x3f6fcf60	0.93675804
22	0x4005cf4e	2.0907779
23	0x409e8cdc	4.9546947
24	0xbf15c610	-0.58505344
25	0x3ffb5c97	1.9637631
26	0xc02edf09	-2.732363
27	0xbe16b522	-0.14717534
28	0x3e349e38	0.1763848
29	0xbfde15f5	-1.7350451

fc.weight f4 [5, 10]
0	0xc1d25b2a	-26.294514
1	0x425e1a02	55.5254
2	0x42449fa3	49.155895
3	0x426be724	58.975723
4	0xc1cb316a	-25.399128
5	0xc14fd76c	-12.990093
6	0x42032d10	32.794006
7	0xc2db1509	-109.541084
8	0xc20d57f1	-35.33588
9	0xc2e64a3a	-115.14497
10	0x413e8c5c	11.909267
11	0x3da246a3	0.07923629
12	0xc038cd75	-2.88754
13	0xc19b305b	-19.398611
14	0xc1cb6823	-25.425848
15	0x400c7bdd	2.19506
16	0xc1e5ee4a	-28.741352
17	0x416d7d43	14.843081
18	0x41442dfc	12.261227
19	0xc249984c	-50.398727
20	0x4120fd2f	10.061812
21	0xc146c5a0	-12.423248
22	0xc0a3c816	-5.1181746
23	0xc0ee3319	-7.4437375
24	0x420c648e	35.098198
25	0xc0802b93	-4.005319
26	0x40b8b98a	5.772649
27	0x4122f74e	10.185377
28	0x41d0074a	26.00356
29	0x42323d32	44.55976
30	0xc1cd90f9	-25.695787
31	0xc170fdff	-15.062011
32	0x412368de	10.213102
33	0x420cc637	35.19357
34	0xc1478be8	-12.471657
35	0xc0c3c4ae	-6.1177588
36	0x423219b7	44.525112
37	0x4197914c	18.945946
38	0xc2b5b1c6	-90.84721
39	0x40822569	4.0670667
40	0x41f561f2	30.672825
41	0xc2147a6e	-37.11956
42	0x4213de3b	36.967022
43	0x42f35cee	121.6815
44	0xc1aed64d	-21.85464
45	0xc1701b60	-15.006683
46	0xc1b2ac45	-22.334116
47	0xbf231f29	-0.6371942
48	0x42175714	37.835037
49	0x41794cd4	15.581257

fc.bias f4 [5]
0	0xc1cd7120	-25.680237
1	0xc14944f2	-12.579332
2	0x41a58b0f	20.6929
3	0xc1a1571d	-20.167536
4	0xc27b870d	-62.881886
