models/SSD-5-hidden-1-input-2-layer.pth (torch, 4007 bytes, 10 tensors)

gru.weight_ih_l0 f4 [15, 1]
0	0x40a22c36	5.067897
1	0xc0495148	-3.145586
2	0xc0d4842a	-6.6411333
3	0xc0b84fe4	-5.7597523
4	0xc1591ea3	-13.56998
5	0x40ed4387	7.414493
6	0x400fa32c	2.2443342
7	0x4053e75e	3.3109965
8	0x4014003d	2.3125145
9	0x3f9bc551	1.2169591
10	0x4097b86e	4.7412634
11	0x40f4394b	7.631994
12	0xc0a6fd77	-5.2184405
13	0xc0ab1596	-5.346385
14	0xc1511078	-13.066521

gru.weight_hh_l0 f4 [15, 5]
0	0xbf84a676	-1.03633
1	0xbf612dce	-0.8796052
2	0x3db48150	0.08813727
3	0x3f832751	1.0246373
4	0xbf0b6911	-0.54457194
5	0xbf80005f	-1.0000113
6	0x3e79dee9	0.2440144
7	0xbcb924fb	-0.022600641
8	0x3ed224d6	0.4104373
9	0xbe0a74e1	-0.13521148
10	0xbf2c9047	-0.6740765
11	0xbf8b2510	-1.0870686
12	0xbf4e46b1	-0.80576617
13	0xbd859a60	-0.06523585
14	0x3c2fe0fc	0.010734793
15	0xbe9db1ac	-0.30799615
16	0x3ff19716	1.8874233
17	0xbf665180	-0.8996811
18	0xbf5e5e50	-0.8686266
19	0x3fe25c26	1.7684371
20	0xbf2ae7ae	-0.66759765
21	0xbddf297f	-0.108965866
22	0xbd059a56	-0.03261789
23	0xbf7a1f24	-0.97703767
24	0x3f8e6a84	1.1126256
25	0xbef613fe	-0.48062128
26	0x3fc35b45	1.5262228
27	0xc02555d1	-2.5833628
28	0xbe86df8c	-0.26342428
29	0xbf89f908	-1.0779123
30	0xbf8962b4	-1.0733247
31	0xbf9bd43b	-1.2174143
32	0xc06e0c71	-3.7195094
33	0x3f5784dc	0.841871
34	0xbfb658ae	-1.4245813
35	0xbf50b389	-0.8152395
36	0xbee05f0b	-0.43822512
37	0xc086fbc8	-4.218235
38	0xbf12dd5b	-0.5736901
39	0xbf2206f5	-0.63291866
40	0xbf4ea907	-0.80726665
41	0x3fbb1084	1.4614415
42	0xbf3fc63b	-0.7491185
43	0xc01ff052	-2.499043
44	0x3d91a92a	0.071123436
45	0xc004d17f	-2.0752866
46	0xbfc24ccf	-1.517969
47	0xbf59e791	-0.8511897
48	0xbf6ef502	-0.933426
49	0xbf6434e7	-0.8914322
50	0xbd50c82a	-0.05097214
51	0x3ed702c0	0.41994286
52	0x3f203295	0.6257718
53	0x3f4b0ba2	0.79314625
54	0xbe76f4a3	-0.24116759
55	0x3ef3c0e4	0.476081
56	0xbe975bf4	-0.29562342
57	0xbf435553	-0.7630207
58	0xbf412901	-0.7545319
59	0xbfa566d7	-1.2922009
60	0x3f38d09b	0.72193307
61	0xbf74f9e1	-0.95693785
62	0xbf3d1010	-0.73852634
63	0xbd6a14d6	-0.057148777
64	0xbe522f0f	-0.20525764
65	0x3f1eadfe	0.6198424
66	0x3f47a749	0.7798963
67	0xbf3b07a2	-0.7305852
68	0x3d559e8d	0.05215316
69	0x400818f1	2.1265223
70	0xbd0ae95d	-0.03391396
71	0x3d2ba3ed	0.04190438
72	0x3eb50977	0.35358784
73	0xbe2c02d8	-0.1679796
74	0x3fe08967	1.7541932

gru.bias_ih_l0 f4 [15]
0	0xbeace267	-0.3376648
1	0x3e71a7a5	0.23599108
2	0xbf42cc3d	-0.7609289
3	0xbebd65db	-0.36991772
4	0xbf21b708	-0.6316991
5	0xbf361e28	-0.71139765
6	0x3eabb496	0.33536214
7	0xbfc33fb3	-1.5253814
8	0xbfb710d8	-1.4302015
9	0xbe46d295	-0.19416268
10	0x3e40aa36	0.1881493
11	0x3e7af2ef	0.24506734
12	0x3e34a959	0.17642726
13	0xbd3a5b0f	-0.045496996
14	0xbe2fbf3b	-0.17162792

gru.bias_hh_l0 f4 [15]
0	0xbeff362b	-0.49846014
1	0x3e7fc4c3	0.24977402
2	0xbe103247	-0.1408168
3	0xbedf6b32	-0.4363647
4	0xbf2dbb67	-0.6786408
5	0xbf83ee3e	-1.0307081
6	0x3f38efb0	0.72240734
7	0xbfb47598	-1.4098387
8	0xbf4a6780	-0.7906418
9	0xbd85e711	-0.06538213
10	0x3eabdc36	0.33566445
11	0xbe688c88	-0.22709858
12	0x3ed891f7	0.42298862
13	0x3f04dac2	0.518963
14	0x3f09f88c	0.5389488

gru.weight_ih_l1 f4 [15, 5]
0	0x3dc93d98	0.09826201
1	0xc01a5ee8	-2.4120426
2	0x408022cd	4.004248
3	0x3ff9d5f5	1.951842
4	0x3ec346f7	0.3814008
5	0xbf2527fb	-0.6451413
6	0x3f9424d7	1.1573743
7	0x40a43121	5.130997
8	0x4080ff6d	4.03118
9	0x40dc71d7	6.8888965
10	0x3e5cc364	0.2155891
11	0xbee2a60e	-0.44267315
12	0x3ff3d5c1	1.9049608
13	0x40414355	3.0197346
14	0xc0203085	-2.5029614
15	0x40589334	3.3839846
16	0x403e328e	2.9718356
17	0xbf7b21bc	-0.9809835
18	0xbf7d0ddf	-0.9884929
19	0x400853ee	2.1301227
20	0x3f2ecc0f	0.6828012
21	0xbfdce55d	-1.7257496
22	0xbe046207	-0.1292802
23	0xbf4b71d0	-0.7947054
24	0x3edb8895	0.4287764
25	0xbfbfa58b	-1.4972395
26	0xc0d2e70b	-6.5907035
27	0xc0828fef	-4.08007
28	0x4033e073	2.8105743
29	0x3f5c9093	0.861581
30	0xbf6f3366	-0.934378
31	0xbfc18035	-1.5117251
32	0xc06938da	-3.644095
33	0xbf128158	-0.5722861
34	0xc06f1588	-3.7356892
35	0xbfdc9906	-1.7234199
36	0xc089ce06	-4.3063993
37	0xbf85fefc	-1.046844
38	0x4015cd63	2.3406608
39	0xc06e98ce	-3.7280765
40	0x3f11cbd4	0.5695164
41	0xc08cf389	-4.4047284
42	0x3f2d7902	0.6776277
43	0xc02b6f6a	-2.6786752
44	0xc090f88f	-4.5303416
45	0xbf4532ac	-0.77030444
46	0xbf4ff874	-0.81238484
47	0x402273a7	2.5383089
48	0x3f2f13fd	0.68389875
49	0xbf80c1b3	-1.0059112
50	0x3efeeb40	0.49788857
51	0x3f39ea97	0.7262358
52	0x3fce7f5c	1.6132617
53	0x4055692b	3.334544
54	0x401a6bdc	2.4128332
55	0x3fa9b0d0	1.3257084
56	0x3f72682b	0.946902
57	0xbf1a3c2f	-0.6024808
58	0xbf8aa63f	-1.0831984
59	0xbfc5f95e	-1.5466726
60	0xbcbc480b	-0.022983572
61	0xbf91abaf	-1.1380519
62	0x3e8c8a7a	0.274494
63	0x3eb03b63	0.34420308
64	0x3fd6c497	1.6778744
65	0xbf429d99	-0.76021725
66	0xbf8bbae9	-1.0916415
67	0xbf8d7911	-1.1052572
68	0x40076397	2.1154535
69	0x4010e7da	2.264151
70	0x3f8b6ccf	1.0892581
71	0x3e7926b4	0.2433117
72	0xbf033768	-0.5125642
73	0xbd9562cf	-0.07294237
74	0xbf916baf	-1.1360987

gru.weight_hh_l1 f4 [15, 5]
0	0xbff89aba	-1.9422219
1	0x3f6efbd3	0.93353003
2	0x3eea5a52	0.45772034
3	0x3de7cea3	0.1131871
4	0x3ecc0ebe	0.39854997
5	0xbfc4ad27	-1.5365342
6	0x3f932492	1.1495535
7	0xc103416a	-8.20347
8	0x40b01d07	5.5035434
9	0x3d84dba2	0.06487204
10	0x3fb6c3e6	1.4278533
11	0xbfa8dc62	-1.3192255
12	0x3fb9a384	1.4503026
13	0x3f512a94	0.81705594
14	0x3fb79d85	1.4344946
15	0xbfbf715d	-1.4956471
16	0x3eadffc1	0.33984187
17	0x408dd637	4.4323993
18	0xbebfd6fd	-0.3746871
19	0xbfaf3cd9	-1.3690444
20	0xbf4e1a24	-0.8050864
21	0x3dd166a4	0.10224655
22	0x3c8d2ebb	0.017234197
23	0xbfa2a851	-1.2707616
24	0xbfb79bf5	-1.4344469
25	0x3f4ff2a0	0.8122959
26	0xc03cb785	-2.9487011
27	0x3f10ce7b	0.56565064
28	0xbf0344bd	-0.5127676
29	0xbedb1f12	-0.42797142
30	0xbe0ca6e5	-0.1373554
31	0xbf07b580	-0.5301132
32	0x40196c84	2.3972483
33	0xbe23ea1a	-0.16007271
34	0xbf615d3d	-0.88032895
35	0xbfded355	-1.7408243
36	0x4008880f	2.1333044
37	0x40a71c1a	5.2221804
38	0x4007367b	2.1127002
39	0xbfabc0ec	-1.341825
40	0xc12853ea	-10.520487
41	0xc06475fd	-3.5697014
42	0x40739698	3.8060665
43	0x3fade225	1.3584639
44	0x400df911	2.2183268
45	0x3eb4df9f	0.3532686
46	0xbfaf5446	-1.3697593
47	0x3faea311	1.3643514
48	0x3f76eefd	0.9645842
49	0xbff09289	-1.8794719
50	0x3f7ade16	0.97995126
51	0x3ea0ee88	0.31431985
52	0x3fb515d1	1.4147283
53	0xbe1f2320	-0.15540743
54	0xbf61882a	-0.88098395
55	0xbf4d8e6c	-0.80295444
56	0x3efd012e	0.49414963
57	0x3f66f1c6	0.90212667
58	0xbf294b36	-0.6613039
59	0x3fa23b8e	1.2674425
60	0xbe339711	-0.17538096
61	0xbfa53af8	-1.2908621
62	0x3fad7217	1.3550442
63	0xbfa4e61c	-1.2882724
64	0xbf501095	-0.812753
65	0xbe97f7bb	-0.2968119
66	0xbf5ff231	-0.8747893
67	0x40396429	2.8967383
68	0xc01170b1	-2.2725031
69	0xbf9023cb	-1.1260923
70	0xbff8223d	-1.9385449
71	0x3f3c0bd3	0.7345554
72	0x3f816a4b	1.0110563
73	0xbeee563f	-0.46550176
74	0x3faba9c0	1.3411179

gru.bias_ih_l1 f4 [15]
0	0x3f3a8afe	0.72868335
1	0x3f972e03	1.1810917
2	0xbf497233	-0.7868988
3	0x3f11b65f	0.569189
4	0xbef3995b	-0.47577938
5	0xc0122b0d	-2.2838776
6	0xbf817d92	-1.0116446
7	0xc0559e4f	-3.3377874
8	0xbff82462	-1.9386103
9	0xbf28d2a3	-0.65946406
10	0x3f79c7d2	0.97570527
11	0x3ed1ca9d	0.40974894
12	0x3ec0f77c	0.37688816
13	0x3f4667d7	0.775022
14	0xbcf39603	-0.029734617

gru.bias_hh_l1 f4 [15]
0	0x3ead4511	0.33841756
1	0x3fa0c4c8	1.2560053
2	0xbed856c3	-0.42253694
3	0x3f15e6ce	0.58555305
4	0xbf0b1833	-0.543338
5	0xc0055f0e	-2.0839267
6	0xbfb6e507	-1.4288644
7	0xc03e308a	-2.9717126
8	0xc01de7f1	-2.4672816
9	0x3d02d00c	0.03193669
10	0xbf20a991	-0.6275874
11	0x3bdd0859	0.00674538
12	0xbf4df5e3	-0.8045332
13	0xbfa72687	-1.3058633
14	0x3e52c924	0.20584542

fc.weight f4 [7, 5]
0	0x4109c786	8.611212
1	0xbe8b9c4e	-0.2726769
2	0xc1318b98	-11.0965805
3	0xc0c8d3e8	-6.2758675
4	0xc0da417b	-6.820493
5	0xc1b2f988	-22.371841
6	0xc138552f	-11.520797
7	0xc2143a25	-37.05678
8	0x41020cf8	8.128166
9	0x41acf9ff	21.622068
10	0xc163648e	-14.2120495
11	0x409d4966	4.91521
12	0xc15f2eb1	-13.948899
13	0xbf95bf2c	-1.1698966
14	0x40b540cc	5.66416
15	0x409ac1c6	4.836154
16	0x3f99c958	1.201457
17	0x40295104	2.6455698
18	0xc0609890	-3.5093117
19	0xc06a47c6	-3.6606307
20	0x3fcb4472	1.5880263
21	0xc17476e0	-15.279022
22	0x416aea63	14.682223
23	0x41950f30	18.632416
24	0xbfe30151	-1.7734777
25	0xc0bc27b5	-5.879847
26	0x4188ff50	17.124664
27	0xc11f0732	-9.939257
28	0x41c4e14f	24.610014
29	0xc135c3b5	-11.36028
30	0x40ad51c5	5.4162316
31	0x3fc78ea3	1.5590404
32	0x4049b1ac	3.1514692
33	0xc078676a	-3.881312
34	0xc06a942c	-3.6652937

fc.bias f4 [7]
0	0xc12d0c05	-10.815434
1	0xc18a25b2	-17.268406
2	0x3f334949	0.700337
3	0x410294cb	8.161326
4	0xc0206351	-2.5060618
5	0xc1663abd	-14.38934
6	0x40b3ae6b	5.6150413
