models/SSD-5-hidden-1-input-2-layer-2-disc.pth (torch, 3992 bytes, 10 tensors)

gru.weight_ih_l0 f4 [15, 1]
000000 cb e5 6a 3f 0a 95 41 c1 c4 e7 92 c0 00 87 51 c1
       0.91756886 -12.0988865 -4.5907917 -13.095459
000010 fa 99 ac 40 9e b6 54 bf 5b 82 12 40 e5 58 9c 40
       5.393796 -0.8309115 2.2892063 4.8858514
000020 71 13 15 40 aa 13 0b c0 f2 dc 0d 41 19 d6 c1 c0
       2.3293116 -2.1730752 8.866442 -6.057385
000030 41 b1 e6 c0 64 c5 c0 3f 20 0f 81 41
       -7.2091374 1.5060239 16.132385

gru.weight_hh_l0 f4 [15, 5]
000000 b1 5e 0e 40 a4 2b 53 bf 4f 94 0f 3f dd b1 cb 3d
       2.2245295 -0.82488465 0.56085676 0.09946034
000010 18 42 40 bf ee cf 19 bf 01 ae 3e 3f 49 d7 96 3f
       -0.7510085 -0.600829 0.7448426 1.178445
000020 a4 66 bd bf 91 44 79 3e fc 6a ab 3f 14 5e 8c bf
       -1.4796948 0.24342562 1.3392024 -1.096621
000030 26 98 88 3e 8b 4f c6 bf 82 f5 93 3f 4b b5 0a 40
       0.2667858 -1.5493025 1.1559298 2.1673152
000040 2f 95 04 bf d3 f7 74 40 c8 bd d2 40 d5 bc 2a bf
       -0.51790136 3.827626 6.5856667 -0.66694385
000050 92 c0 57 3e 0d 18 79 3d e0 48 5d be c2 22 d3 be
       0.21069553 0.060813952 -0.21609831 -0.41237456
000060 c8 1c 22 3d 53 5a 1a c0 42 33 c2 3d 02 83 10 bf
       0.03957823 -2.411763 0.09482433 -0.564499
000070 56 7d 6c bf e8 da 9f be b4 2e b3 c0 27 40 6d c0
       -0.9237875 -0.312217 -5.599451 -3.7070405
000080 36 87 00 c0 ed 7c 38 c1 2c 9a 4c bf 28 b9 da c0
       -2.0082526 -11.530499 -0.7992275 -6.835102
000090 ad a4 b1 bf 3b ab 9d 3e 70 15 f8 bf 45 c8 45 bf
       -1.387838 0.307947 -1.9381542 -0.7725871
0000a0 b5 23 89 40 42 54 9c bf 33 67 ba c0 8d 26 54 40
       4.285609 -1.2213213 -5.8250976 3.314853
0000b0 7b ca 98 bf d3 59 11 c1 fe 61 76 bf 5d d1 42 c0
       -1.1936792 -9.08443 -0.96243274 -3.0440285
0000c0 40 8c b9 3e 9f a3 66 bf 1f bd 48 40 df 17 2b c0
       0.36239815 -0.90093416 3.136543 -2.673332
0000d0 7a 5e 3e 3f c4 3e 65 c0 4b 34 cc 40 f5 6a 5c c0
       0.7436291 -3.581956 6.3813834 -3.4440281
0000e0 11 f8 88 bf 79 ad b2 3f 64 52 17 40 06 e5 85 bf
       -1.0700704 1.395919 2.3644037 -1.0460517
0000f0 d9 79 03 3f f3 8a df bf c7 78 e6 3f 41 05 91 be
       0.513578 -1.7464279 1.8005608 -0.2832432
000100 d1 e5 f7 3f 25 e5 e8 3f 4b 83 30 3f 25 a1 2d c0
       1.9367009 1.8194929 0.6895034 -2.7129605
000110 b1 57 06 3e 90 4b 43 40 54 da 93 40 57 1a a3 3f
       0.13119389 3.051487 4.6204014 1.2742413
000120 99 76 9f 3f 45 fc 99 3f 93 c0 24 40
       1.2458068 1.2030112 2.5742538

gru.bias_ih_l0 f4 [15]
000000 a7 f0 d3 bf a0 fc 3a bf 5a c8 a9 bf 87 23 af 3f
       -1.6557816 -0.73041725 -1.3264267 1.3682717
000010 79 69 51 bf 46 60 e1 3e 3c 63 4e c0 1a ff 47 bf
       -0.81801564 0.44018763 -3.2248068 -0.7812363
000020 73 b7 c7 3f 0b 9e 15 bf 06 70 6c 3e 5c d3 3f be
       1.5602859 -0.5844428 0.23089609 -0.18732971
000030 47 c5 6b 3d 5b 07 97 be 84 da 35 be
       0.057561185 -0.294978 -0.17759138

gru.bias_hh_l0 f4 [15]
000000 8c 85 e8 bf 3e 75 37 bf 3a cf 34 bf fb a1 a6 3f
       -1.8165755 -0.7166327 -0.706287 1.3018183
000010 bc 6d 5d bf 9c 8d f7 3d 0c 9e 35 c0 cb 6a 2a bf
       -0.86495566 0.12087557 -2.8377714 -0.66569203
000020 f3 c8 0c 40 e7 4c e9 be 9d 52 e5 3e d8 11 19 40
       2.199765 -0.45566484 0.4478959 2.391714
000030 70 a2 91 bf dc 28 03 40 cd 61 a2 be
       -1.1377697 2.0493689 -0.3171524

gru.weight_ih_l1 f4 [15, 5]
000000 d3 03 cf bf 52 93 3a 3f 27 03 b8 40 db 0a a0 c0
       -1.6173042 0.7288104 5.750385 -5.001325
000010 e7 7c 1d 40 b3 77 53 bf c7 ff 1a 3e 78 80 65 bf
       2.4607484 -0.8260452 0.15136634 -0.8964915
000020 68 53 e9 bd 9d e4 3b c0 23 15 3d bf 3b 20 c4 3f
       -0.113928616 -2.9358284 -0.7386038 1.5322336
000030 a8 25 1a 41 db 64 0a c0 2a 06 b7 3f 4f 8a b0 bf
       9.634193 -2.1624057 1.4298756 -1.3792208
000040 65 83 f1 3e 99 67 95 bf ea 27 86 c0 94 f5 94 3f
       0.4717056 -1.167224 -4.1923723 1.1637444
000050 b9 35 37 c1 17 80 a4 40 2f b9 66 c1 0b 85 b9 40
       -11.450616 5.140636 -14.420211 5.7974906
000060 f3 a9 fa 40 2e 99 17 40 cb d1 2d 40 26 9f 8b 3f
       7.8332458 2.3687243 2.7159297 1.0907943
000070 4c a5 4b ba e3 a9 d3 3e 54 56 09 c1 9d e7 62 be
       -0.00077684666 0.4134055 -8.583576 -0.22158666
000080 37 d6 70 be f9 16 38 c0 71 db e6 bf a1 14 11 3f
       -0.23519216 -2.8764021 -1.8035718 0.566721
000090 28 1f e0 3f 87 b8 12 3f 06 3c 6e c0 ae d7 19 c0
       1.7509508 0.57312816 -3.7224135 -2.403789
0000a0 7a 08 89 40 68 6d 06 40 80 e8 c1 bf a5 4e 70 bf
       4.2822847 2.1004276 -1.5149078 -0.9387
0000b0 81 33 4c c0 49 66 07 c1 3c 5c 30 41 ee e5 43 c1
       -3.1906435 -8.462472 11.022518 -12.243635
0000c0 2c 95 4c 40 e5 34 aa c0 ad 72 9e 3f fd c6 14 c0
       3.1966047 -5.318957 1.2378746 -2.3246453
0000d0 be 2c 9d be df 75 5d 3d 3f 49 38 bf e8 49 05 3f
       -0.30698198 0.05406749 -0.71986765 0.52065897
0000e0 62 d4 62 c0 e0 d5 15 be c0 41 27 3f b7 5e 82 3f
       -3.5442128 -0.14632368 0.653347 1.0185155
0000f0 39 04 05 bf 9d ab c8 bd 72 7a 65 bf 0f 22 2f 3f
       -0.5195957 -0.09798358 -0.8963996 0.68411344
000100 b6 d9 16 40 6d 4b 71 3f e0 6e 21 be a6 fb 07 c0
       2.357038 0.94255716 -0.15764952 -2.1247344
000110 9f 20 a7 be 1b cd 0a 40 cd 29 92 40 43 97 ec bf
       -0.32642075 2.1687686 4.5676026 -1.8483661
000120 77 13 75 be f1 c1 ca 3e 82 5e 67 3f
       -0.23933206 0.3960109 0.9037858

gru.weight_hh_l1 f4 [15, 5]
000000 48 10 c1 3f c2 ed cb 3f 49 6d 87 40 3b cb c7 3f
       1.5083094 1.5931933 4.2320905 1.5608896
000010 35 16 d9 3f b6 1e 19 bf 63 32 26 bf 29 82 43 3d
       1.6959902 -0.59812486 -0.64920634 0.047731552
000020 f5 59 43 3e 65 2c fe 3e 25 9c 2e 40 d7 b5 c0 bf
       0.19077285 0.49643245 2.7282803 -1.5055493
000030 96 8a 60 bf 33 a6 95 3f 6f 2b b7 bf 3b 69 44 40
       -0.87711465 1.1691345 -1.431013 3.0689228
000040 73 e4 9e be 3e 6f a7 3e 10 bd 57 bf 5f 3c d3 bf
       -0.31033668 0.3270206 -0.8427286 -1.6502799
000050 1f ab 06 bf 96 0b d6 bf 97 76 9c bf 54 4e 90 bf
       -0.5260486 -1.6722286 -1.2223691 -1.1273904
000060 b7 36 a1 40 b5 07 27 c0 b6 10 d8 40 2c da 18 40
       5.037929 -2.6098454 6.75204 2.3883162
000070 90 0c 04 c0 32 66 b8 bf 62 33 8d bf d2 b8 c2 3f
       -2.0632668 -1.4406188 -1.1031306 1.5212653
000080 97 a4 d1 3f 11 ea f0 3e e7 12 db 3f 37 53 0c c0
       1.6378354 0.47053578 1.7115144 -2.192579
000090 7d 76 72 bf c6 cd 59 be ff 1f 88 bf 0e 45 85 3e
       -0.9471205 -0.21269903 -1.0634764 0.26029247
0000a0 68 b7 89 c0 7e a1 88 c0 1f 0b 28 40 93 05 b7 bf
       -4.3036385 -4.2697134 2.6256788 -1.4298576
0000b0 88 4d 49 c0 0d d0 ad 3f 50 2e 69 40 32 8d 48 40
       -3.1453571 1.3579117 3.6434517 3.1336179
0000c0 bb 4a 6f 3f f9 aa 0d c0 e6 26 b2 bf 8d 98 be 40
       0.93473405 -2.2135603 -1.3918121 5.956122
0000d0 48 84 c4 3f 22 8d 11 3f 67 76 ef 3f a0 4d 94 bf
       1.5352869 0.56855977 1.8708009 -1.1586189
0000e0 32 2f e3 3e 60 f8 02 40 9f f3 31 3f 6e f7 4a 3f
       0.44371945 2.0464096 0.6951236 0.792838
0000f0 11 e8 05 3f a8 2c a6 40 00 ac 59 3f a6 97 b9 3e
       0.5230723 5.192951 0.85028076 0.3624851
000100 16 99 81 3f 31 78 a0 3f 9b 2d a3 3e ae 11 02 3f
       1.0124843 1.253668 0.31870732 0.5080823
000110 5a 63 47 40 20 a4 1e bf c6 d8 24 bf 01 c9 7a 3f
       3.115439 -0.61969185 -0.6439327 0.9796296
000120 2b 87 f0 3f a7 14 83 3e 33 70 5d 3f
       1.879125 0.25601694 0.8649933

gru.bias_ih_l1 f4 [15]
000000 ef 39 ed 3e e9 7f 13 3f 79 be 87 bf ab 4f 1e be
       0.46333262 0.5761705 -1.0605003 -0.15460078
000010 ff ed c5 3e 95 c1 21 c0 cd b8 0a 3f d8 3c ab bf
       0.3865814 -2.5274403 0.54188234 -1.3377943
000020 70 5f 72 be d6 f7 ab c0 71 9d ef 3d 54 b1 e1 3e
       -0.23669219 -5.3740034 0.116999514 0.44080603
000030 0f cb 8f bf 6e 46 0c 3f 1b a5 d9 3f
       -1.1233844 0.5479497 1.7003511

gru.bias_hh_l1 f4 [15]
000000 e0 a6 95 3d cd ad 26 3f eb 31 32 bf c4 8e 0d be
       0.073072195 0.6510895 -0.6960742 -0.13823992
000010 f4 56 a3 3e b8 f5 14 c0 da 53 ff 3d 02 c5 78 bf
       0.31902277 -2.3274975 0.12467165 -0.9717561
000020 67 ee 43 bf f4 d7 95 c0 4f c0 8d c0 d5 3a 4b bf
       -0.7653565 -4.6826115 -4.429725 -0.79386646
000030 c2 ed 68 c0 96 fb 00 3f b9 1a 30 3f
       -3.6395116 0.5038389 0.68790776

fc.weight f4 [5, 5]
000000 0e 6e 88 41 96 d6 28 c1 d4 65 35 43 2a bf 96 42
       17.053738 -10.552389 181.39777 75.37337
000010 57 cc ea 40 a1 89 cd 41 84 5d 55 42 73 09 99 41
       7.337444 25.692202 53.341324 19.129614
000020 28 d6 6a 42 6e 8f 84 41 f0 bf 8b 41 fe a8 c5 c1
       58.709137 16.570034 17.46872 -24.707516
000030 ff e8 9b c1 c1 a7 c7 c1 0f c5 cc 41 24 c2 10 c2
       -19.488768 -24.956911 25.59622 -36.18959
000040 ec 39 da c0 1c 2e f4 c1 27 f0 04 c2 d9 93 80 c2
       -6.8195705 -30.522514 -33.234524 -64.288765
000050 1d 2b fc c2 11 6a 1f c0 b6 01 0e 42 d4 9a f3 41
       -126.084206 -2.4908488 35.50167 30.4506
000060 f9 d5 09 c3
       -137.83583

fc.bias f4 [5]
000000 a7 61 42 c1 a1 e0 31 c0 e2 01 9f 40 3f 29 95 40
       -12.148841 -2.7793353 4.96898 4.661285
000010 40 ec cf c1
       -25.990356
