models/SSD-20-hidden-5-input-2-layer-2-disc.pth (torch, 21407 bytes, 10 tensors)

gru.weight_ih_l0 f4 [60, 5]
0	0x40b1eb9d	5.5600114
1	0x40e03401	7.006348
2	0x3e7f4744	0.2492953
3	0xc0ac1b21	-5.3783116
4	0xc05f688e	-3.4907565
5	0x4064306f	3.5654562
6	0xbffb9ca3	-1.9657177
7	0x3faf9b1d	1.3719212
8	0x40369171	2.852627
9	0x414774fc	12.466061
10	0xbff3c9d7	-1.9045972
11	0xc0249f90	-2.572239
12	0xc0124a5c	-2.2857885
13	0x40455e92	3.083897
14	0x3ef66d81	0.4813042
15	0x416dbefd	14.859128
16	0x412d4a71	10.830674
17	0xc15cf48c	-13.809704
18	0xc1f94563	-31.15888
19	0xc03d1975	-2.9546788
20	0x3f5bb5c9	0.8582426
21	0xbdc2865e	-0.09498285
22	0x400b221a	2.1739564
23	0x3e08e7d4	0.13369685
24	0xc0aa70b5	-5.326258
25	0xc114c2b9	-9.29754
26	0xc0a1f089	-5.060612
27	0x41284ebe	10.519224
28	0xc059f372	-3.4054837
29	0xc0a7cea9	-5.243977
30	0xc0d19b4c	-6.550207
31	0x409d2125	4.910296
32	0x411ec3a4	9.922764
33	0x4082653f	4.074859
34	0xc0cdd1ff	-6.4318843
35	0xc0da5259	-6.822552
36	0x3fcf7896	1.6208675
37	0xbf6f837b	-0.9356
38	0x406f0ff9	3.73535
39	0xbffc0058	-1.9687605
40	0xc0716149	-3.7715628
41	0x3fbd3b91	1.4783803
42	0xbe81566d	-0.2526125
43	0x3fc9682d	1.5734917
44	0xbf013416	-0.504701
45	0xc0a303a5	-5.094195
46	0x404237ca	3.034655
47	0xbfe3a2fe	-1.7784116
48	0x4076aefe	3.8544307
49	0xbf95b8a9	-1.1696979
50	0xc076ee4a	-3.858294
51	0x40951e13	4.659921
52	0x3dce7d4b	0.100824915
53	0x4087a142	4.238435
54	0xc097fb6c	-4.749441
55	0x4086cfdf	4.212875
56	0xc090e262	-4.5276346
57	0x3dca69e0	0.09883475
58	0x3fcd28c5	1.6028067
59	0xc02057c5	-2.505357
60	0x40b2ec57	5.59135
61	0xc072302b	-3.78419
62	0x4048ded3	3.1386
63	0x3fbbc9f5	1.4671007
64	0x4084c90a	4.149541
65	0xbf32b955	-0.69814044
66	0x40834748	4.1024513
67	0x40410756	3.0160728
68	0xc0aab1b9	-5.3341947
69	0x4082f881	4.092835
70	0xbfbbd90f	-1.4675616
71	0x406e4d51	3.723469
72	0xbf282481	-0.656807
73	0x40cc6386	6.387149
74	0xc0576ae0	-3.3658981
75	0x3e4a9f3f	0.1978731
76	0xc0012505	-2.0178845
77	0xbe536a10	-0.20645928
78	0xc01d40e3	-2.4570854
79	0x409f4da8	4.9782295
80	0xc08ea926	-4.458148
81	0xbf73060f	-0.9493112
82	0xc08b5511	-4.354134
83	0xbf6fdff4	-0.937011
84	0xbfb00261	-1.3750726
85	0xbf87888e	-1.0588548
86	0xbf88afe2	-1.0678675
87	0xbf0f16c9	-0.5589414
88	0x40a5fd37	5.18716
89	0xc037686e	-2.865749
90	0xbbb7c5bd	-0.005608289
91	0x40c81fe3	6.2538924
92	0x409a172e	4.8153296
93	0x41011869	8.0684595
94	0xc025ffa5	-2.5937283
95	0xc03a8294	-2.9142199
96	0xc09ebb05	-4.9603295
97	0xc03baed5	-2.932546
98	0xc09f8f90	-4.9862747
99	0x3e68d5c6	0.22737798
100	0x404a9654	3.1654253
101	0x40a2f2ca	5.0921373
102	0xbfbecaf6	-1.4905689
103	0x403a5bb5	2.9118474
104	0xbfb8ea7d	-1.444656
105	0x3f189b12	0.5961162
106	0x40fba26e	7.863578
107	0x3f32c691	0.6983424
108	0xbe45e41b	-0.19325297
109	0x404982b4	3.1486025
110	0xc0e85840	-7.2607727
111	0x406861ea	3.6309762
112	0xc0892a4f	-4.2864146
113	0x40f75f8d	7.730414
114	0xc0a1248e	-5.0357122
115	0xc00ae44d	-2.1701844
116	0x3faa8e57	1.3324689
117	0x3f908cd6	1.129298
118	0xc0fd7553	-7.920572
119	0x3e91edca	0.2850173
120	0xc07dc5c5	-3.965196
121	0x409c2e70	4.8806686
122	0xbf76f74c	-0.96471095
123	0x408f7856	4.4834394
124	0xbffe083c	-1.9846263
125	0x4080f673	4.030084
126	0xc03f337d	-2.9875176
127	0x409f1c5c	4.972212
128	0xc05c50e3	-3.442437
129	0xbf94f4cb	-1.1637205
130	0xc001cbee	-2.0280719
131	0x3f9ec614	1.2404199
132	0x404d54ec	3.2083082
133	0xc0d2f5fe	-6.5925283
134	0xbf5bf922	-0.8592702
135	0x3fa57ddf	1.2929038
136	0xbf823811	-1.017336
137	0xbf3056d9	-0.6888252
138	0xc047b75f	-3.120567
139	0xc09335d7	-4.6003222
140	0xbff989fd	-1.9495236
141	0xbf9118f5	-1.1335741
142	0xc0b8f78b	-5.7802176
143	0x3f3a994f	0.7289018
144	0x3ff4fcb7	1.9139622
145	0xc0d2192e	-6.5655737
146	0x409be3d3	4.8715606
147	0xc06323fd	-3.5490716
148	0xc0e24c78	-7.0718346
149	0xbfc2c8b5	-1.5217501
150	0x3ea995ae	0.3312201
151	0x404c0cfd	3.1882927
152	0xc0946eb0	-4.6385117
153	0xbffa2563	-1.954266
154	0xc02b4922	-2.6763387
155	0x3f438b4b	0.7638442
156	0xc0a6e7dc	-5.215803
157	0x3ffe289b	1.9856142
158	0xc02d7e7c	-2.710845
159	0x3f80a5b7	1.0050572
160	0x3ffdd3ad	1.9830223
161	0xc082fc36	-4.0932875
162	0xbfce15e0	-1.6100426
163	0x3e1b68d7	0.15176712
164	0x3f1e52ee	0.6184529
165	0x4108d088	8.550911
166	0xbf0817ba	-0.53161204
167	0x402ded5e	2.7176127
168	0xbe58cf38	-0.21172798
169	0x3fce8638	1.613471
170	0xc02b5ebd	-2.6776574
171	0x40578026	3.3671966
172	0xbe0f0339	-0.13966073
173	0x3f5dc1b9	0.8662372
174	0xc0657938	-3.5855236
175	0xbfb1a8a5	-1.3879591
176	0x408a4c08	4.321781
177	0x40b1a26c	5.551077
178	0xc15c2bdf	-13.760711
179	0xc0b29058	-5.58012
180	0x3ba0e5fd	0.0049102292
181	0xbf6082ab	-0.87699383
182	0x3fa2b4b9	1.2711402
183	0xbfc7ff88	-1.5624857
184	0xc01cb15d	-2.4483254
185	0xbfe85e90	-1.8153858
186	0x3eb4777f	0.35247418
187	0x3fc13908	1.509553
188	0xc01a131a	-2.4074159
189	0x3f9b39bf	1.2126998
190	0x41deefdc	27.867119
191	0xc17e6a23	-15.900912
192	0x408c1e6c	4.3787136
193	0xc1264fab	-10.39445
194	0x411df543	9.872378
195	0xc008d6d9	-2.1381133
196	0x3fc845d7	1.5646313
197	0x4002b1b7	2.0420969
198	0xc0836e3a	-4.1072054
199	0xbf97e1ee	-1.1865823
200	0xbffce164	-1.9756284
201	0xbfda1f42	-1.7040789
202	0xbfc6256e	-1.5480173
203	0xbfea83eb	-1.8321508
204	0xc07d3c2c	-3.9567976
205	0xbfeae13d	-1.8349987
206	0xbeef7a9f	-0.4677324
207	0x3f1cb970	0.61220455
208	0xc046881e	-3.102058
209	0xbe53c3ba	-0.20680133
210	0xc08cb0a0	-4.3965607
211	0xc0345998	-2.8179684
212	0x3fc52360	1.540142
213	0xc01c9814	-2.446782
214	0x3f93bf6f	1.1542796
215	0x3f8857a9	1.0651752
216	0x40045ca8	2.0681553
217	0x40814bdb	4.0405097
218	0xbdb2a351	-0.087225564
219	0x400d6f59	2.2099211
220	0xbf923a25	-1.1423994
221	0xbf89ffc0	-1.0781174
222	0x40cb1c87	6.3472323
223	0x402c3265	2.6905758
224	0xbea967ab	-0.33086905
225	0x4003e4da	2.060843
226	0xbf174511	-0.5908976
227	0xbfeae9a1	-1.8352548
228	0x4035531d	2.8331978
229	0x40cec299	6.4612546
230	0x3fdfc975	1.7483355
231	0x40908ed9	4.5174375
232	0x3f85f379	1.0464927
233	0x40059c5e	2.087669
234	0x4057775e	3.3666606
235	0xbfbca2fb	-1.4737238
236	0xc0a8a99c	-5.2707043
237	0xbfe23944	-1.7673726
238	0xc04a44d1	-3.1604502
239	0xc049cd85	-3.153169
240	0xbe8dfb58	-0.27730823
241	0xc00abe68	-2.1678715
242	0x400e76b3	2.2259948
243	0x3e7bf9d3	0.24607019
244	0x40b3dee0	5.6209564
245	0xbf2f2afc	-0.68424964
246	0x3e190dde	0.14946696
247	0xc044846f	-3.070583
248	0xc022a6ca	-2.54143
249	0xbff74789	-1.9318706
250	0x4030cd5e	2.7625346
251	0x3f1c2b82	0.6100389
252	0x4074028c	3.8126554
253	0x3f076695	0.528909
254	0xc0638ff5	-3.5556614
255	0x411a5105	9.64478

gru.weight_hh_l0 f4 [60, 20]
0	0x3f1f9a68	0.6234498
1	0x3f941cf6	1.1571338
2	0xbed7f92e	-0.42182297
3	0x3c9b3f9f	0.018951235
4	0xbfb706bd	-1.4298931
5	0xbe84459b	-0.25834355
6	0xbf6971b9	-0.9118915
7	0xbfa0c3d8	-1.2559767
8	0xc021fd3a	-2.5310807
9	0x3ec0a115	0.37622896
10	0xbedd573c	-0.43230617
11	0xbfbd4174	-1.47856
12	0xbe9da301	-0.30788425
13	0xbe944070	-0.28955412
14	0x3f2e2cc6	0.6803707
15	0xbe14558e	-0.14485762
16	0x3edc148f	0.42984435
17	0x3f331a89	0.69962364
18	0xbd51e323	-0.051242005
19	0x402379eb	2.5543163
20	0xbcde868a	-0.027163763
21	0x40341a03	2.8140876
22	0x3ee6a8d2	0.45050675
23	0xbfb93539	-1.4469367
24	0xbfa45a8c	-1.2840133
25	0xbfc587d3	-1.5432075
26	0x402967ad	2.6469529
27	0xbed5cd07	-0.41757986
28	0x3fb399b4	1.4031281
29	0x3ef8d476	0.48599595
30	0x3fb21eba	1.3915627
31	0x3f4fd6db	0.8118722
32	0x3f174348	0.5908704
33	0xbf4a4b77	-0.790214
34	0xbf22eb35	-0.6364015
35	0xbf88cba0	-1.0687141
36	0x3f219fe4	0.631346
37	0xbf52ec66	-0.82391965
38	0xbf853851	-1.0407811
39	0x4005a948	2.088457
40	0xbee15a2e	-0.44014114
41	0x3f29a4a9	0.66266876
42	0x3fd4f75c	1.6637988
43	0xbf180220	-0.5937824
44	0xbd1dc243	-0.03851534
45	0x3e7af17b	0.2450618
46	0xbedfddb6	-0.4372384
47	0x3fa00bda	1.2503617
48	0xbe606645	-0.21914013
49	0xbff06742	-1.8781512
50	0xbec63185	-0.38709655
51	0x3e83d9d1	0.25752118
52	0xbeceabfc	-0.4036559
53	0xbe2716ca	-0.16317287
54	0x3fb9cd9c	1.4515872
55	0xbf1bf818	-0.60925436
56	0xbf99d247	-1.2017297
57	0x3e444f67	0.19170915
58	0x3e1e566a	0.15462652
59	0xbf28e36a	-0.65972006
60	0x3f2508fb	0.6446683
61	0xbdf2be10	-0.11852658
62	0x3fd002c5	1.6250845
63	0xbfdf1c58	-1.7430525
64	0xbf6b6a3d	-0.9195898
65	0x3ff6e7d3	1.9289497
66	0x3f357b14	0.7089093
67	0x40002324	2.0021448
68	0x3ed3da7a	0.41377622
69	0x3eab9c3b	0.33517632
70	0x3f7c6928	0.98597956
71	0x40768d9b	3.852393
72	0xbf8c69ae	-1.0969751
73	0xbf569e26	-0.83835065
74	0xc02ad8f7	-2.6694925
75	0xbc8913ef	-0.016733138
76	0x3fe2f736	1.7731693
77	0xbf8eeafa	-1.1165459
78	0xbfdf1939	-1.7429572
79	0x40725828	3.7866306
80	0x3eab7dff	0.33494565
81	0x3f80e363	1.0069393
82	0x3f2f69c8	0.68520784
83	0x3f033f1a	0.5126816
84	0x3f53d9a5	0.82753974
85	0xbf2cc738	-0.67491484
86	0x3c97d0dd	0.018532211
87	0xbeddc2a8	-0.43312573
88	0x3edd3e69	0.43211678
89	0x3f8e5779	1.1120445
90	0x3f106177	0.5639872
91	0xbf1462b2	-0.579631
92	0xbe85f10f	-0.26160476
93	0xbdc561e1	-0.096378095
94	0xbe3af2a7	-0.18256627
95	0x3cc6bdac	0.024260364
96	0x3fe5eb9c	1.7962527
97	0x3f4694d3	0.7757084
98	0xbd96976a	-0.07353099
99	0xbf8f6c36	-1.1204898
100	0x4006dcf4	2.107236
101	0x3d9d907a	0.07693572
102	0xbe7dbbf2	-0.24778727
103	0xbf700716	-0.9376081
104	0x3eb59822	0.3546763
105	0xbf9e2d88	-1.2357645
106	0x3e47fb42	0.19529441
107	0xbf4da530	-0.8033018
108	0x3f8eb23d	1.1148144
109	0xbf235857	-0.6380667
110	0x3d5e1401	0.054218296
111	0xbfee07ac	-1.8596091
112	0xbee0b303	-0.43886575
113	0xbfb85906	-1.4402168
114	0xbf6817a2	-0.9066106
115	0x3f67e72c	0.90587115
116	0xbea890fc	-0.32923114
117	0x3f7ba486	0.9829792
118	0x3d6e4869	0.058174524
119	0x3ca895c8	0.020579234
120	0xbd3680f9	-0.04455659
121	0x3e589a00	0.21152496
122	0xbf14c99a	-0.5812012
123	0xbf5b0d9f	-0.8556766
124	0x3fd451b0	1.6587429
125	0xbfc8c876	-1.5686176
126	0xbd2f9e8f	-0.042875823
127	0x3f0a7114	0.54078794
128	0x3d86864e	0.06568585
129	0xbe56652d	-0.20937033
130	0xbe9675b4	-0.29386675
131	0x3fbb513a	1.4634163
132	0xbf314b48	-0.69255495
133	0x3ea0109b	0.3126267
134	0xbf100b49	-0.5626722
135	0x400238a2	2.0347066
136	0x3f9a1ce2	1.2040064
137	0x3e8ffa06	0.2812044
138	0xbfa5d0de	-1.2954366
139	0xbd8d8fd8	-0.06912202
140	0xbe5b3c9f	-0.21409844
141	0x3fe9da32	1.8269713
142	0x3f89b1f8	1.0757437
143	0xbdf45831	-0.11930884
144	0xbe4ff818	-0.20309484
145	0xbecad2eb	-0.39614043
146	0xbe1ec1a5	-0.15503557
147	0xbee48580	-0.44633102
148	0xc004cdc4	-2.075059
149	0x3f0e2cec	0.55537295
150	0x3f09e26d	0.53861123
151	0xbf02359b	-0.50863045
152	0xbf0d86f9	-0.55284077
153	0xbf6de260	-0.92923546
154	0x3f430962	0.7618619
155	0x3f07fe85	0.5312274
156	0xbe87cbad	-0.2652258
157	0x3f99920e	1.1997697
158	0x3f940a12	1.1565573
159	0xbec62480	-0.38699722
160	0xbea3900b	-0.31945834
161	0x3f0ee26a	0.5581423
162	0xbc9261d7	-0.01786892
163	0x3b7cab9b	0.0038554433
164	0x3f1e8fa5	0.61937934
165	0x3ee64bdf	0.4497976
166	0x3e192bfe	0.14958188
167	0x3ef4462d	0.4770979
168	0x3faa20ba	1.3291237
169	0xbcc27861	-0.023739042
170	0x3d5fe04e	0.054657273
171	0xbed8e5f6	-0.42362946
172	0xbf308dc9	-0.68966347
173	0xbdf6f108	-0.12057692
174	0xbe5d3ef0	-0.2160604
175	0x3e3ca408	0.18421948
176	0xbdfe2e0f	-0.12411129
177	0xbf65ef72	-0.8981849
178	0x3ec0bdec	0.376449
179	0x3eafc470	0.34329557
180	0x3ed5c83d	0.41754332
181	0xbde5a957	-0.1121394
182	0xbf2cd83d	-0.67517453
183	0x3daa558a	0.083170965
184	0x3e949b49	0.29024723
185	0x3d69100b	0.056900065
186	0xbe62c2cd	-0.22144623
187	0xbf1d9e78	-0.6156993
188	0xbe633e70	-0.22191787
189	0xbf6693e4	-0.90069413
190	0xbf0c2490	-0.5474329
191	0x3b4ee9c9	0.0031572452
192	0x3e2ec8b1	0.17068745
193	0xbe3fd4f3	-0.18733577
194	0xbf7ae0b9	-0.9799915
195	0xbe5e9b95	-0.21739037
196	0xbcf2d686	-0.029643308
197	0xbfd85bbb	-1.6902994
198	0x3ecaebcb	0.3963302
199	0x3f336757	0.7007956
200	0x3f45ae27	0.7721886
201	0xbf3d2cbd	-0.7389639
202	0xbe89c135	-0.26905218
203	0x3f1f2871	0.62171084
204	0x3f30dace	0.6908387
205	0x3e85e4e6	0.26151198
206	0xbe205b58	-0.15659845
207	0x3d1356e1	0.035971526
208	0x3f902951	1.1262609
209	0xbe75f218	-0.24018133
210	0x3f54e53b	0.8316228
211	0x3ee0d0c6	0.43909281
212	0x3ebbeadc	0.3670262
213	0x3da6eec3	0.08151009
214	0x3f0e1690	0.5550318
215	0x3e0cb4c7	0.13740836
216	0xbde3b811	-0.11119092
217	0x3f01c59f	0.5069217
218	0x3ee48b80	0.4463768
219	0xbf215f8c	-0.6303642
220	0x3ddcfe19	0.10790653
221	0xbe8975b3	-0.2684761
222	0xbe203a71	-0.15647294
223	0x3f8c1959	1.0945235
224	0x3edf51d3	0.43617114
225	0x3fa3a3d6	1.2784374
226	0x3e800bd3	0.2500902
227	0x3fe74c55	1.807017
228	0x3f0855ea	0.53256094
229	0xbf2dd61a	-0.6790482
230	0x3eceab17	0.40364906
231	0x3f5d13e7	0.86358494
232	0x3d616b4c	0.055033967
233	0xbc9af164	-0.018913932
234	0x3ec1b0e2	0.37830263
235	0xbf95216e	-1.1650827
236	0x3e129c17	0.14317356
237	0x3f0300ae	0.5117291
238	0x3fc50530	1.5392208
239	0x3f93e5a0	1.1554451
240	0x3eb46486	0.35232943
241	0xbe74f349	-0.23920931
242	0x3f186d9c	0.5954225
243	0x3f192c10	0.5983286
244	0xbc5d3a07	-0.013502604
245	0xbedb1484	-0.4278909
246	0xbeb2bf05	-0.3491136
247	0xbe144ab7	-0.14481626
248	0x3f935f9d	1.1513554
249	0xbf9786be	-1.1837995
250	0x3ea32b8a	0.31869155
251	0x3f3b1c59	0.7309013
252	0x3df2c0ad	0.11853156
253	0xbfce90e8	-1.6137972
254	0xbe18c585	-0.14919098
255	0x3e997c8b	0.2997783

gru.bias_ih_l0 f4 [60]
0	0xbed615e6	-0.41813582
1	0xbf88a117	-1.0674161
2	0xbf98a898	-1.1926451
3	0x3e94b742	0.29046065
4	0xbf99591d	-1.198032
5	0xbff50cf6	-1.914458
6	0x3dd4fa2e	0.103992805
7	0xbfd8afb8	-1.6928625
8	0xbfde56c9	-1.7370235
9	0xbfa4c5c2	-1.2872851
10	0xbf900aa9	-1.1253253
11	0xbfa7dd67	-1.3114442
12	0xbf1c4f19	-0.61058193
13	0xbf001285	-0.5002826
14	0xbfcd5767	-1.6042298
15	0xbf380193	-0.718774
16	0xbfafbaf7	-1.3728932
17	0xbfe753cd	-1.8072449
18	0xbeea218e	-0.45728725
19	0xc0074cb6	-2.114057
20	0xbe937ac8	-0.28804612
21	0x3f0cf5fc	0.5506284
22	0xbfcad63b	-1.5846628
23	0xbf093f43	-0.53612155
24	0xbf70e955	-0.94106036
25	0xbf98c8c1	-1.1936265
26	0x3e91ed7e	0.28501505
27	0xbe80d767	-0.2516434
28	0xbea93f2a	-0.33056003
29	0xbedc1941	-0.42988017
30	0xbf75404d	-0.9580124
31	0x3f1b9308	0.60771227
32	0xbc69f7c1	-0.014280261
33	0xbebea41d	-0.37234583
34	0xbe4ecb04	-0.20194632
35	0xbef06bbb	-0.46957192
36	0xbf9140ef	-1.1347941
37	0x3e9bd87d	0.30438605
38	0xc0584f7f	-3.379852
39	0xbf03ad06	-0.5143589
40	0xbedc9713	-0.4308401
41	0xbe8d3fe8	-0.2758782
42	0xbcffe6f1	-0.031238051
43	0xbef0444c	-0.46927106
44	0xbdbe5ea9	-0.09295399
45	0xbc85bc5c	-0.016325168
46	0xbd249334	-0.040179446
47	0x3e0426b7	0.12905394
48	0xbca89b89	-0.020581977
49	0x3e917179	0.28406885
50	0xbd8b12dd	-0.06790707
51	0x3bc4704a	0.005994831
52	0x3e0a3954	0.13498431
53	0x3bc5c348	0.006035242
54	0xbe4349ae	-0.19071075
55	0xbe0078d2	-0.1254609
56	0xbcf795e1	-0.030222835
57	0x3deb35dc	0.11484882
58	0xbe68ea28	-0.22745574
59	0x3e7afcba	0.2451047

gru.bias_hh_l0 f4 [60]
0	0xbea555b6	-0.32291955
1	0xbf4c5f5c	-0.79833007
2	0xbfbbdeb1	-1.4677335
3	0x3dedeec4	0.116178066
4	0xbf95368f	-1.1657275
5	0xbff43991	-1.9080068
6	0xbd3a55a9	-0.04549185
7	0xbff2adc6	-1.8959281
8	0xbfb07c9f	-1.3788031
9	0xbfaf6262	-1.3701899
10	0xbf81d6f7	-1.0143727
11	0xbfab241d	-1.3370396
12	0xbf577494	-0.8416226
13	0xbef039b6	-0.4691903
14	0xbfcb6689	-1.5890666
15	0xbf1f8562	-0.623129
16	0xbfa68d95	-1.3011957
17	0xbfc0ceb0	-1.5063076
18	0xbd9b75b9	-0.07590813
19	0xbfe90cac	-1.8206992
20	0xbec91660	-0.39274883
21	0x3f1132ed	0.5671833
22	0xbfd5be8c	-1.6698775
23	0xbee5201e	-0.44751066
24	0xbf902972	-1.1262648
25	0xbf9ca94f	-1.2239169
26	0x3f20667c	0.6265638
27	0xbe06de60	-0.13170767
28	0xbe97c479	-0.29642084
29	0xbe9d8a8f	-0.30769774
30	0xbfafe1c0	-1.3740768
31	0x3ef072ea	0.46962672
32	0x3e539762	0.20663217
33	0xbed5e4fd	-0.41776267
34	0xbe77436c	-0.24146813
35	0xbe997aab	-0.299764
36	0xbf3c7fec	-0.73632693
37	0xbd1b8ab6	-0.037974082
38	0xc053cd38	-3.3094006
39	0xbedca057	-0.4309108
40	0xbe12a54e	-0.14320871
41	0x3e2e44b7	0.170184
42	0xbf8b4e64	-1.0883298
43	0x3ed6b2cd	0.4193329
44	0x3fc37d57	1.5272626
45	0xbfa97988	-1.3240213
46	0x3e28500c	0.16436785
47	0xbfaa0e75	-1.3285662
48	0xbf9d37c2	-1.2282641
49	0xc01663d8	-2.349844
50	0x3e0413ca	0.12898174
51	0x3fc28fb3	1.5200104
52	0x3c7fddb6	0.015616825
53	0x3f3cc4a0	0.73737526
54	0xbf79fcd7	-0.9765143
55	0x3f53f76f	0.8279943
56	0xbf5bf30b	-0.8591773
57	0x3c2ce460	0.010552496
58	0x3ed69d42	0.41916853
59	0x3f1b6cb3	0.60712737

gru.weight_ih_l1 f4 [60, 20]
0	0x3f4df91c	0.80458236
1	0xc08b624b	-4.3557487
2	0x3fb19863	1.387463
3	0xbf320c47	-0.69549984
4	0x3fcc9b7c	1.598495
5	0xc0a0b960	-5.022629
6	0x3fa2ccd4	1.2718759
7	0x4086617b	4.1993995
8	0x3effc277	0.49953052
9	0x3e764303	0.24049
10	0xc0309520	-2.7591019
11	0x40798fbc	3.8993979
12	0xc051e99a	-3.279883
13	0xbd6c1b70	-0.057643354
14	0x3f06b88d	0.5262535
15	0x3f345ab3	0.70450896
16	0x40c7025f	6.2190394
17	0xbf5979fe	-0.8495177
18	0x3f84c574	1.0372758
19	0x3fa75b39	1.3074714
20	0xbf92de57	-1.1474103
21	0x3ff701f3	1.929747
22	0x40ab1438	5.346218
23	0x3fe267de	1.7687948
24	0xbfd4d013	-1.6625999
25	0x40900758	4.5008965
26	0x3fe387c1	1.7775804
27	0x3f193ddf	0.5986003
28	0xc0792e23	-3.893441
29	0xc01b14a4	-2.4231348
30	0x40ce2a82	6.442689
31	0x4002991f	2.0405958
32	0x3ef1fdb3	0.4726387
33	0xbf88902a	-1.0668995
34	0xc0d04e92	-6.509591
35	0x4040a085	3.0097973
36	0x3f902cc1	1.1263658
37	0xbee47885	-0.446232
38	0x3fdccace	1.7249391
39	0x41474be8	12.456032
40	0xbfd76ca9	-1.6830035
41	0xbfc3b7d3	-1.5290474
42	0xc06ff577	-3.749357
43	0x40ceffbf	6.468719
44	0xc090c33c	-4.5238323
45	0x3e6fb467	0.23408662
46	0x40f79c5b	7.7378364
47	0xc0d03835	-6.506861
48	0xc08a18e0	-4.3155365
49	0xc0e21910	-7.0655594
50	0xc069f1f2	-3.6553922
51	0x3ea96a87	0.33089086
52	0x40b6bedc	5.7107983
53	0xc085decd	-4.1834474
54	0x40dcaeef	6.896354
55	0x41178b17	9.4714575
56	0x3eadd3a2	0.33950526
57	0x3fdbd7a6	1.7175186
58	0x3ef0d447	0.47036955
59	0x415c6973	13.775744
60	0x3f90987b	1.1296533
61	0xc06790fd	-3.6182244
62	0xc0a130ce	-5.0372076
63	0x408d237b	4.410581
64	0xc0af0f2a	-5.470601
65	0xc13fcf91	-11.988175
66	0xbfb82ea7	-1.4389237
67	0x40fab651	7.8347554
68	0x4067eb47	3.6237352
69	0x412c8b6d	10.7840395
70	0x4022e79a	2.5453858
71	0xc149a0a6	-12.601721
72	0x40e171a8	7.045124
73	0xc04eeb32	-3.2331052
74	0x412b6eb6	10.714529
75	0xc0834e84	-4.1033344
76	0x40839c52	4.112832
77	0x40b0c467	5.523975
78	0xc00b04e0	-2.1721725
79	0x40fb75e6	7.858142
80	0xc04d0b49	-3.2038138
81	0x3f79f96e	0.97646224
82	0x401cca54	2.4498491
83	0xbfa592f7	-1.2935475
84	0x3e142662	0.14467767
85	0x407037a9	3.7533972
86	0x400998aa	2.1499429
87	0x410020bb	8.007991
88	0x4113d9d6	9.240683
89	0xc04ee6a9	-3.2328284
90	0x4020df71	2.5136378
91	0xbf82fb1f	-1.0232886
92	0xbfb5b4ca	-1.4195797
93	0xc03571e4	-2.8350763
94	0x413fee2b	11.995646
95	0x4006fa0e	2.1090121
96	0x40c19f64	6.050707
97	0xbf3278b4	-0.6971543
98	0x406aa5b2	3.6663632
99	0xbfa2babb	-1.2713236
100	0xbf82f215	-1.0230128
101	0xbfb3e58f	-1.4054431
102	0xbfa5102e	-1.2895563
103	0xbf763d11	-0.9618693
104	0x3fd9a3ea	1.7003148
105	0xc08bd511	-4.369759
106	0xbf81fa6b	-1.0154546
107	0x3f5ed48f	0.8704309
108	0xbfb2e943	-1.3977436
109	0x408770f5	4.2325387
110	0x3f503cb1	0.8134261
111	0x3eff4e42	0.49864393
112	0x404e7da7	3.2264192
113	0xc041fac0	-3.0309296
114	0x4028445b	2.629172
115	0x404e9ef6	3.2284522
116	0x3fca6390	1.5811634
117	0xc0571de6	-3.3611999
118	0x3f8e7ba6	1.1131485
119	0xc016572a	-2.34907
120	0xbd967be0	-0.07347846
121	0x3ea3430f	0.318871
122	0x3d0840a5	0.033264775
123	0xbfc55411	-1.541628
124	0x3ff9c7aa	1.9514058
125	0x3f7e67b7	0.99377006
126	0x3f29bbfc	0.66302466
127	0x3ed3be15	0.4135596
128	0xc02de4a6	-2.7170806
129	0xbe77b531	-0.24190213
130	0xbe3fdac3	-0.18735795
131	0xbefffacb	-0.49996027
132	0x3fca8eff	1.5824889
133	0xc0012210	-2.017704
134	0x4034e024	2.8261805
135	0x401ab2e9	2.4171698
136	0xbeaf8934	-0.34284365
137	0x3ecc6fb3	0.3992897
138	0xc0128a43	-2.2896888
139	0xbf30d0c6	-0.69068563
140	0x40213066	2.518579
141	0xc0bd07e8	-5.907215
142	0x40d41092	6.6270227
143	0xc0100976	-2.2505774
144	0xbf8dc42b	-1.1075491
145	0x3f8c8569	1.0978214
146	0x3fc87f62	1.5663874
147	0xc0812ad4	-4.036478
148	0xc165ba83	-14.358035
149	0xc018d498	-2.3879757
150	0xc097305c	-4.7246532
151	0xc0470e8a	-3.1102624
152	0x40987119	4.763806
153	0x40e0dcd2	7.0269556
154	0xbfcc2e95	-1.5951716
155	0x40549120	3.3213577
156	0x40e556c7	7.166843
157	0x402ac7b6	2.6684394
158	0x3fc33926	1.5251815
159	0x4084506b	4.1348166
160	0x404f7d55	3.2420247
161	0xbff152be	-1.8853376
162	0xbfd960f4	-1.6982713
163	0xbd3e8ee4	-0.04652299
164	0xbf283783	-0.65709704
165	0x400beb9a	2.186255
166	0x3f46f73f	0.7772102
167	0x3d0ff374	0.035144284
168	0x402d846f	2.711208
169	0x3e804372	0.25051457
170	0x3ed07b8e	0.40719265
171	0x4006b121	2.104561
172	0x3f93131f	1.149021
173	0x3e9e6f6d	0.30944386
174	0x40011fef	2.017574
175	0x4021a9cb	2.5259883
176	0x3f357a58	0.70889807
177	0x403912cf	2.891773
178	0x3e7e9593	0.24861746
179	0x3f91e50d	1.1398026
180	0x3b9438c4	0.0045233686
181	0xbd49b156	-0.049241386
182	0x40579ec6	3.3690658
183	0xbefb6f95	-0.49108568
184	0xbfc112b9	-1.5083839
185	0x3f758f23	0.95921534
186	0xbd28f3f3	-0.041248273
187	0x400fbb63	2.2458122
188	0xbe71e707	-0.23623286
189	0xc00381a5	-2.0547879
190	0x3faae293	1.3350395
191	0x403e1a87	2.970369
192	0xbef1b543	-0.47208604
193	0x3f4c36a5	0.7977088
194	0x403aa951	2.9165843
195	0x400290bd	2.0400841
196	0xbf45767c	-0.7713392
197	0x4018ac0c	2.385501
198	0x3f6d16e7	0.9261307
199	0x40c0cec5	6.0252404
200	0x3e99ed80	0.3006401
201	0x4068ba05	3.6363537
202	0xbfa5d749	-1.2956325
203	0x3f942a7f	1.1575469
204	0xc0234ad5	-2.5514424
205	0xc07fb48e	-3.9953952
206	0xc0cd0e3b	-6.407987
207	0x4177c50d	15.485608
208	0x411246c6	9.142279
209	0x40a31301	5.09607
210	0xc136751d	-11.403592
211	0x3f6d84ef	0.92780966
212	0xc0a85803	-5.2607436
213	0xc009ee38	-2.1551647
214	0xc0ec981e	-7.393569
215	0xc0e19f0c	-7.050665
216	0xc0966cbf	-4.7007747
217	0xc02979a6	-2.6480498
218	0xbff0ad37	-1.8802861
219	0x412e893a	10.908503
220	0xbfdc1d7b	-1.7196497
221	0xc109506c	-8.582134
222	0x409f103d	4.970732
223	0xc0442816	-3.0649467
224	0xc07eaa8e	-3.9791598
225	0x40f90846	7.78226
226	0x3ffced15	1.9759852
227	0xc002d324	-2.044137
228	0x413227fa	11.13476
229	0xc0e985f7	-7.297603
230	0x40c49818	6.143566
231	0x40db961e	6.862075
232	0x3fb857cf	1.4401797
233	0xc087d8be	-4.245208
234	0xbfcf0615	-1.6173731
235	0x4173a68d	15.228162
236	0xbfbeafa5	-1.4897352
237	0x3fa83077	1.313979
238	0xc08fd630	-4.494896
239	0x40a68a0f	5.204353
240	0x3fe386d1	1.7775518
241	0x402a8771	2.6645167
242	0x4070bbae	3.761455
243	0xbf7758f3	-0.966201
244	0xc0ba0ad1	-5.8138204
245	0xbfb7bc04	-1.4354253
246	0x3ff753f4	1.9322495
247	0xc0a1c011	-5.0546956
248	0xbf36da02	-0.71426404
249	0xbe801704	-0.2501756
250	0xbf3df89a	-0.7420746
251	0xbf895abd	-1.0730816
252	0x4027988a	2.6186852
253	0xc003891a	-2.055243
254	0xc012ea8f	-2.2955663
255	0xc02cab5d	-2.6979592

gru.weight_hh_l1 f4 [60, 20]
0	0x3f3e4dc2	0.743374
1	0xbfc29760	-1.5202446
2	0xbeb4cf17	-0.35314247
3	0x3f29d0cc	0.66334224
4	0x3f30a7ca	0.69006026
5	0x3f63daa1	0.89005476
6	0x3e1e08f9	0.1543311
7	0x3f254885	0.6456378
8	0x3fc58e0b	1.5433973
9	0x3f966241	1.1748735
10	0x3fa21584	1.2662816
11	0xbfad8ca5	-1.3558546
12	0x3fb1c474	1.3888078
13	0x3e21fdef	0.15819524
14	0x3f6877c8	0.9080777
15	0xbfe7508b	-1.8071455
16	0x3eeaf45a	0.4588955
17	0x3e3c3800	0.18380737
18	0xbfd391a5	-1.6528822
19	0x3ee383e6	0.44436568
20	0xbe7adbdf	-0.24497937
21	0xbdbf2972	-0.09334077
22	0xbfad3f05	-1.3534857
23	0xbf4fcb89	-0.81169945
24	0xbebdf8a1	-0.3710375
25	0x3fcc7a91	1.5974904
26	0x400c5d6d	2.1932023
27	0xbe58b2b7	-0.21161924
28	0xbf94e312	-1.1631796
29	0xbf4aaf5c	-0.7917383
30	0x3f99bb1f	1.201023
31	0x3fcf2999	1.618457
32	0x3d059c1d	0.032619584
33	0x40123d70	2.2849998
34	0x3e5c711b	0.21527521
35	0xc0267056	-2.6006064
36	0xc04d517e	-3.208099
37	0xbfc02088	-1.5009928
38	0x3fee1650	1.8600559
39	0x3ff87d6a	1.9413273
40	0xc0833311	-4.0999837
41	0xbfe2699b	-1.7688478
42	0xc0009f0d	-2.0097077
43	0xbe8ca404	-0.27468884
44	0xbef51797	-0.4786956
45	0x3e89fa2a	0.26948673
46	0x3f2d3d7f	0.6767196
47	0x3f1d6610	0.6148386
48	0x3ff8357c	1.9391322
49	0xbf94e655	-1.1632792
50	0xbdb0c567	-0.086314015
51	0xbfe56ec1	-1.7924424
52	0xc042eb1e	-3.0456004
53	0xbfe195d6	-1.7623851
54	0x3fa60c99	1.2972594
55	0x3f2b8145	0.66994125
56	0x3f7d4407	0.98931926
57	0xbf8c9dca	-1.0985653
58	0x3ec41609	0.3829806
59	0x3f42c9a6	0.7608894
60	0xbf90cf6c	-1.13133
61	0xbfc811d0	-1.5630436
62	0xbec054a5	-0.3756458
63	0xc00c290d	-2.1900055
64	0xbeedaa06	-0.4641878
65	0x3e3abd90	0.18236375
66	0xbf7320b9	-0.94971806
67	0x4070ce5e	3.7625957
68	0xc0554225	-3.3321621
69	0xbf1dae64	-0.61594224
70	0xbf99372c	-1.1969962
71	0x3e91844c	0.28421247
72	0x3f6048b5	0.8761094
73	0x3fac495c	1.3459888
74	0x3ec9d5b1	0.39420846
75	0x3ea567ba	0.323057
76	0x3fa27dba	1.2694619
77	0xbe915322	-0.28383738
78	0x4001ebb4	2.0300112
79	0xbf73c454	-0.9522145
80	0xc084de11	-4.1521077
81	0xbfae1c66	-1.3602417
82	0xbf916615	-1.1359278
83	0x3a23cdb2	0.00062486075
84	0xbfcca6b7	-1.5988377
85	0xbf82ae70	-1.0209484
86	0xc028313f	-2.6280057
87	0x40a8a8e2	5.2706156
88	0xbed6ab2c	-0.4192747
89	0xbff42851	-1.9074804
90	0xc01a73cb	-2.4133174
91	0x3fc31db1	1.5243436
92	0x3fdff408	1.7496347
93	0x3fd819be	1.6882856
94	0xbf894aee	-1.0725992
95	0xc009db9f	-2.1540296
96	0xbf8fb9e2	-1.1228602
97	0x401f7bd5	2.491933
98	0xbf9436aa	-1.1579182
99	0xbf064bd7	-0.5245947
100	0x3e7ab0e1	0.24481536
101	0xbeb2cac3	-0.3492032
102	0x3f22d5c5	0.63607436
103	0xbe42d0e4	-0.19024998
104	0x3f0cab37	0.54948753
105	0xbd0dac26	-0.034588
106	0xbda0822e	-0.0783733
107	0xbe6a1ddd	-0.22862954
108	0x3f0f6d15	0.5602582
109	0xbf15a871	-0.58460146
110	0xbeca3540	-0.39493752
111	0xbdf1212d	-0.11773906
112	0x3faf940a	1.3717053
113	0xbf8ec564	-1.1153989
114	0xbf2a022c	-0.66409564
115	0xbf223968	-0.63368845
116	0xbf681749	-0.9066053
117	0xbfb638fc	-1.423614
118	0xbf2d4222	-0.67679036
119	0xbcba0d70	-0.022711486
120	0xbeabe3b9	-0.33572176
121	0x3f01fac7	0.5077328
122	0xbf823cd9	-1.0174819
123	0xbf02212e	-0.5083188
124	0xbe9ed237	-0.31019756
125	0x3debaaa1	0.11507154
126	0xbea1210c	-0.31470525
127	0xc0156be2	-2.3347096
128	0x3f187e9b	0.59568185
129	0x3e69cd25	0.22832163
130	0x3f3fbbc6	0.74895895
131	0xbfbaf599	-1.46062
132	0xbde1ac37	-0.110191755
133	0x3e3166e0	0.173244
134	0xbe9fb890	-0.31195498
135	0x3f924c2c	1.1429496
136	0xbfb29db0	-1.3954372
137	0x3fde581c	1.7370639
138	0x3faf5b39	1.3699714
139	0x3e944720	0.28960514
140	0xbfb76534	-1.432776
141	0xbef5d834	-0.48016512
142	0xbe0293a6	-0.12751636
143	0x4025a1b9	2.5879958
144	0xbf86cce2	-1.0531275
145	0xbf44a49c	-0.76813674
146	0xbf19065c	-0.5977533
147	0xbe930537	-0.28714916
148	0xbf7ac7e6	-0.9796127
149	0xbf6fb639	-0.93637425
150	0xbf70804a	-0.93945754
151	0xbd4e45f7	-0.050359692
152	0xbebb05e5	-0.36527935
153	0x3eec0139	0.46094683
154	0x3f4b46cd	0.7940491
155	0x401d263a	2.4554582
156	0x3ea27489	0.31729534
157	0x3e7b29df	0.24527691
158	0x3ffd6500	1.9796448
159	0x3fbddf00	1.4833679
160	0xbfa121cc	-1.2588439
161	0x4018f7b5	2.3901188
162	0xbe9a8f43	-0.30187425
163	0xbf38790f	-0.7205972
164	0x3fdb6413	1.7139915
165	0xbee20a60	-0.4414854
166	0xbef8fb7e	-0.48629373
167	0x3fa46ebf	1.2846297
168	0xbec46719	-0.38359907
169	0xbe5d849e	-0.2163262
170	0xbded4388	-0.11585146
171	0xbf157c83	-0.58393115
172	0x3e9ff45e	0.31241125
173	0x3fabc4c1	1.341942
174	0x3d5f2ab0	0.05448407
175	0x3e6e171c	0.23251003
176	0xbf36dde9	-0.7143236
177	0xbfa94a18	-1.3225737
178	0xbf433b93	-0.7626278
179	0xbefd49e1	-0.49470428
180	0xbe735483	-0.23762707
181	0x3dcbb30e	0.09946261
182	0x3e54f9c9	0.2079841
183	0x3f34297a	0.7037579
184	0xbbd73aaa	-0.0065682726
185	0xbe8fe26a	-0.28102428
186	0xbec0444e	-0.37552112
187	0xbf11d704	-0.5696871
188	0xbdc2d940	-0.095140934
189	0xbe085124	-0.13312203
190	0xbeb9f129	-0.36316803
191	0xbf66fcbe	-0.90229404
192	0xbd874d65	-0.06606559
193	0x3e444fab	0.19171016
194	0xbfd6535a	-1.6744187
195	0x3f55c871	0.83508974
196	0x3e0a595e	0.13510653
197	0x3f6666c2	0.90000546
198	0x3f35e9c8	0.71059847
199	0xbdee4096	-0.116334125
200	0xbd37dff3	-0.04489131
201	0x3f2e6b79	0.6813274
202	0x3f086dd0	0.5329256
203	0x3ff1052c	1.8829703
204	0x3fa43344	1.2828145
205	0x3febae36	1.841254
206	0x3f4dd9c0	0.80410385
207	0x3fa37bf3	1.2772201
208	0xbfd76ab4	-1.6829438
209	0xc017c92e	-2.371654
210	0x3f7cbf1f	0.9872913
211	0x3fd5098b	1.6643537
212	0x40601656	3.5013633
213	0x3f30e8d8	0.6910529
214	0x3f26c4f0	0.6514425
215	0x400b9167	2.1807497
216	0x4030d1d3	2.7628067
217	0xbec96780	-0.39336777
218	0x3dbc10f5	0.09182922
219	0xbf862e60	-1.0482903
220	0x3fed6882	1.8547518
221	0xc021c275	-2.5274937
222	0x3f8690a9	1.0512897
223	0xc02ec288	-2.7306232
224	0x40886e35	4.263453
225	0xbe826530	-0.25467825
226	0xbfb5667b	-1.41719
227	0xc02fe066	-2.7480712
228	0x3f850dda	1.0394852
229	0x3f5808b7	0.843883
230	0xc0352014	-2.830083
231	0xbfec2515	-1.8448817
232	0x404d1e5b	3.2049778
233	0xc02aafd4	-2.6669817
234	0x40541a38	3.3141003
235	0x3c244649	0.010026523
236	0x40865535	4.1979012
237	0x40692fd4	3.6435442
238	0x3f90a86a	1.1301396
239	0x4019b764	2.4018183
240	0x3f6ff6a1	0.937357
241	0xbe8aab8c	-0.27084005
242	0x3b35e9c5	0.0027757746
243	0xbf2bb2cc	-0.670697
244	0x3f191115	0.5979169
245	0x3e4ee63a	0.20205012
246	0x3ee11615	0.4396216
247	0x3fa1aafc	1.2630305
248	0x3edd2c6a	0.43197948
249	0xbfa69af6	-1.301604
250	0x3f0161ba	0.50539744
251	0x3e168b4d	0.14701577
252	0xbf8d1b36	-1.1023929
253	0xbfc6b4e6	-1.5523956
254	0xbda0aea3	-0.07845809
255	0x3d900a57	0.07033222

gru.bias_ih_l1 f4 [60]
0	0x3ec9e2f7	0.39430973
1	0x3e08d6cf	0.13363193
2	0x3fd5c2e2	1.6700099
3	0xbffa270a	-1.9543164
4	0xbeb7d098	-0.35901332
5	0x3f46c080	0.7763748
6	0x3f414b0c	0.7550514
7	0x3fbc5fff	1.4716796
8	0xbea7aead	-0.32750455
9	0xbf6ed3f0	-0.9329214
10	0xbfc28a19	-1.5198394
11	0x40935daf	4.605186
12	0xbdca1101	-0.098665245
13	0xbfdc69df	-1.7219809
14	0xbfaa0ee2	-1.3285792
15	0x40103119	2.2529967
16	0xbfa2eceb	-1.2728552
17	0x3f2b7db9	0.6698871
18	0xbf414f33	-0.75511473
19	0xbd498695	-0.049200613
20	0xbe3b9cb4	-0.18321496
21	0xbe402ad5	-0.18766339
22	0x3f4b5e82	0.7944108
23	0xbf106a84	-0.5641253
24	0xbed1c916	-0.4097373
25	0xc08bea3a	-4.372342
26	0xbefba17d	-0.49146643
27	0xbf9b1d5e	-1.2118337
28	0xbfa1e20d	-1.264711
29	0x3f259200	0.64675903
30	0xbfbb7af2	-1.4646895
31	0xc0c4ab36	-6.1459
32	0xbf55851c	-0.83406234
33	0xc095205d	-4.6602006
34	0xbf0835c5	-0.53207046
35	0xc055cc4f	-3.340595
36	0xbfb5074f	-1.4142855
37	0xbf6b308e	-0.91870964
38	0xc052b91e	-3.2925487
39	0x3f6ae2c5	0.9175227
40	0x3e48b463	0.19600062
41	0xbe1c3e72	-0.15258196
42	0x3f1c613f	0.61085886
43	0xbdd3348f	-0.10312759
44	0xbcb35561	-0.021891298
45	0xbfb647de	-1.4240682
46	0xbf252a69	-0.6451784
47	0xbdade97a	-0.08491798
48	0x3ed6ee1a	0.41978532
49	0xbf52b93c	-0.82313895
50	0x3f98c5fb	1.1935419
51	0xbf280a3d	-0.6564062
52	0x3f139824	0.57654023
53	0x3eb3da58	0.3512752
54	0xbea76d14	-0.32700408
55	0xbe2a04ff	-0.16603468
56	0x3cb29795	0.021800796
57	0x3e9fed6e	0.31235832
58	0x3da63655	0.08115832
59	0x3f2a4dbc	0.66524863

gru.bias_hh_l1 f4 [60]
0	0x3ed675ba	0.41886693
1	0x3c8c3a09	0.017117517
2	0x3fe54542	1.7911761
3	0xbfd0be58	-1.6308088
4	0xbec9a7dc	-0.3938588
5	0x3f217b80	0.6307907
6	0x3f3b8204	0.73245263
7	0x3fb94372	1.4473708
8	0xbede1a5d	-0.4337949
9	0xbf7b8311	-0.98246866
10	0xbfe3db54	-1.7801309
11	0x40969c48	4.7065773
12	0xbced39cb	-0.028958222
13	0xbfb28a11	-1.3948385
14	0xbf90b78c	-1.1306014
15	0x401a987d	2.4155571
16	0xbf917f11	-1.1366903
17	0x3f2218c6	0.6331905
18	0xbf3787ea	-0.71691763
19	0x3e71e003	0.2362061
20	0xbd7269c4	-0.059182897
21	0xbe5ce1d7	-0.21570526
22	0x3f3d0393	0.7383358
23	0xbf4bc372	-0.795951
24	0xbeda7385	-0.4266626
25	0xc091815f	-4.5470424
26	0xbf035f95	-0.5131772
27	0xbf6ef8db	-0.93348473
28	0xbf8935cd	-1.0719544
29	0x3f5bd54b	0.85872334
30	0xbfa848e3	-1.3147243
31	0xc0c1a60d	-6.05152
32	0xbf4e9dd1	-0.8070956
33	0xc08cd1f7	-4.4006305
34	0xbe9bca05	-0.30427566
35	0xc0513173	-3.2686431
36	0xbf9b2c5f	-1.2122916
37	0xbf517806	-0.81823766
38	0xc051f8c5	-3.2808087
39	0x3f922ef3	1.1420578
40	0xbf63ef0e	-0.89036644
41	0xbe9982e1	-0.29982665
42	0x40186886	2.3813796
43	0xbd9fc46e	-0.07801138
44	0xbe1a8ac6	-0.15092
45	0xbf09a8a3	-0.53772944
46	0xc007cc64	-2.12185
47	0xbe426aaf	-0.18986009
48	0x3e8d4ad9	0.27596167
49	0x3d96d0be	0.07364033
50	0x3f02a774	0.51036763
51	0xbf7020b8	-0.93799925
52	0x3f076816	0.528932
53	0x3f0617b9	0.5237995
54	0x3ede04e6	0.43363112
55	0x40364ff8	2.848631
56	0xbfc9f11e	-1.5776708
57	0x3e680664	0.22658688
58	0xbef70baa	-0.48251086
59	0x3ea3014f	0.31836936

fc.weight f4 [25, 20]
0	0x4204ea7d	33.228992
1	0xc0b55f3f	-5.6678767
2	0xc223709e	-40.859978
3	0xc21ea9d6	-39.665855
4	0x41f78013	30.937536
5	0x41b4d10a	22.60207
6	0xc10d4047	-8.828193
7	0x41e282e4	28.313911
8	0xc096b06a	-4.709035
9	0xc1a112f0	-20.134247
10	0xc0f1c0d2	-7.5547876
11	0x4100a5fe	8.040525
12	0xc19d25ff	-19.643553
13	0xc28a9ed1	-69.31019
14	0xc22b4ea1	-42.826786
15	0xc285122d	-66.5355
16	0x42b7c9ad	91.8939
17	0x416c2cf0	14.760971
18	0xc1cdb293	-25.712194
19	0x423a2801	46.539066
20	0x40dc74b7	6.8892474
21	0x412a302f	10.636764
22	0x3f33eb60	0.7028103
23	0xc23fd79c	-47.960556
24	0x41d3b4fe	26.463375
25	0x416732e6	14.449926
26	0x41897375	17.181376
27	0x41b5eb4a	22.739887
28	0xbfcb3c53	-1.5877784
29	0x4120846e	10.032331
30	0x410232a3	8.1373625
31	0xc0a8404a	-5.257848
32	0x405b4b00	3.4264526
33	0xc285fb50	-66.990845
34	0xc2187378	-38.112762
35	0x4116402d	9.390668
36	0x41f048f5	30.035624
37	0xbf07458b	-0.5284049
38	0x40e4df64	7.1522694
39	0x423481bf	45.126705
40	0x400dcf8b	2.2157924
41	0xc086dbdd	-4.214339
42	0xbfe213e7	-1.7662324
43	0x40178ba2	2.3678975
44	0xc0b067db	-5.5126777
45	0x3f02c34c	0.5107925
46	0xc184dd9c	-16.608208
47	0x41576a0f	13.463393
48	0x3f7ecdaa	0.9953257
49	0x410e4c71	8.893662
50	0x4179247f	15.57141
51	0xc1507859	-13.029382
52	0xc106783e	-8.404356
53	0x41c5ae2a	24.710041
54	0x410c6a14	8.775898
55	0xc1aea3ec	-21.83004
56	0xc1ab1d67	-21.389357
57	0xc0562b8e	-3.3464084
58	0x40903e59	4.507611
59	0xc11111e9	-9.066873
60	0xc1c98140	-25.18811
61	0x404026af	3.002361
62	0xc01c4130	-2.4414787
63	0x420c9afa	35.151344
64	0xc19eeb10	-19.864777
65	0xc0a58f87	-5.1737704
66	0x3ff84fb8	1.9399328
67	0xc2489edb	-50.155132
68	0xbf6563ae	-0.89605224
69	0x3fd72ce2	1.6810572
70	0xc257ec98	-53.98105
71	0x41c44c52	24.537266
72	0xc154aced	-13.292218
73	0x41968d22	18.818913
74	0x4149983c	12.599667
75	0x4185d2d2	16.72794
76	0xc08598f2	-4.17492
77	0xbfa2f3c9	-1.2730647
78	0xc0bd62b0	-5.918297
79	0xc1687463	-14.528415
80	0x405b200b	3.4238307
81	0x41e3b308	28.462418
82	0x41c46584	24.549568
83	0x413c80ac	11.781414
84	0xc2b6cab8	-91.395935
85	0xc13d5e85	-11.835576
86	0x406731a9	3.612406
87	0xc204e8da	-33.227394
88	0x3f97d1f6	1.186095
89	0xc188b104	-17.086433
90	0xc29cffbf	-78.499504
91	0x41f2e62d	30.36239
92	0x426d8a70	59.385193
93	0x4108aebb	8.542659
94	0x425e7183	55.61085
95	0xc128b12c	-10.543255
96	0x425abc97	54.68417
97	0x419efcb4	19.87339
98	0xc18d6fc3	-17.679571
99	0x411a1fe7	9.632789
100	0x42809b04	64.302765
101	0x4157ad0e	13.47975
102	0xc1b43f4e	-22.53091
103	0xc1af42df	-21.907652
104	0xc107f4f3	-8.497302
105	0x4249bf91	50.437077
106	0x4231067b	44.25633
107	0xc15f5da3	-13.960361
108	0x425f4eaa	55.82682
109	0xc0655c4c	-3.5837584
110	0xc0878dfa	-4.236081
111	0x420f49ad	35.82195
112	0xc1411ff6	-12.070303
113	0xc19bae87	-19.460218
114	0xc1e59c2e	-28.70126
115	0x40e573b1	7.1703725
116	0x4202ae1d	32.670033
117	0x4283869e	65.762924
118	0xc28ae67c	-69.450165
119	0x42739a0d	60.90044
120	0x41936a23	18.426825
121	0x4170c255	15.047444
122	0xc15d7579	-13.84118
123	0xc1982b30	-19.021088
124	0x40c78ea5	6.2361627
125	0x41a9d543	21.229132
126	0x416bd890	14.740372
127	0xc18c10e9	-17.508257
128	0x41983cda	19.029713
129	0xc1422e53	-12.13631
130	0x4128ae5d	10.542569
131	0x40eaa5fb	7.3327613
132	0xc02f7fe4	-2.7421808
133	0xc19f6d60	-19.928406
134	0xc1509859	-13.037194
135	0x41935aaf	18.41928
136	0x41ad9c1b	21.701223
137	0x40ffb765	7.991137
138	0xc167654d	-14.462232
139	0x428321f7	65.56634
140	0xc1573e9f	-13.452788
141	0xc1591761	-13.568208
142	0xc02fdf2a	-2.7479959
143	0x3fbe366c	1.4860358
144	0x419b71df	19.430601
145	0x4145109c	12.316555
146	0xc2070e30	-33.763855
147	0x420ae95d	34.727894
148	0x3fa72420	1.30579
149	0x413727cc	11.447216
150	0x415254bf	13.14569
151	0xc18ee51d	-17.861872
152	0xc1115fcc	-9.085888
153	0x41b3d31e	22.478085
154	0x414728b2	12.447435
155	0xc1812cd5	-16.14689
156	0xc15fc364	-13.985203
157	0xc0aa9f99	-5.331982
158	0x41927be8	18.310501
159	0xc086c2f2	-4.211297
160	0xc1cb0aa4	-25.380196
161	0x40d98b22	6.798234
162	0x4113c61d	9.2358675
163	0x4068560e	3.6302524
164	0xc1e591d3	-28.696203
165	0xc1e202ae	-28.251308
166	0x4165517b	14.332393
167	0xc1c33af3	-24.403784
168	0xc226ce2c	-41.70134
169	0xc06520b8	-3.580122
170	0xc2566de4	-53.607315
171	0x415a7ec2	13.655947
172	0x40eaac56	7.333537
173	0xc1a05a57	-20.044111
174	0x41332e9f	11.198882
175	0xc182aeed	-16.335413
176	0x411430f2	9.26195
177	0xc1038d34	-8.221973
178	0x4181b80a	16.214863
179	0xc1f1c2b1	-30.220064
180	0xc2492236	-50.28341
181	0x41195add	9.584683
182	0x4184f61a	16.620167
183	0x41dfe299	27.985643
184	0xc262e67a	-56.725075
185	0x4055268f	3.3304784
186	0x42274219	41.81455
187	0x4111ae57	9.105063
188	0x4013da0c	2.3101835
189	0x41abd895	21.480753
190	0xc226bbe9	-41.683506
191	0x3f8c2594	1.0948968
192	0xc1d842af	-27.03256
193	0x41c4c449	24.595842
194	0x4262def9	56.717747
195	0x4094d2b4	4.6507206
196	0x42847653	66.2311
197	0x41e01e3a	28.01476
198	0x421ac207	38.68948
199	0x41b3d8c7	22.480848
200	0x427da7b8	63.413788
201	0x423e9d31	47.653507
202	0xc269cdaa	-58.450844
203	0x418b6a06	17.42677
204	0xc1893891	-17.15262
205	0x421edc96	39.715416
206	0x4287eb44	67.9595
207	0xc1d2bc58	-26.341965
208	0x42d6c1eb	107.378746
209	0x4049fef3	3.1561859
210	0x40ada07c	5.4258404
211	0xc23a9c72	-46.65278
212	0xc20cc820	-35.195435
213	0xc1f8feca	-31.124409
214	0xbf1439ba	-0.57900584
215	0xc0c8d536	-6.2760267
216	0x42533fbf	52.812252
217	0x3e5385da	0.20656529
218	0xc1975a85	-18.919199
219	0x421a4520	38.567505
220	0x421e7214	39.611404
221	0x3f76b992	0.9637691
222	0xc190bebf	-18.093138
223	0x4187839a	16.939259
224	0x40a804fc	5.2506084
225	0x40ee05a3	7.438188
226	0x41e3bed7	28.468184
227	0xc0d5a633	-6.676538
228	0x4247f303	49.987316
229	0x4111907b	9.097774
230	0x418d8aee	17.692837
231	0xc1dcbadc	-27.59124
232	0xc1ae33c8	-21.775284
233	0xc112a831	-9.166062
234	0x4115d0d5	9.363484
235	0x4066059c	3.5940924
236	0x41d1f950	26.246735
237	0x40f0c962	7.524583
238	0x4114b907	9.295173
239	0x4231b955	44.43099
240	0xc160910a	-14.03541
241	0xc19a4d51	-19.287752
242	0x403ce421	2.951424
243	0xc06fdaff	-3.7477415
244	0x4196555b	18.791677
245	0xbe709d02	-0.23497394
246	0xc218b2e2	-38.17469
247	0x41e5b7cf	28.71475
248	0x4021f002	2.530274
249	0x4097f905	4.749148
250	0x40adb655	5.4285073
251	0x405c11f4	3.4385958
252	0x412a9267	10.660743
253	0x40f5b53d	7.678374
254	0x4015b29e	2.339027
255	0xc123f97a	-10.248407

fc.bias f4 [25]
0	0xc293aa15	-73.83219
1	0xc0a78f21	-5.236222
2	0x41f4bcf4	30.592262
3	0xc0c1627e	-6.043273
4	0xc28152f4	-64.66202
5	0xc26767fe	-57.851555
6	0x419f6bc5	19.927622
7	0x41cc2f4b	25.523092
8	0xc2061a44	-33.52565
9	0xc28d0992	-70.51869
10	0xc286c0e4	-67.37674
11	0xc04b43f2	-3.176022
12	0x41d0a189	26.078875
13	0xc04712ab	-3.1105144
14	0xc2349f88	-45.155792
15	0xc28d5dc1	-70.68311
16	0xc187d295	-16.977823
17	0x421ac074	38.687943
18	0xc1677f0f	-14.46852
19	0xc2bc8141	-94.25245
20	0xc24da0a7	-51.406887
21	0xc1c741c6	-24.907116
22	0x41c66133	24.79746
23	0x41859e32	16.702244
24	0xc2a3e369	-81.94416
