models/SSD-10-hidden-1-input-1-layer.pth (torch, 4014 bytes, 6 tensors)

gru.weight_ih_l0 f4 [30, 1]
0	0x3fe15c74	1.760634
1	0xc06faf58	-3.7450771
2	0xc055024f	-3.328266
3	0xc0ba7ae4	-5.8275013
4	0xc109165e	-8.567961
5	0x3f9c65b0	1.2218533
6	0x41139812	9.224627
7	0x409dbb7c	4.9291363
8	0xc09be74c	-4.8719845
9	0xc0dfd166	-6.9943113
10	0x408fea90	4.497383
11	0x3f0d8baa	0.55291235
12	0x40791e43	3.892472
13	0xc0fe5ac2	-7.948579
14	0x40bc330e	5.8812323
15	0x40f63a95	7.694651
16	0xc191bdda	-18.217701
17	0x4084e855	4.153361
18	0x40ae8759	5.454022
19	0x40a3dddc	5.1208324
20	0xc0983664	-4.7566395
21	0x40190b8d	2.39133
22	0x3f024367	0.508841
23	0xc0de9806	-6.9560575
24	0xc107219d	-8.445706
25	0xc0ebadc5	-7.364962
26	0x40cf1870	6.471733
27	0x40b283b5	5.5785775
28	0xc0037ae1	-2.054375
29	0x406e5657	3.7240198

gru.weight_hh_l0 f4 [30, 10]
0	0x3fd7920d	1.6841446
1	0xc084e1e0	-4.1525726
2	0x40bbfbad	5.874472
3	0x4052834d	3.289264
4	0xbf463247	-0.7742047
5	0xbfa39c94	-1.2782159
6	0xbfc0974e	-1.5046175
7	0xbfd075e1	-1.6285974
8	0x3efb34e6	0.49063796
9	0xbf8459e1	-1.0339929
10	0xbe407bd2	-0.18797234
11	0xbf83675b	-1.0265917
12	0x3fb122a9	1.3838702
13	0xbf1a1b32	-0.60197747
14	0xbfa50365	-1.2891661
15	0x3fcfce0a	1.6234753
16	0x3f247364	0.6423857
17	0x405f544f	3.4895208
18	0xbe87ef11	-0.2654958
19	0xc000181d	-2.0014718
20	0xbf386326	-0.7202629
21	0xc0069855	-2.1030476
22	0x3d6ebcda	0.05828557
23	0xc03364f3	-2.8030365
24	0x3ebed225	0.37269703
25	0xc00bee3d	-2.186416
26	0xbfe9cb36	-1.826514
27	0x3f9ceece	1.2260377
28	0x3f4d173a	0.80113566
29	0x3ee8fbf3	0.45504722
30	0x3f4db035	0.80346996
31	0xbfbddb35	-1.4832522
32	0xbe1d79fd	-0.15378566
33	0x3f138eae	0.57639587
34	0x3f26df99	0.6518493
35	0xbd839d93	-0.06426539
36	0x3f9861d6	1.1904857
37	0xbe77796a	-0.2416741
38	0x3f38491d	0.7198656
39	0xbeae1169	-0.33997658
40	0x3e378fac	0.179259
41	0x3faf625c	1.3701892
42	0x40856dc4	4.169649
43	0xc068776c	-3.632289
44	0x3f44e5ff	0.76913446
45	0xbebf86e0	-0.3740759
46	0xbe9de6e3	-0.30840215
47	0x409ab582	4.8346567
48	0x3ff1fef1	1.8905927
49	0xc000bb1a	-2.0114198
50	0x3fdb3689	1.7126018
51	0xbeb2bbcd	-0.34908906
52	0xbd226b6a	-0.03965322
53	0xbfd801e9	-1.6875583
54	0x3f8946cf	1.0724734
55	0xc017f349	-2.374224
56	0xbf3bf82a	-0.73425543
57	0xbf1f7d35	-0.62300426
58	0x3fd955f1	1.6979352
59	0xbf21e1e0	-0.6323528
60	0x3f8a0c5f	1.0785025
61	0x3eaeea86	0.34163302
62	0x3f402513	0.7505657
63	0x3f266d57	0.6501059
64	0x3d78312f	0.06059378
65	0x3dc89089	0.09793193
66	0x3fb1b1ee	1.3882425
67	0xbeb5c37b	-0.35500702
68	0xbfa02630	-1.2511654
69	0x3ebd6bf3	0.3699642
70	0x3ff0b9c2	1.8806689
71	0xbfe9ba2b	-1.8259939
72	0xbf4cdd39	-0.8002506
73	0xbf54a0a7	-0.83057636
74	0x3f82f662	1.023144
75	0x3ef94efa	0.48693067
76	0xbf411175	-0.7541726
77	0xc0010350	-2.0158272
78	0x3f8c840c	1.0977798
79	0x3e10cd3c	0.1414079
80	0xbf0ac026	-0.54199445
81	0xbfcfd192	-1.6235831
82	0xbf01f59d	-0.507654
83	0x3f0bdb50	0.5463152
84	0xbfc1215e	-1.5088308
85	0x3f5a68f1	0.8531638
86	0x3d3719d6	0.044702373
87	0xc09fe6ce	-4.9969244
88	0x3f8db3b5	1.1070467
89	0xbdb64e6c	-0.089016765
90	0xbfca71c2	-1.5815966
91	0xbfa27487	-1.2691811
92	0xbf7973ff	-0.9744262
93	0x3f423ae6	0.7587112
94	0x3e6ca437	0.23109518
95	0xbfa86255	-1.3155009
96	0x3e9f71f3	0.31141624
97	0x3e9b0d9e	0.30283827
98	0xbd8e1301	-0.069372185
99	0x3f2b2bd4	0.6686375
100	0x3caed0ea	0.021339852
101	0xbfbdd282	-1.4829867
102	0xbf8b5ca0	-1.0887642
103	0x3f8fdb69	1.1238834
104	0x3ed6b147	0.41932127
105	0x4034e893	2.8266952
106	0xbe938031	-0.2880874
107	0xbf4fa8ba	-0.8111683
108	0xbf8aa979	-1.0832969
109	0xc0084034	-2.1289186
110	0x401690d0	2.3525887
111	0x405fe110	3.4981117
112	0xc0157976	-2.3355384
113	0x40181ee7	2.3768861
114	0xbf38bd04	-0.72163415
115	0x40308e5f	2.7586896
116	0x3f1c7808	0.61120653
117	0xbe8988cf	-0.2686219
118	0x3f6e06f8	0.92979383
119	0xbedef990	-0.43549776
120	0x3fad76ea	1.3551915
121	0x3fdbb66e	1.7165048
122	0xbfafd645	-1.3737265
123	0xbf940db7	-1.1566685
124	0xbf9170d2	-1.1362555
125	0x4005665c	2.0843725
126	0xc0223d4c	-2.5349913
127	0x3ff14a00	1.8850708
128	0x3efe3079	0.49646357
129	0x3f48983c	0.7835729
130	0x3fbcbcef	1.4745158
131	0x3fcb5108	1.5884104
132	0xbeec94de	-0.46207327
133	0xc0491a56	-3.1422324
134	0xbf4227c4	-0.7584193
135	0xc06ae7b4	-3.670392
136	0x40047c37	2.0700815
137	0xbf9c6408	-1.2218027
138	0xbff1dbae	-1.8895166
139	0x3f8ea502	1.1144106
140	0x406f3c0c	3.73804
141	0x3fee32fa	1.8609307
142	0xc0256282	-2.5841374
143	0xc0279506	-2.6184707
144	0x402a8c13	2.6647995
145	0x408eaf4d	4.458899
146	0xbfc5eaf0	-1.5462322
147	0x3fb144c0	1.3849106
148	0x3f802e06	1.0014045
149	0x3d8afafb	0.06786152
150	0x3d11de50	0.035612404
151	0x400397cb	2.0561397
152	0x3fcd88e6	1.6057403
153	0xbeacd009	-0.33752468
154	0x3e89355c	0.26798522
155	0xbecefc49	-0.40426853
156	0xbf6e63e6	-0.9312118
157	0xbf2a1c78	-0.6644969
158	0xbfd7d0f6	-1.6860645
159	0xbefe17ac	-0.49627435
160	0x40009c29	2.0095313
161	0x409483c9	4.641087
162	0xbe394495	-0.18092568
163	0x3eee8295	0.46584
164	0xc050f927	-3.265207
165	0x3fc5a71b	1.5441622
166	0x3dba6152	0.091005936
167	0x4094f25d	4.6545854
168	0xbf90d19f	-1.1313971
169	0xbfc27bc1	-1.5194017
170	0x3d013508	0.031544715
171	0x3eb47f2c	0.35253274
172	0xbe58fdff	-0.21190642
173	0x3f878b02	1.0589297
174	0xbf4e1dc4	-0.8051417
175	0x3f89e112	1.0771811
176	0x3f544c83	0.8292925
177	0x3fe5a622	1.7941325
178	0xbf27a580	-0.6548691
179	0xbf466043	-0.77490634
180	0xbf08cae4	-0.53434587
181	0xbea8466b	-0.32866225
182	0x3f921f0e	1.1415727
183	0xbfb22744	-1.3918233
184	0x3f4ec1e6	0.80764616
185	0xbf9a9876	-1.2077777
186	0xbf9b88fd	-1.215118
187	0xc095bfba	-4.679654
188	0x3f46b1c4	0.77615
189	0x3f13eefc	0.57786536
190	0xbea3f381	-0.32021716
191	0xc02005c1	-2.5003512
192	0xbfb1565d	-1.3854481
193	0x3f936d6d	1.1517769
194	0xbfa3ab27	-1.2786607
195	0x3fa77e40	1.3085403
196	0x400f3b7a	2.2380052
197	0x3f5b9439	0.85773045
198	0xbf9bdd18	-1.2176847
199	0x3e9a1281	0.30092242
200	0x3f1d6723	0.614855
201	0x40456657	3.0843713
202	0x3f5e98ff	0.86952204
203	0xc03bee70	-2.936428
204	0xbeb303be	-0.34963793
205	0x3ea95988	0.3307612
206	0x3e10fd77	0.14159189
207	0x3fbb28a5	1.4621779
208	0xbf9910fc	-1.1958308
209	0xbee40da9	-0.44541672
210	0xbf1150ea	-0.5676409
211	0xbf14ef77	-0.58177894
212	0xbedec590	-0.43510103
213	0x3fb2d0a2	1.396992
214	0xbf219faa	-0.63134253
215	0x3f092261	0.53568083
216	0x3f4e1454	0.8049977
217	0xbe3e6bf2	-0.18595865
218	0xbfaab54d	-1.3336579
219	0x3ec62de9	0.38706902
220	0xbf25e443	-0.64801425
221	0x3fd6c5ad	1.6779076
222	0x3f28b32d	0.658984
223	0xbf124734	-0.571399
224	0xbd7ecea4	-0.062208787
225	0xbfbf0d87	-1.4926003
226	0x3f229cf7	0.6352076
227	0x3ffbde1a	1.9677155
228	0x3ed0562c	0.40690744
229	0x3f24204f	0.641118
230	0xbf7bb163	-0.98317546
231	0xbf5822dd	-0.844282
232	0x3f801675	1.0006853
233	0xbf75a1b4	-0.95949864
234	0x3fb8e6b1	1.4445401
235	0x3dae1819	0.0850069
236	0xbe865eee	-0.262443
237	0xbecb7565	-0.39738002
238	0x3f02d943	0.51112765
239	0xbfd23483	-1.6422275
240	0xbea208b2	-0.3164726
241	0x3f86f87e	1.0544584
242	0xbfd37435	-1.6519839
243	0x3e6968bd	0.2279386
244	0xbe8d23ae	-0.27566284
245	0xbfe6ac46	-1.8021324
246	0x3df6006b	0.120117985
247	0xbea9e58b	-0.3318294
248	0x3f8c8665	1.0978514
249	0x3f25b1b9	0.6472431
250	0xbee7a447	-0.4524252
251	0x3f3f3db8	0.7470355
252	0x3e5e6e97	0.21721874
253	0xbfd37f6d	-1.6523262
254	0xbed4e6c8	-0.41582322
255	0x3e1ca7fb	0.15298454

gru.bias_ih_l0 f4 [30]
0	0x4034ebee	2.8269
1	0x3f1c731e	0.61113155
2	0x3db320e9	0.087465115
3	0x3e3f8bdb	0.18705694
4	0x3f90f669	1.1325198
5	0x3f60591e	0.8763598
6	0xbde6d736	-0.11271517
7	0x3dd0e9dd	0.10200856
8	0x3f8e1178	1.1099081
9	0xbeee2faa	-0.4652074
10	0xbdd56571	-0.10419739
11	0xc028d7e1	-2.6381762
12	0xbfaa499b	-1.3303713
13	0xc0299c11	-2.6501505
14	0xbfb73503	-1.4313053
15	0xbf5948c3	-0.8487665
16	0xc0295c5e	-2.6462626
17	0xbf73ec41	-0.9528237
18	0xbe5436bd	-0.20724006
19	0xbf1ce7a2	-0.61290944
20	0xbe80eb10	-0.25179338
21	0xbeb108ba	-0.3457697
22	0xbe5b275e	-0.21401736
23	0xbdee1199	-0.1162445
24	0xbf7f6f17	-0.99778885
25	0xbf081a37	-0.53165
26	0xbde0cd81	-0.10976697
27	0xbed7350c	-0.4203266
28	0x3f344285	0.70414
29	0xbece474e	-0.40288776

gru.bias_hh_l0 f4 [30]
0	0x401a6e40	2.4129791
1	0x3ee67676	0.45012254
2	0x3ecedd03	0.40402994
3	0xbe09d7db	-0.13461249
4	0x3fc8d89d	1.5691105
5	0x3f7a9584	0.9788439
6	0xbe895830	-0.26825094
7	0xbe65c038	-0.22436607
8	0x3f3c40c9	0.73536354
9	0xbf0402d4	-0.51566815
10	0xbf01a75c	-0.50645995
11	0xc0210ff2	-2.5165982
12	0xbf89f0ce	-1.0776613
13	0xc034e390	-2.8263893
14	0xbfb918f6	-1.4460742
15	0xbece0562	-0.40238482
16	0xc01f6c1b	-2.4909732
17	0xbf420cf3	-0.7580101
18	0xbcca03bb	-0.024659982
19	0xbee7d817	-0.4528205
20	0xbf99a047	-1.2002038
21	0xbf98736d	-1.1910225
22	0x3fac6417	1.3468045
23	0x3f9fd695	1.248736
24	0x3fa06d1a	1.2533295
25	0xbec45dba	-0.38352758
26	0x3eaa2ba1	0.3323641
27	0x3fc2f927	1.5232285
28	0x3f73b503	0.95198077
29	0xbf5701a1	-0.8398686

fc.weight f4 [3, 10]
0	0x41592bff	13.573241
1	0x41a1a2e6	20.20454
2	0x3fa76a6f	1.3079356
3	0xc13da179	-11.851922
4	0xc05702f7	-3.359556
5	0x416d0587	14.813849
6	0x4112b91b	9.170192
7	0xc0146778	-2.3188152
8	0xc193dba4	-18.482246
9	0x4177f747	15.49787
10	0xc018f8d7	-2.390188
11	0xc1588ed0	-13.534866
12	0x40c35df8	6.105221
13	0x400f372b	2.2377422
14	0xc101ec50	-8.1201935
15	0x3f7e970b	0.99449223
16	0xc0d21e42	-6.5661936
17	0x412494c7	10.286323
18	0x418ee1dd	17.860285
19	0x403ecc11	2.9812052
20	0x3f4d0bab	0.8009593
21	0x409ae005	4.839846
22	0xc0ad47f2	-5.4150324
23	0xc027129e	-2.6105113
24	0x410c2a96	8.760397
25	0xc0828648	-4.0788918
26	0x3fef9b6f	1.871931
27	0xc0fdb662	-7.9285135
28	0xc124bc02	-10.2959
29	0xbfc3fc09	-1.531129

fc.bias f4 [3]
0	0xc1b4ed92	-22.616001
1	0x41a316be	20.386105
2	0xc15a4e48	-13.644112
