models/SSD-3-hidden-1-input-2-layer-2-disc.pth (torch, 3288 bytes, 10 tensors)

gru.weight_ih_l0 f4 [9, 1]
000000 2f c2 89 c0 4e 57 ec 3f 07 8d 81 c0 c6 db 81 40
       -4.304954 1.8464143 -4.0484653 4.058078
000010 5c 10 08 bf 9f ff d2 c0 ee 0a 4f 41 58 43 05 c1
       -0.5314996 -6.5937037 12.940168 -8.328941
000020 7f e6 f3 40
       7.6218867

gru.weight_hh_l0 f4 [9, 3]
000000 5d 47 37 bf fb d2 3a 3f 44 bd ae bd 7f ed ec bd
       -0.71593267 0.7297818 -0.08532193 -0.11568736
000010 95 e2 ad 3e 3b 7b 2c be 3d a4 96 3f ee 50 57 bf
       0.3396193 -0.16843884 1.1768872 -0.84107864
000020 5b 38 0c 3e fc a8 ca 3f ad b3 29 3d ed 6e 35 41
       0.13693373 1.583282 0.041431118 11.3395815
000030 7f a7 5f bf f2 51 b3 3f ff 6c 2e 3f 84 f2 ac c0
       -0.87364954 1.4009383 0.68135065 -5.404604
000040 f4 64 fb bf bc 0f 8f 40 f4 3d f3 3f 1e ab 2b c0
       -1.9640183 4.4706707 1.9003282 -2.6823192
000050 4f 3c cd 3f 4f 64 9a 3f d4 13 5b 3f 76 b1 ae 3e
       1.603403 1.2061862 0.8557713 0.34119767
000060 72 ba f6 3e 2c 07 c0 bf c1 30 ad 3f
       0.4818912 -1.5002189 1.3530504

gru.bias_ih_l0 f4 [9]
000000 50 62 54 bd 0a 2b 42 bf 86 8f 24 be e5 bb b2 c0
       -0.05185157 -0.7584692 -0.16070375 -5.5854363
000010 ee 5f 2e be f8 90 3d c0 4a db 4e 3f 99 bf 65 3d
       -0.17028782 -2.9619732 0.8080336 0.056090925
000020 37 42 23 be
       -0.15943228

gru.bias_hh_l0 f4 [9]
000000 55 50 10 be 98 d5 8c bf a3 3e e7 bd 2b 5b b6 c0
       -0.14093144 -1.1002684 -0.11291244 -5.698629
000010 1e 84 8c bf 61 ae 5a c0 1a 38 8d bf e9 86 5c be
       -1.0977819 -3.4168932 -1.1032746 -0.21535839
000020 e0 40 57 bd
       -0.052552104

gru.weight_ih_l1 f4 [9, 3]
000000 43 82 43 40 e1 ac 5f 40 a6 ea e0 3f f6 36 13 41
       3.0548255 3.4949267 1.7571609 9.200918
000010 33 f2 b9 40 8f 46 89 bf 37 e7 30 40 c0 ee e1 c0
       5.8108153 -1.0724658 2.7641122 -7.0603943
000020 29 a4 54 bf 86 1c 9f 40 12 9f 26 40 6b 58 d0 3f
       -0.8306299 4.972232 2.603459 1.6276983
000030 3d 16 be 3f f7 38 ab be f1 5f 27 bf a3 dc 0e 40
       1.4850537 -0.33441898 -0.6538077 2.2322166
000040 35 0a 8e bf d8 b7 68 be 8c 86 28 bf 06 bb 36 3f
       -1.1096865 -0.22726381 -0.658303 0.71379125
000050 56 e1 99 3f 99 73 01 3f f3 b1 42 40 d6 64 b8 be
       1.2021892 0.50567013 3.0421112 -0.36014432
000060 60 b8 68 bf 26 7e c0 3f ea 53 0e bf
       -0.90906334 1.5038497 -0.5559679

gru.weight_hh_l1 f4 [9, 3]
000000 71 b3 0e bf b6 f6 3f c0 c0 85 14 40 42 24 8c bf
       -0.55742556 -2.999433 2.3206635 -1.0948565
000010 58 f3 9b bf 7a 96 32 40 83 c7 99 bf 37 e5 42 3d
       -1.2183638 2.7904344 -1.2014011 0.047581878
000020 9d 2f db bf f2 6a 39 bf 8a 75 c1 bf ee dd e9 3f
       -1.7123905 -0.7242881 -1.5113995 1.8270853
000030 ae 1a 00 c1 ee f8 23 be de 70 0e c0 3a 54 8e bf
       -8.006514 -0.16012928 -2.2256389 -1.1119454
000040 19 d8 2f c0 f4 22 b4 be be c9 c3 3f d8 70 56 40
       -2.7475646 -0.35182917 1.5295942 3.3506374
000050 d4 a3 a0 3f 4e 1c 65 bd 07 c4 2e bf 83 64 96 3f
       1.2549996 -0.055935197 -0.68267864 1.1749424
000060 73 fb df bf 64 be f4 bf 48 a4 a3 3e
       -1.7498611 -1.9120603 0.31961274

gru.bias_ih_l1 f4 [9]
000000 c6 fa 7c 3f e8 86 1a 3e b7 e6 b5 be 12 64 5c 3e
       0.9882015 0.15090525 -0.35527584 0.21522549
000010 87 3c 26 bf 2d e8 3b bf fe 1e c1 3b b8 12 45 3f
       -0.6493611 -0.7340115 0.005893587 0.7698169
000020 0a 91 c8 3e
       0.39173156

gru.bias_hh_l1 f4 [9]
000000 6e 4f f6 3e c8 1f 29 3e cf e9 03 3e 6c 88 8f 3d
       0.48107475 0.1651603 0.1288216 0.07008442
000010 70 92 98 bd 74 64 c2 bf bb 04 22 40 84 b7 a4 bf
       -0.07449806 -1.5186906 2.5315387 -1.2868505
000020 69 f8 91 be
       -0.28509834

fc.weight f4 [5, 3]
000000 75 5e ab 3e 56 47 22 c1 eb 90 3a c0 b0 8a 0d 40
       0.33470502 -10.142416 -2.915095 2.2115898
000010 b4 ac 15 c0 b3 59 82 c0 55 6f 50 40 e7 65 a4 3f
       -2.338666 -4.0734496 3.2567952 1.2843598
000020 ea 57 40 bf 2c 78 be bf d9 d4 61 40 8d cb 9e 40
       -0.75134146 -1.4880424 3.5286162 4.9623475
000030 b0 96 d3 c0 bb 19 75 40 9c da 5a 41
       -6.6121445 3.8296955 13.678371

fc.bias f4 [5]
000000 e0 55 45 c0 37 73 3e 3e cc 63 43 40 75 7f 16 3f
       -3.0833664 0.18598638 3.052966 0.58788234
000010 90 ce 95 c0
       -4.681465
