models/SSD-3-hidden-1-input-2-layer-2-disc.pth (torch, 4608 bytes, 10 tensors)

gru.weight_ih_l0 f4 [9, 1]
0	0xc0228c78	-2.5398235
1	0x403c593c	2.9429464
2	0xc03366d5	-2.8031514
3	0xbe2d20e7	-0.16907082
4	0x3fa24b0b	1.2679151
5	0xbeb83d74	-0.35984385
6	0x40604cb0	3.5046806
7	0xc04347a3	-3.0512474
8	0x4058c73b	3.38716

gru.weight_hh_l0 f4 [9, 3]
0	0xbf5dbcc0	-0.86616135
1	0x3ea49d63	0.32151327
2	0xbd82a3a4	-0.06378868
3	0x3fd61af3	1.6726974
4	0xbf45508c	-0.7707603
5	0x3f48f247	0.78494686
6	0x3e7e6f2f	0.248471
7	0x3f0eaed2	0.55735505
8	0xbe32fe88	-0.17479908
9	0x4010394d	2.2534974
10	0x3ff12bcc	1.8841491
11	0x3fc27fbf	1.5195235
12	0x4019d2f7	2.4035013
13	0x400a55dd	2.1614907
14	0x3fa74492	1.3067801
15	0x3fc87427	1.5660447
16	0x4032fa45	2.7965252
17	0x400d871b	2.2113712
18	0x3ee34f47	0.4439642
19	0x3d99974a	0.07499559
20	0x3f822c81	1.0169832
21	0xbecc4098	-0.3989303
22	0x3f9ce87a	1.2258446
23	0xbe771575	-0.24129279
24	0x3dce7b45	0.100821055
25	0x3ee2acca	0.44272453
26	0x3ee22836	0.44171304

gru.bias_ih_l0 f4 [9]
0	0xbd1209bb	-0.03565381
1	0xbef29558	-0.47379565
2	0xbe752fc3	-0.23944001
3	0xc01e97b7	-2.47801
4	0xc02473fe	-2.5695796
5	0xc03c7506	-2.9446425
6	0x3dc44c6f	0.09584891
7	0x3e5702a0	0.20997095
8	0xbd0904e5	-0.033451933

gru.bias_hh_l0 f4 [9]
0	0xbe8a8808	-0.2705691
1	0xbbe989b4	-0.007127011
2	0x3e87b8d8	0.26508212
3	0xc02cc6b5	-2.699628
4	0xc021b0bc	-2.526412
5	0xc00c758a	-2.194674
6	0xbe936c91	-0.28793767
7	0xbf7005db	-0.93758935
8	0xbe4afa5b	-0.19822066

gru.weight_ih_l1 f4 [9, 3]
0	0x3fff027b	1.9922632
1	0xbfdb3375	-1.7125078
2	0x400c5e4b	2.1932552
3	0xbff0ec0e	-1.8822038
4	0x3f4c01fa	0.79690516
5	0xbfd8e7e0	-1.6945763
6	0x40064b46	2.0983443
7	0xbfbaaabb	-1.4583353
8	0x4019a68b	2.40079
9	0x400c9922	2.1968465
10	0x3fd12368	1.633893
11	0x3fb9fc3b	1.45301
12	0xbf22b42f	-0.6355619
13	0x4029e594	2.6546373
14	0xbecf4b15	-0.4048697
15	0x3faffccb	1.3749021
16	0x3e549521	0.20760013
17	0x3f86f51d	1.0543553
18	0xbf94cbdd	-1.1624714
19	0x401e88fe	2.4771113
20	0xbf5c9935	-0.86171275
21	0x3fe1ff3d	1.7656018
22	0xbda9b903	-0.08287241
23	0x3f82f953	1.0232338
24	0x400df0b9	2.2178175
25	0xbfa636c3	-1.2985462
26	0x4033448a	2.8010583

gru.weight_hh_l1 f4 [9, 3]
0	0x3ce9a518	0.028521106
1	0xbf0718d0	-0.52772236
2	0x3f0e40b7	0.55567497
3	0x3eae1235	0.33998266
4	0x3f671543	0.9026682
5	0x3ef38423	0.4756175
6	0xbee11cc2	-0.43967253
7	0xbe1680d8	-0.14697587
8	0x3ec39732	0.3820129
9	0x3f247ede	0.64256084
10	0x3f71a4e7	0.94392246
11	0xbe8aa438	-0.27078414
12	0xbd71adff	-0.059003826
13	0x40061952	2.0952954
14	0x3eb01ddf	0.3439779
15	0x3fc20ccc	1.5160155
16	0x40321169	2.7823126
17	0x3fd368ae	1.6516321
18	0x3f5fac2f	0.87372106
19	0x3fa06eb7	1.2533787
20	0xbe83d24a	-0.25746375
21	0x3de07a93	0.10960879
22	0x3f91e4ee	1.1397989
23	0x3edf30e5	0.4359199
24	0xbfb5dc5f	-1.4207877
25	0xbfb60dd9	-1.4222976
26	0x3e3ea6da	0.18618336

gru.bias_ih_l1 f4 [9]
0	0xbee1feec	-0.44139802
1	0xbe27deb4	-0.16393548
2	0xbd7350c0	-0.05940318
3	0xbfdd7a9b	-1.7303041
4	0xbedb98ac	-0.42889917
5	0xbe99912a	-0.29993564
6	0x3d81f304	0.0634518
7	0xbd5e2d63	-0.054242503
8	0xbf3b8535	-0.7325013

gru.bias_hh_l1 f4 [9]
0	0x3e87a272	0.26491123
1	0x3e201e7e	0.15636632
2	0xbd8f7969	-0.07005579
3	0xc008c752	-2.1371655
4	0xbf7ab710	-0.9793558
5	0xbee47ec0	-0.44627953
6	0xbf6e414d	-0.9306839
7	0xbf8e387c	-1.1110988
8	0x3fc5e660	1.546093

fc.weight f4 [5, 3]
0	0xbe3533ea	-0.17695585
1	0x401a8760	2.4145126
2	0x40415088	3.0205402
3	0xbf38aa1e	-0.7213458
4	0x3ef6fd8e	0.48240322
5	0x403bf187	2.9366167
6	0xbfbc7a41	-1.4724809
7	0xbf6a4dc2	-0.915249
8	0xbf777751	-0.9666644
9	0x3fe7f2db	1.8120989
10	0xbf2e5182	-0.6809312
11	0xc04276cc	-3.0385008
12	0x40171349	2.360552
13	0x3f6ee1b8	0.9331317
14	0xc00f832f	-2.2423818

fc.bias f4 [5]
0	0xbf0b5c7a	-0.54437983
1	0xbe8e2ef5	-0.277702
2	0x3f5b471d	0.85655385
3	0xbf4e4e00	-0.8058777
4	0xbedf9e7c	-0.436756
