models/SSD-5-hidden-1-input-2-layer-2-disc.pth (torch, 5504 bytes, 10 tensors)

gru.weight_ih_l0 f4 [15, 1]
00000000: 9476 75c1 8922 373f ff30 d140 6cd1 d9bf
00000010: 343b dc40 89f8 78c1 79de 5341 a046 94c0
00000020: 2b25 65c0 60ab b13f d230 d7c0 5695 e240
00000030: cd4b cc40 3aef 85c0 3ef0 4ec1
-15.34145 0.7153707 6.537231 -1.7017035 6.882227 -15.560678 13.241815 -4.633621
-3.5803936 1.3880424 -6.7247095 7.0807295 6.384253 -4.1854525 -12.933653

gru.weight_hh_l0 f4 [15, 5]
00000000: 3708 0740 39a8 05bf f44d aa3f 8a64 84bf
00000010: f275 0240 edb4 94be 9ef3 9e3f a7f6 c0bd
00000020: cad4 9fbf 3d94 733e 03f7 33bf c587 bb3d
00000030: f210 8e3f 1945 ae3f 3333 f4be 2308 0840
00000040: f9ab 89be 7185 0e40 fbc5 3740 b97b 1d40
00000050: 1f09 09bf 7d85 e53d 7c6e e93e 4991 96bf
00000060: 9689 ce3f 98cb 4cc0 8934 c6bf b1aa 2640
00000070: 6c73 6abf 075a fdbf 842e 2340 85eb 90bf
00000080: 030d c8be baba fabe 1796 263f ebb5 e43d
00000090: 13f8 063f e59f 9c3f c7e7 cb3f b45e e73e
000000a0: 827c ed3e 6f37 d3bf a916 7dbf 8ba3 38c0
000000b0: 2a89 4ebf 1dc4 3b40 cb9c dabf ed09 123f
000000c0: 1b41 c5c0 0b57 8640 a369 37be d1d7 91bd
000000d0: 8cd9 ac3f f148 31be a4f8 d2bf 45cd 8c3f
000000e0: f52e c43e c246 923d 7797 b13f 9131 6b3f
000000f0: 917f 323f 8315 04bf b099 203f de1b 56bf
00000100: 4a13 d2bf 6213 b33f 033e ffbf 7c59 1a40
00000110: a710 bc3f 786a fa3f 11d0 3fbd d339 58be
00000120: 9a2a 36bf cd7f 173f ddb4 2f3f
2.1098764 -0.5220981 1.330504 -1.0343182 2.0384488 -0.29044285 1.2418096 -0.09422045
-1.2486813 0.23787017 -0.70298785 0.09156755 1.1098921 1.3614837 -0.47695312 2.1254966
-0.26889017 2.2268946 2.8714588 2.4606764 -0.5352954 0.112071015 0.45592105 -1.1763088
1.6135738 -3.1999264 -1.5484782 2.6041682 -0.9158237 -1.9793099 2.549714 -1.1321875
-0.39072427 -0.48970586 0.6507277 0.111675106 0.5272228 1.2236296 1.5930108 0.4518944
0.46384054 -1.6501292 -0.988627 -2.8849819 -0.80678046 2.9338448 -1.70791 0.57046396
-6.1641974 4.1981254 -0.17911391 -0.07121242 1.350389 -0.17312981 -1.6482129 1.1000143
0.38317075 0.07142402 1.3874348 0.9187251 0.697259 -0.51595324 0.6273451 -0.8363627
-1.6412137 1.399029 -1.99408 2.4117117 1.4692582 1.9563742 -0.046829287 -0.21115808
-0.71158755 0.59179384 0.6863535

gru.bias_ih_l0 f4 [15]
00000000: 2b19 9fbe 59de 363f aeca adbd 2350 9f3f
00000010: 81c1 4abd 0f0d c4be 3d58 1b3e 11ca a23e
00000020: adb6 573f 31a0 08c0 b541 013e 5eb3 4ebd
00000030: 527f 2abe c958 7cbe 3b8c 6fbd
-0.3107389 0.71433026 -0.08485924 1.2446331 -0.049500946 -0.38291213 0.15170379 0.3179479
0.84263116 -2.1347773 0.12622721 -0.050464027 -0.16650131 -0.24643244 -0.058483344

gru.bias_hh_l0 f4 [15]
00000000: bf81 7dbe 81e0 14bd 8a82 a4bd 26ab 503f
00000010: c1ec 8ebe ee9d 27bf 18be 1d3f 402a 4e3e
00000020: 0693 303f 8ec0 26c0 3dfb 713e 7143 153d
00000030: 779e 813d 2184 073f ac9c b0be
-0.24756525 -0.036346916 -0.08032711 0.8151115 -0.27915004 -0.65475357 0.61618185 0.20133305
0.6897434 -2.6055026 0.23630996 0.03644127 0.06329053 0.5293599 -0.3449453

gru.weight_ih_l1 f4 [15, 5]
00000000: 33cc 6bbf e8fb bf3f 8ed1 a5be be5d 903f
00000010: edd7 9340 fcdc 28bd ae29 5bbf 08ef 48bf
00000020: cdba 933e 2f62 ab3f 8507 f5bf d12f 74c0
00000030: a283 8340 38a6 9dbf ed5a adc0 1212 b23f
00000040: dad7 2dc0 89ae 1440 0603 8c3f b6bf f3bf
00000050: be84 82bf 74ec b83f f56e 14bf c409 8ebf
00000060: 7d2a 8bc0 8508 f0bf 548a 6a3e b86d d6bd
00000070: d5c0 58be 9490 c1c0 86bb 8c40 4cd4 04bf
00000080: 628e 82bf c20e b03f cfa8 c340 869e 1440
00000090: ba45 0fc0 3635 c6bf a601 a7be 658a 9e40
000000a0: 31df e7bf 2f67 4b40 b541 2dc0 ab09 d6bf
000000b0: ec64 3ec0 092c 83c0 6e73 913f c3df 5d40
000000c0: 1e6a abc0 7404 0640 38ae 78bd 835b d1bf
000000d0: 43cf a43f 4352 04be 581a fd3f f8cc 97bf
000000e0: 5197 103f b609 823f 2bff 203f 77c6 c9bf
000000f0: 14ab 9b3f 23ba bebf 03e4 ff3e 4805 8bbf
00000100: 1eba 5ebf cbd5 aa3d 6daa 4140 0a3d 17c0
00000110: 6491 c9bf 69a6 3a40 d583 a1bf 1f55 013f
00000120: af92 e2bd 92ea 40be 1f86 f53e
-0.9210846 1.4998751 -0.3238644 1.1278608 4.620108 -0.041226372 -0.85610473 -0.7848973
0.28853455 1.3389338 -1.914292 -3.8154185 4.1098185 -1.2316351 -5.4173493 1.3911765
-2.7162995 2.3231528 1.0938423 -1.904288 -1.019676 1.444716 -0.57981807 -1.109673
-4.3489366 -1.87526 0.2290433 -0.10470146 -0.2116731 -6.0488987 4.397891 -0.5188644
-1.0199702 1.3754504 6.1143565 2.3221755 -2.2386308 -1.5484989 -0.32618445 4.954394
-1.8114988 3.1781728 -2.7071354 -1.67217 -2.9749098 -4.0991254 1.1363351 3.4667823
-5.3567038 2.0940218 -0.060713023 -1.6356052 1.2875751 -0.12922005 1.9773664 -1.1859426
0.5648089 1.0159214 0.62889355 -1.5763692 1.2161584 -1.4900554 0.49978647 -1.0860987
-0.8700274 0.08341559 3.026027 -2.3631005 -1.5747495 2.9164069 -1.2618357 0.5052051
-0.11063134 -0.18839481 0.4795389

gru.weight_hh_l1 f4 [15, 5]
00000000: 3fd4 6ebf f615 ac3f 3a52 2440 253a 17be
00000010: c9c2 ca3e 1d91 d63e be4f 193f b16f 693f
00000020: 1abf 023f fcbf e03f 236e ebbf d515 5e40
00000030: a4c7 5540 4822 27bf 1e2c ccbf 648d 2c3e
00000040: 96de 2dbe 8df5 2fbf e360 2b3b f010 f43e
00000050: a202 d53d cd21 3f40 3eb7 98be 95be a53f
00000060: 69bf 98be 6b7b 2e40 d85a 553f 051b 1440
00000070: 83de 97bf da38 9a3c 1f5c 863f 6d40 9abf
00000080: 8a1c 013f e4fe 793f 924e 0840 9a38 30bf
00000090: b10c 20c0 fc4c 883e 1bf0 35bf e3b9 ccbe
000000a0: 2b12 d3bf 52b5 1940 126e 23c0 1624 2ec0
000000b0: c8b9 0a40 8ad3 873f bc3d 103f 1215 d93e
000000c0: 5cc0 833f 502b d63f f03b b13f 3fdb cebc
000000d0: 36e7 a2be 0b69 0b3f 44b4 0040 efb6 c9bf
000000e0: cf99 43be 6f05 a93f e64d 213e 1ab3 73be
000000f0: 301f 12be 8a2c e13f b257 7abe a960 fc3e
00000100: 3a7a 743f bb46 12be ddf1 a03f d68e 9b3f
00000110: 99cf 30be e62f 81be 3609 3ac0 ea2f 0dc0
00000120: 9dd6 2ebf 9285 5d3f 2f87 8dbe
-0.9329261 1.3444202 2.5675187 -0.14768274 0.39601734 0.41907588 0.598873 0.9118605
0.5107285 1.7558589 -1.8392986 3.4700825 3.34031 -0.65286684 -1.5950963 0.16850811
-0.16979441 -0.68734056 0.0026150278 0.47669172 0.10400893 2.986438 -0.29827303 1.2948786
-0.29833534 2.7262828 0.8334174 2.3141491 -1.186478 0.018825937 1.0496863 -1.2050911
0.5043417 0.9765456 2.1297956 -0.6883637 -2.5007746 0.26621234 -0.71069497 -0.3998557
-1.648992 2.401692 -2.5535932 -2.7209525 2.1675892 1.0611432 0.563442 0.42398888
1.0293078 1.6731968 1.3846416 -0.025251029 -0.31817025 0.5445716 2.0110025 -1.5758952
-0.19101642 1.3204783 0.15752372 -0.2379879 -0.1426971 1.7591717 -0.24447516 0.49292496
0.95499 -0.14284794 1.2573811 1.2152965 -0.17266692 -0.25231856 -2.9068122 -2.2060494
-0.68296224 0.8653194 -0.276422

gru.bias_ih_l1 f4 [15]
00000000: 5dcd d0be 2357 d7be 7e3e 7a3e 865a 623f
00000010: 68e5 6ebf de1e 253f 3083 a1be 9eb7 b93e
00000020: e2fb f6bf cc89 00c0 5672 53be 765d e1be
00000030: 1287 ebbd 0293 67bf 4351 823f
-0.4078168 -0.42058668 0.24437901 0.8841938 -0.93318796 0.64500225 -0.315454 0.362729
-1.9295619 -2.0084105 -0.20649084 -0.44016618 -0.11500372 -0.9045869 1.0181049

gru.bias_hh_l1 f4 [15]
00000000: 7593 06bf eea6 27bf 976a bf3e 2dad ca3e
00000010: 56b9 a5bf f61b ba3e 9f10 fc3e 3b0a 063f
00000020: 9c2b 02c0 7a93 a5bf 7a91 293d aeb5 8cbe
00000030: 2186 e2be 3396 8dbf 11f8 54bf
-0.5256875 -0.6548909 0.3738601 0.39585248 -1.2947185 0.36349458 0.4923143 0.5235936
-2.0339117 -1.2935631 0.041398503 -0.2748236 -0.44242957 -1.1061462 -0.8319102

fc.weight f4 [5, 5]
00000000: 3a41 20c0 3dc0 37bf 61cc 09c0 9c1e 193e
00000010: 8e39 f1bf 5dd7 00bf 4554 593e d71a 20bd
00000020: 9ad3 08bf 97b5 8fbf 6caf 163f 1442 523f
00000030: 5d48 7a3f d52c 81bf 3256 3b3f dc42 e2bd
00000040: 7ce4 82be 3fbf 253f 8440 6b3f bb77 2e3f
00000050: b92a bcbf a121 f0bf 990a aabf 512d b23f
00000060: 3966 403f
-2.503981 -0.7177771 -2.1530993 0.14953083 -1.8845689 -0.5032862 0.21223553 -0.039088096
-0.5344788 -1.1227292 0.5886142 0.8213208 0.9776667 -1.0091807 0.731784 -0.11047909
-0.25564945 0.64744943 0.9189532 0.68151444 -1.4700538 -1.8760263 -1.3284484 1.392008
0.7515598

fc.bias f4 [5]
00000000: f913 68bf d026 843d a918 dc3e da82 f83e
00000010: f817 5fbf
-0.90655476 0.064527154 0.42987564 0.48537332 -0.8714595
