models/SSD-2-hidden-1-input-2-layer-2-disc.pth (torch, 4416 bytes, 10 tensors)

gru.weight_ih_l0 f4 [6, 1]
0	0x4104aaae	8.29167
1	0x4137671f	11.462676
2	0x4040f702	3.0150762
3	0xc03302bf	-2.7970426
4	0x41398f02	11.597414
5	0x41518d0f	13.096938

gru.weight_hh_l0 f4 [6, 2]
0	0xc01f3de4	-2.4881525
1	0x404d78d9	3.210501
2	0xbec977b9	-0.39349154
3	0x40030117	2.0469415
4	0xc09d0163	-4.9064193
5	0xc087bc1d	-4.241713
6	0x3ffd53f0	1.9791241
7	0x4045fe5c	3.0936499
8	0xbe9c5a83	-0.30537805
9	0xbe13abd6	-0.14421019
10	0x3f903f93	1.1269401
11	0xbfb13181	-1.3843232

gru.bias_ih_l0 f4 [6]
0	0xbee7d587	-0.45280096
1	0xbfa89762	-1.3171198
2	0xc0144eef	-2.3173177
3	0xbffaa9e1	-1.9583093
4	0x3e313e18	0.17308843
5	0xbe8233a4	-0.25430024

gru.bias_hh_l0 f4 [6]
0	0xbf3c4265	-0.7353881
1	0xbf4eed2c	-0.80830646
2	0xbf8344d1	-1.0255376
3	0xc01573ce	-2.3351932
4	0x3f31b57e	0.6941756
5	0x3f03467e	0.5127944

gru.weight_ih_l1 f4 [6, 2]
0	0x400585ff	2.0863035
1	0xbe318dc8	-0.17339242
2	0xbf1b44cf	-0.6065187
3	0xbff1a10b	-1.8877271
4	0xc04b6c03	-3.1784675
5	0xbfeea02f	-1.8642634
6	0x40398fda	2.899405
7	0xc02b6b8c	-2.6784391
8	0x40097784	2.1479197
9	0x4016daad	2.357097
10	0xbfe429b3	-1.7825226
11	0xbfde3356	-1.7359416

gru.weight_hh_l1 f4 [6, 2]
0	0x3f9988f3	1.1994919
1	0x3e02e192	0.12781361
2	0xbf3a8067	-0.72852176
3	0x3f4a1208	0.78933764
4	0xbf799f97	-0.9750914
5	0xbee64bcb	-0.449797
6	0xbf62793e	-0.8846625
7	0x40acf593	5.4049773
8	0x3fb1312a	1.3843129
9	0xc00a83f3	-2.1643035
10	0xbfe3d5f8	-1.7799673
11	0x3f347f33	0.7050659

gru.bias_ih_l1 f4 [6]
0	0xbe266393	-0.16248922
1	0x3e885b97	0.26632378
2	0xbf8ede4e	-1.1161592
3	0xc05a32ca	-3.40935
4	0xbf3ccf12	-0.73753464
5	0xbf800a4e	-1.0003145

gru.bias_hh_l1 f4 [6]
0	0x3c6e0e83	0.014529827
1	0xbec0cc83	-0.3765603
2	0xbfabc05e	-1.3418081
3	0xc04612fb	-3.0949085
4	0xbf9d0d78	-1.2269735
5	0xbe0f0806	-0.13967904

fc.weight f4 [5, 2]
0	0x419212b6	18.259136
1	0xc0a54144	-5.164217
2	0x4040a2d6	3.0099387
3	0xc101d1fb	-8.113765
4	0xc09195fc	-4.5495586
5	0xbfc577eb	-1.5427221
6	0xbe23e80e	-0.1600649
7	0x40c06225	6.0119805
8	0xc0c8d575	-6.276057
9	0x413fcd06	11.987555

fc.bias f4 [5]
0	0xc052b573	-3.2923248
1	0xbeb87596	-0.3602721
2	0x3fc23254	1.5171609
3	0x408ed7c1	4.463837
4	0xc0463e25	-3.097543
