models/SSD-10-hidden-1-input-2-layer.pth (torch, 7086 bytes, 10 tensors)

gru.weight_ih_l0 f4 [30, 1]
0	0x3e17cdd9	0.14824618
1	0xc1525504	-13.145756
2	0xc0771753	-3.8607986
3	0x40de6f96	6.9511213
4	0x414500fb	12.312739
5	0x41fe1712	31.761265
6	0xc149778a	-12.591684
7	0xc1846875	-16.551004
8	0xc0e21f16	-7.0662947
9	0xc110f5dc	-9.060024
10	0xc0edb8d2	-7.428811
11	0xc2482bb6	-50.042686
12	0x4023f59f	2.5618665
13	0xc11b6e93	-9.714496
14	0x41328c5f	11.15927
15	0x40123dc8	2.2850208
16	0x416dbce2	14.858614
17	0xc11bf6c8	-9.747749
18	0xbf143ccd	-0.57905275
19	0xc0bf4a9f	-5.977859
20	0x40a8d0ac	5.2754726
21	0x40946a9b	4.6380134
22	0x41974217	18.90727
23	0xc11cb29c	-9.793606
24	0x41b24681	22.284426
25	0x42321f7f	44.530758
26	0xc0c3ef3c	-6.1229534
27	0xbf2c3c1b	-0.67279214
28	0x400d0198	2.2032223
29	0x4170ac1e	15.042021

gru.weight_hh_l0 f4 [30, 10]
0	0x4109a9c7	8.60395
1	0xc0d6be19	-6.7107053
2	0x40ac984f	5.3935924
3	0x3fe65320	1.7994118
4	0xbef581a2	-0.47950464
5	0xc1805757	-16.042646
6	0xc14dc05d	-12.859464
7	0xbf101291	-0.5627833
8	0x4009e9ce	2.1548953
9	0x4177ea3f	15.494689
10	0xbf42e627	-0.76132435
11	0xbfae6971	-1.3625928
12	0xbf43fb47	-0.76555294
13	0xc028e9d1	-2.639271
14	0x3fef3f35	1.8691164
15	0xc0008f11	-2.008732
16	0xbcb1c70e	-0.021701362
17	0x3f583f99	0.8447204
18	0x3fdcdf32	1.7255614
19	0x4107543f	8.458068
20	0x3ecef69c	0.40422523
21	0x3feeeae8	1.8665438
22	0xbf41d141	-0.7570992
23	0xbf89a814	-1.0754418
24	0x3ff9ee1a	1.9525788
25	0x406f5eb3	3.740155
26	0xbfc5f893	-1.5466484
27	0xbf902156	-1.1260173
28	0xbe84d59e	-0.25944227
29	0xc0bdf079	-5.9356046
30	0xc0081002	-2.125977
31	0xc0cd4350	-6.414467
32	0xbfd46115	-1.6592127
33	0x41847b7b	16.560293
34	0xbda80f30	-0.08206022
35	0xc10f8a11	-8.971208
36	0x3f9191d8	1.1372633
37	0x3eb29e63	0.34886464
38	0xc0404655	-3.0042927
39	0xbf9997ca	-1.1999447
40	0x3f76a1ce	0.96340644
41	0xbd7dbb72	-0.06194634
42	0x3f02da46	0.5111431
43	0xbf339ebd	-0.7016409
44	0xbfe2693c	-1.7688365
45	0xbfe7a6c2	-1.8097765
46	0x3dab66e4	0.08369234
47	0xbf4e6bd5	-0.8063329
48	0xbf317202	-0.6931459
49	0x4029b925	2.6519253
50	0xbfc20bb4	-1.5159822
51	0x4051c624	3.2777185
52	0xc0b966b3	-5.7937865
53	0x40a8566d	5.26055
54	0xc010173d	-2.2514184
55	0x40b3005b	5.5937934
56	0xc05a83f7	-3.4143045
57	0x4168aba5	14.541905
58	0x40a65a79	5.198544
59	0xc11cafb3	-9.792895
60	0x403760d4	2.865285
61	0xbfc629b3	-1.5481476
62	0x3fc461cb	1.5342344
63	0x3fbf5258	1.4947004
64	0xbf7005e7	-0.93759006
65	0xc0adcd1e	-5.4312887
66	0xbfc781f6	-1.5586536
67	0xbf94ea4a	-1.1633999
68	0x3f85fa19	1.0466949
69	0x3fc52c65	1.5404173
70	0xbfcb66e5	-1.5890776
71	0x40a61459	5.189984
72	0xc0054b0d	-2.0827057
73	0x3fae40bb	1.3613504
74	0xc09c361e	-4.881606
75	0x40aa5528	5.322895
76	0x40ac8242	5.3909006
77	0xbfb35948	-1.4011621
78	0xc05147b7	-3.2700021
79	0xc0fee279	-7.9651456
80	0xbfb7c952	-1.4358313
81	0xbf207f73	-0.6269447
82	0x406155bc	3.5208578
83	0xbf2d3c6b	-0.67670316
84	0xc0320600	-2.7816162
85	0x408e53f7	4.4477496
86	0xbfcdc1e7	-1.6074799
87	0x3fec029a	1.8438294
88	0x400201ad	2.0313523
89	0x413483e6	11.282202
90	0xbeec553b	-0.46158776
91	0xc0153f0c	-2.331973
92	0xbe9171cb	-0.2840713
93	0x3fc96dc5	1.5736624
94	0xbf5b32b6	-0.85624254
95	0xc0a49a29	-5.1438184
96	0x3f6d7d19	0.9276901
97	0x3f19dcc7	0.60102504
98	0xc01f567d	-2.4896538
99	0xc0ef802a	-7.484395
100	0xc09331fa	-4.5998507
101	0xc086dffd	-4.2148423
102	0x40dba832	6.8642817
103	0xbfc5b80e	-1.5446794
104	0x402951fe	2.6456294
105	0xc0ec31db	-7.381086
106	0xc015b45c	-2.3391333
107	0xc0c6185a	-6.1904726
108	0x409f1264	4.970995
109	0xc13fe617	-11.993674
110	0xc0270301	-2.6095583
111	0x4097245a	4.7231874
112	0xbe54d118	-0.20782888
113	0xc0507186	-3.256929
114	0xbf31596c	-0.6927707
115	0x40d512c3	6.6585402
116	0xbf633c76	-0.8876413
117	0x3ec51435	0.3849198
118	0x3f37bdf1	0.717742
119	0x41010b81	8.065309
120	0xbf07273c	-0.5279424
121	0xbf249753	-0.642934
122	0x3fad5e69	1.3544437
123	0xbf90fbb0	-1.1326809
124	0x3eda3d53	0.42624912
125	0x400ea5c2	2.228867
126	0xbf926a29	-1.1438648
127	0xbf6fa85d	-0.93616277
128	0xbed7db11	-0.42159322
129	0x3f96c55d	1.177898
130	0x3e9b4b2f	0.30330798
131	0xc060a9d0	-3.5103645
132	0xc0c8cf84	-6.2753315
133	0x40e17f3f	7.046783
134	0xc1113abf	-9.076842
135	0x4111e28f	9.117812
136	0x3e2cf857	0.16891609
137	0xc0a3479e	-5.1024923
138	0xc0796eae	-3.8973804
139	0xc08312f7	-4.096065
140	0x3c7c27fc	0.015390392
141	0xbfeaa303	-1.8330997
142	0xbf7df73d	-0.9920538
143	0xc0461614	-3.0950975
144	0xbe5a1fe3	-0.21301226
145	0xc0872c99	-4.224194
146	0xbfb70633	-1.4298767
147	0x3f5b9d0a	0.857865
148	0xbf9e2d34	-1.2357545
149	0x3fbb4b57	1.4632367
150	0xc0246992	-2.5689435
151	0x3e94feaf	0.29100558
152	0xbe96ef4c	-0.29479444
153	0xbf414442	-0.7549478
154	0xbf262077	-0.6489329
155	0x40e261f9	7.0744596
156	0x3f4ae0cc	0.7924926
157	0x3fe55033	1.79151
158	0x3efa3901	0.48871616
159	0x3fedeef7	1.8588551
160	0x3fc496ba	1.5358498
161	0x40043357	2.0656335
162	0xbf73fd7d	-0.9530867
163	0x4107e224	8.49271
164	0x3e71b0d4	0.23602611
165	0xc0bf4c72	-5.9780817
166	0xc01d6ee3	-2.459893
167	0xbe52ae70	-0.20574355
168	0xbc514c40	-0.012774527
169	0xbfdd668d	-1.7296921
170	0xc03083aa	-2.7580361
171	0x3e16ece3	0.14738803
172	0x40b50342	5.6566477
173	0x40e8fb14	7.280649
174	0xc0366374	-2.8498201
175	0x405240a2	3.2851949
176	0x3edbeb02	0.42952734
177	0x40a25fad	5.074179
178	0x3fc62869	1.5481082
179	0xc02f48e0	-2.738823
180	0xc0abc509	-5.367802
181	0xbf04714b	-0.5173537
182	0xc04e4469	-3.2229254
183	0xbfc30fc9	-1.5239192
184	0x4018447e	2.3791804
185	0xbf429703	-0.76011676
186	0xc1263267	-10.387305
187	0xc054ac20	-3.3230057
188	0xc082b400	-4.0844727
189	0x40a0aa29	5.0207715
190	0xbfd88968	-1.6916933
191	0x3f918c2b	1.1370901
192	0x4021748b	2.5227382
193	0xc000271e	-2.0023875
194	0xbf86693b	-1.0500864
195	0x3e4e7cde	0.2016482
196	0x3f9dae0a	1.2318738
197	0x3f06740d	0.5252083
198	0x3e3d4497	0.18483196
199	0x3f0b186a	0.5433413
200	0x41087ad8	8.529991
201	0x40e22c79	7.067929
202	0x3f7d690e	0.98988426
203	0xc0001257	-2.0011194
204	0xc0aec4b5	-5.461512
205	0xc17501d6	-15.312948
206	0x4083b487	4.115787
207	0x40ef6ecb	7.4822745
208	0xc0fdcc51	-7.931191
209	0x409f4dba	4.978238
210	0x3f2985a8	0.6621957
211	0xbfbed211	-1.4907857
212	0x3fd688f2	1.6760542
213	0xc06ea166	-3.728601
214	0x40f370bf	7.607513
215	0xc1724183	-15.140994
216	0xc0b93986	-5.788272
217	0x3f98b2c1	1.1929551
218	0x3f9faaf2	1.2474043
219	0xc037e9b6	-2.8736396
220	0x4070703f	3.756851
221	0x4008029a	2.1251588
222	0xbdd21f11	-0.10259832
223	0xc0d6699e	-6.7003927
224	0x3f84483f	1.0334548
225	0x413b494f	11.705398
226	0x408e00a1	4.437577
227	0xc035cb4f	-2.840534
228	0x3e0697e8	0.13143885
229	0xc09d89e4	-4.9230824
230	0x402ab5fd	2.6673577
231	0xbf1bbf98	-0.60839224
232	0x401be8ef	2.4360921
233	0xc0a1778e	-5.045844
234	0xc1047dc6	-8.280706
235	0x403904d4	2.8909197
236	0xc102a402	-8.165041
237	0xc071c452	-3.7776074
238	0x3f517501	0.8181916
239	0x3f9595b3	1.168631
240	0xbfbb6cac	-1.4642539
241	0x3fca5ddd	1.5809895
242	0x3ffcf115	1.9761072
243	0xc07b6a1f	-3.928352
244	0x40807a79	4.0149503
245	0xc08c08d2	-4.3760767
246	0xc04912bd	-3.1417687
247	0xbf481aa1	-0.7816563
248	0xc065aab5	-3.5885441
249	0x4090ba3b	4.522733
250	0x4022c127	2.543039
251	0x3f74376b	0.9539706
252	0xc048a128	-3.1348362
253	0x4069013b	3.6407
254	0xc0e1b071	-7.0527883
255	0xc229b958	-42.431

gru.bias_ih_l0 f4 [30]
0	0x3f98a02e	1.1923883
1	0xbf52c103	-0.8232576
2	0xbf6d1712	-0.9261333
3	0xbe4c4f0a	-0.19952026
4	0xc0427efe	-3.039001
5	0xc03a8af5	-2.9147313
6	0xbeaaefd2	-0.33386093
7	0x4015b476	2.3391395
8	0xbf6dbd88	-0.92867327
9	0xc05d3883	-3.4565742
10	0x3eb06266	0.34450072
11	0xbf1b860c	-0.60751414
12	0xbfa63ba9	-1.2986957
13	0xbe27ce85	-0.16387375
14	0xbfbffca2	-1.4998972
15	0x400a3a86	2.159822
16	0xc0479149	-3.1182425
17	0xbf96bc5e	-1.1776235
18	0xbfd40cc7	-1.6566399
19	0xbfb61786	-1.4225929
20	0x3f08adda	0.53390276
21	0x3e4db124	0.20087105
22	0xbea62f38	-0.324579
23	0xbf751fb5	-0.95751506
24	0xbf13887d	-0.5763014
25	0xbfb6829c	-1.4258609
26	0x3e9a8380	0.30178452
27	0x3f0ab0cd	0.54176027
28	0x3e71b400	0.23603821
29	0x3dbe6dd6	0.09298293

gru.bias_hh_l0 f4 [30]
0	0x3f474c16	0.7785047
1	0xbf7bf921	-0.98427016
2	0xbf1c0d41	-0.60957724
3	0xbf056b0f	-0.52116483
4	0xc0268db8	-2.6023998
5	0xc033fc34	-2.8122683
6	0xbefa91a5	-0.48939243
7	0x4000d162	2.0127797
8	0xbfa6d055	-1.3032328
9	0xc060732a	-3.507029
10	0xbd6ca7c5	-0.057777185
11	0xbef8cb99	-0.48592833
12	0xbf85e1f8	-1.0459585
13	0xbeae245f	-0.34012124
14	0xbfc1e084	-1.5146642
15	0x4026cc14	2.606206
16	0xc03da0d2	-2.9629407
17	0xbf7b9a62	-0.98282444
18	0xbfbcacd0	-1.4740238
19	0xbfa19988	-1.2624979
20	0x40a23fc9	5.0702863
21	0x4073c8e2	3.809136
22	0x40354aa1	2.83268
23	0xc06816bf	-3.6263883
24	0xc01f1d92	-2.4861798
25	0xbfe8be04	-1.8182988
26	0xbf95053b	-1.1642221
27	0x40d9ad61	6.8024144
28	0x3eba6d9e	0.36411756
29	0x3f4eab4b	0.8073012

gru.weight_ih_l1 f4 [30, 10]
0	0xbe06db0a	-0.13169494
1	0xbfe570e8	-1.7925081
2	0xbf5526cb	-0.8326232
3	0xc0a9e2b9	-5.308926
4	0x4188acc6	17.084362
5	0xc195fd35	-18.748636
6	0xbf22e534	-0.63630986
7	0xc07fb793	-3.9955795
8	0x3fac714b	1.3472074
9	0xc1832526	-16.393139
10	0xbfc5c69e	-1.5451238
11	0xc088a517	-4.2701526
12	0x407859f7	3.880491
13	0x40bf66bb	5.9812903
14	0xc0ef5f4f	-7.4803843
15	0x41855fbf	16.671751
16	0x3fdf1cf6	1.7430713
17	0x4083764c	4.1081905
18	0xbe996537	-0.29960033
19	0x4086b9fa	4.210202
20	0xc05dcf0c	-3.4657621
21	0x40840094	4.1250706
22	0xc09f316c	-4.974783
23	0xc11c463a	-9.767145
24	0x4209cf64	34.45253
25	0xc17d04a4	-15.813633
26	0x40649d1c	3.5720892
27	0xc1183db6	-9.515066
28	0x404956c9	3.145922
29	0x41cc1c22	25.513737
30	0x4021cc46	2.5280929
31	0x403d67b0	2.9594536
32	0x415beb81	13.744996
33	0xc123abbb	-10.229426
34	0x41a78ea6	20.944653
35	0xc1b40288	-22.501236
36	0xc115d4d4	-9.36446
37	0x4115789c	9.341946
38	0xbf5fe8ca	-0.8746458
39	0xc103a2a6	-8.227209
40	0xbfad7d80	-1.3553925
41	0xc105b89e	-8.357573
42	0x4086a0d9	4.2071347
43	0x4197196d	18.887415
44	0xc07aceef	-3.9188802
45	0xc0c80806	-6.2509794
46	0xc0983f97	-4.7577624
47	0xc0d2ba21	-6.585221
48	0x3f558924	0.83412385
49	0x3f9bc192	1.2168448
50	0x3fe13bb8	1.759635
51	0x4091f257	4.5608325
52	0xc1a4cea0	-20.600891
53	0x40637457	3.5539758
54	0x4032fbcb	2.7966182
55	0x41107d40	9.030579
56	0x3e4e84d0	0.20167851
57	0x4022045a	2.5315156
58	0xc1050e73	-8.316028
59	0xc1060c1d	-8.377957
60	0xc02f244d	-2.7365906
61	0x41176fe7	9.46482
62	0x41695c1d	14.584989
63	0x4121933d	10.098447
64	0xc08b3a60	-4.350876
65	0xc188ff3c	-17.124626
66	0x4083c0dd	4.117293
67	0x40a0a177	5.01971
68	0x3e908825	0.2822887
69	0xc0288556	-2.6331382
70	0xbfb4cbaa	-1.4124653
71	0xc12851fd	-10.520017
72	0xc09f0de7	-4.970447
73	0xc0ee34d4	-7.4439487
74	0x41bc5fc4	23.54676
75	0x418fbb50	17.966461
76	0xc0182493	-2.3772323
77	0x3f0a6463	0.5405943
78	0xc172c607	-15.1733465
79	0x4177439b	15.454005
80	0x4126b385	10.418828
81	0x401fa3ed	2.4943802
82	0x410da41e	8.852568
83	0x4103878e	8.220594
84	0x4088f7cc	4.2802486
85	0x420dc4c7	35.442165
86	0xc16aa0cd	-14.664258
87	0xc08c8b23	-4.3919845
88	0x40a5b712	5.1785975
89	0x41befb37	23.872663
90	0xc0bd8232	-5.922143
91	0x3fb289ad	1.3948265
92	0xc11a8ea9	-9.659829
93	0x40cca028	6.3945503
94	0x4088e007	4.277347
95	0x4142d6b6	12.17742
96	0xc0254890	-2.5825539
97	0xc0e31908	-7.0968056
98	0xc0e25abd	-7.0735765
99	0xc13758c9	-11.459176
100	0x4034aefb	2.82318
101	0xc06866b2	-3.631268
102	0xc1131569	-9.192727
103	0xc023ee24	-2.56141
104	0xc0a1b6ff	-5.0535884
105	0x418a00a9	17.250322
106	0x3fd2177c	1.6413417
107	0xc10bf152	-8.746416
108	0xc0830a42	-4.095002
109	0xc018f643	-2.3900306
110	0xbfd5672b	-1.6672109
111	0xc0b87764	-5.764574
112	0xc1681caf	-14.507003
113	0x40fc47d3	7.8837676
114	0x3eeebf74	0.46630442
115	0xc1baaa03	-23.333014
116	0xc10a9030	-8.660202
117	0x3ffadcbc	1.9598613
118	0xc0154279	-2.3321822
119	0xc0a55470	-5.1665573
120	0x4107b84e	8.482496
121	0xc00f7790	-2.2416725
122	0xbf0bbfdf	-0.5458965
123	0xc0ed37a9	-7.4130445
124	0xba626614	-0.00086364266
125	0x4224b448	41.176056
126	0x41684424	14.516636
127	0xbffad78e	-1.9597032
128	0xbe7f4642	-0.24929145
129	0x41bdea8d	23.739527
130	0x3ec865d0	0.39140177
131	0xc0d9664a	-6.7937365
132	0x40d87ab7	6.76498
133	0x40cb97e1	6.36229
134	0xc0a19e7f	-5.0505977
135	0x41085ee5	8.523168
136	0xc02c2ecc	-2.6903563
137	0xc11381d9	-9.219201
138	0xbf9d024e	-1.2266328
139	0x409c829c	4.8909435
140	0xc115d0a0	-9.363434
141	0xc093b0a4	-4.6153126
142	0xc067bd86	-3.6209426
143	0x4060640d	3.5061066
144	0x406f1d44	3.7361612
145	0x41a67101	20.805178
146	0xc02c6092	-2.6933942
147	0x3ee3f8c1	0.44525722
148	0x4182b2f6	16.337383
149	0xc18feeb1	-17.991549
150	0xc0280322	-2.6251912
151	0xc125fbba	-10.373957
152	0x3f81b434	1.0133119
153	0xbf8d007e	-1.1015775
154	0xbfc13a4d	-1.5095917
155	0xc05f1980	-3.4859314
156	0x40c7ea66	6.247363
157	0x4088146b	4.2524924
158	0x3f860061	1.0468866
159	0x410e9666	8.911718
160	0xc08174f8	-4.0455284
161	0xbf8a1fcc	-1.0790954
162	0x41104858	9.017662
163	0x3e08634e	0.13319132
164	0x4072619d	3.7872078
165	0xc1ef9453	-29.947424
166	0x412d12d4	10.817097
167	0x4003b67a	2.0580125
168	0xc0603c45	-3.5036786
169	0x41207037	10.027396
170	0x417dd432	15.8643055
171	0xc115e458	-9.368248
172	0xc17cdc32	-15.803759
173	0x40a6ac9a	5.2085695
174	0xc15536d4	-13.325886
175	0x4166517b	14.394893
176	0x401e8175	2.4766514
177	0xc0b53c4d	-5.663611
178	0x415f3e9a	13.952784
179	0x40bdf1a0	5.9357452
180	0xc0885709	-4.2606244
181	0xbfde8940	-1.7385635
182	0x40e9b915	7.303843
183	0xc08772f9	-4.2327847
184	0xc0f535c5	-7.6628137
185	0xc1bd5f6c	-23.671593
186	0xc0a328ee	-5.0987463
187	0xc0a57c5e	-5.1714315
188	0xbfc15dd9	-1.5106765
189	0xbf06485e	-0.52454174
190	0xc120a996	-10.041403
191	0x3ff14355	1.8848673
192	0x40953f6f	4.6639934
193	0x418d42d5	17.657633
194	0xbf847cb4	-1.0350556
195	0x40c89b4e	6.268958
196	0xbfef6f49	-1.8705837
197	0xc05575c7	-3.3353136
198	0x3fa632da	1.2984269
199	0x3fb7ad9c	1.4349856
200	0xbddebe69	-0.108761616
201	0x3f4f1daf	0.8090467
202	0xc0056196	-2.0840812
203	0x404856ec	3.1303053
204	0xbf13db1f	-0.5775623
205	0xbf80352c	-1.0016227
206	0x3fa61bd7	1.2977246
207	0x40845f54	4.1366367
208	0x3f5af65e	0.85532176
209	0xc06cfffc	-3.703124
210	0xbf107fb6	-0.5644487
211	0x4099b58b	4.803411
212	0xc016a157	-2.3535974
213	0x4165701d	14.339871
214	0xbf732070	-0.9497137
215	0x3f1bb6be	0.6082572
216	0x3f0633f1	0.52423006
217	0x40012c0b	2.0183132
218	0xc079ff3f	-3.906204
219	0xc1376434	-11.461964
220	0xc0d7452a	-6.727193
221	0xc0623c8a	-3.534945
222	0xc0c72d73	-6.224298
223	0x41366043	11.398501
224	0x41181ddb	9.507289
225	0x4037d830	2.87257
226	0xc08082a1	-4.015946
227	0x4094df4e	4.652259
228	0xbfd9341f	-1.6969031
229	0xc10c5de7	-8.772925
230	0xc0c7d75c	-6.245039
231	0xc01bc8a3	-2.434121
232	0x3d8d1fa3	0.068908
233	0x407c8597	3.9456537
234	0xc10dc424	-8.860386
235	0x411d1df0	9.819809
236	0x3fc041e6	1.5020111
237	0x4004046e	2.0627704
238	0xbfdc3de6	-1.720639
239	0x3f83cb76	1.0296466
240	0xc08b6775	-4.356379
241	0xbfa88aa3	-1.3167309
242	0xbeb3193e	-0.34980196
243	0x40d51ac2	6.6595163
244	0x4017a553	2.3694656
245	0xc18ec439	-17.845812
246	0x3f197435	0.5994294
247	0x3f57040a	0.8399054
248	0x401be466	2.4358153
249	0xc0cf39a4	-6.475786
250	0xc0963a66	-4.6946287
251	0xc05808a3	-3.3755271
252	0xbf66f3fb	-0.90216035
253	0x4147b49f	12.481597
254	0xbfe8ffa4	-1.8203015
255	0x41c030bd	24.023798

gru.weight_hh_l1 f4 [30, 10]
0	0x3f1409c1	0.57827383
1	0xbe52ddc7	-0.20592414
2	0xc03b413a	-2.925856
3	0x4058639b	3.3810794
4	0xc047fc36	-3.1247687
5	0x407e82b7	3.9767282
6	0x40a9287c	5.286192
7	0x4061ad24	3.5261927
8	0x3f4b5832	0.7943145
9	0x404712d3	3.110524
10	0x4040b13a	3.010817
11	0x401de5c6	2.4671493
12	0x3ffbed07	1.968171
13	0x40127ffe	2.289062
14	0x410a7d14	8.655537
15	0x4018c1a9	2.38682
16	0x3e3c37b7	0.18380629
17	0xc0aeaef4	-5.4588566
18	0xc0814f2b	-4.040914
19	0xc0a04c7b	-5.009336
20	0x40704f82	3.7548528
21	0x40c1bcf7	6.054317
22	0xc00d7165	-2.210046
23	0xc0b09f18	-5.5194206
24	0x3fc26917	1.5188321
25	0x403d6508	2.9592915
26	0xbfe8e93d	-1.8196179
27	0xc085ceb5	-4.181483
28	0xbe9a2e82	-0.30113608
29	0xbf9a8f9b	-1.2075075
30	0xc00459af	-2.0679739
31	0xc0fda92f	-7.9269023
32	0x40114661	2.2699206
33	0xbe5f2774	-0.21792394
34	0xc08d44ce	-4.414649
35	0xc07ad709	-3.9193747
36	0xbfb1c3b6	-1.3887851
37	0xbe645c5b	-0.22300856
38	0x405920ce	3.3926272
39	0x40af752d	5.4830537
40	0x3f67d228	0.9055505
41	0xbf960bf5	-1.1722399
42	0x404d4d26	3.2078338
43	0x4056a64b	3.3538997
44	0x3f237451	0.6384936
45	0x401163f8	2.2717266
46	0xc084cdd9	-4.150128
47	0xbfd64bd9	-1.6741897
48	0xbfc22e7a	-1.5170434
49	0xbf831397	-1.0240353
50	0xc069f936	-3.6558356
51	0x4123dd0e	10.241468
52	0x40b6453f	5.695953
53	0x40751b28	3.8297825
54	0xbfa7136b	-1.3052801
55	0xc04f845e	-3.242454
56	0x3fcf483f	1.6193923
57	0x3f50eef0	0.8161459
58	0x3f3ab948	0.72938967
59	0xc053c48b	-3.308871
60	0x3ea252bb	0.31703743
61	0x3fe9a0d1	1.8252202
62	0x3f9d32f2	1.2281172
63	0xbeb060b3	-0.34448776
64	0xbf11c2e8	-0.5693803
65	0xc036faaf	-2.8590505
66	0xc077d594	-3.8724108
67	0xbd8cfe7a	-0.06884475
68	0xc0008506	-2.008119
69	0x3f6320d1	0.8872195
70	0x418726cc	16.893944
71	0x3ffdbffc	1.9824214
72	0x402ce04d	2.7011902
73	0x3fadc214	1.3574853
74	0xc102023c	-8.1255455
75	0xbf4ded5c	-0.80440307
76	0xc13adc4d	-11.678784
77	0x3f823512	1.0172446
78	0xc0d46c37	-6.63821
79	0xc15dca63	-13.861911
80	0x4139ce79	11.612908
81	0x40f38cfd	7.6109605
82	0x40702c33	3.7526977
83	0xbf94e4c0	-1.1632309
84	0x3e27d355	0.1638921
85	0x40ec192c	7.3780727
86	0xc07f28ac	-3.9868574
87	0xc0414527	-3.0198457
88	0xc0c367d5	-6.106425
89	0x4106a341	8.414857
90	0x3f3fd186	0.7492908
91	0x40b8735e	5.764083
92	0xbfbe113b	-1.4849008
93	0x40714ff4	3.770505
94	0xbf46c5ff	-0.7764587
95	0xbff89441	-1.9420244
96	0x3ed19c34	0.40939486
97	0x40e1dee3	7.058458
98	0x404f595a	3.2398286
99	0xbf9a3514	-1.2047448
100	0x41347f23	11.281039
101	0x40c615b7	6.1901507
102	0xbfacb5fb	-1.3493036
103	0x3fc4dada	1.5379288
104	0x3d9be127	0.07611304
105	0xc0542859	-3.3149626
106	0x3f341d21	0.7035695
107	0x3fd19b53	1.6375526
108	0x403b946c	2.930934
109	0xc13d04f7	-11.813712
110	0x40b0ed63	5.528978
111	0x3f8a632a	1.0811512
112	0xbee70cfa	-0.45127088
113	0x3fcc8eeb	1.5981115
114	0x3fbb1dfb	1.4618524
115	0x3ef156fe	0.47136682
116	0x4082fbb6	4.0932264
117	0xc028071a	-2.6254334
118	0x40236fe5	2.5537045
119	0xbfe4f3a6	-1.7886856
120	0x410b04ad	8.688642
121	0x3ff9c957	1.9514569
122	0x413aa349	11.664865
123	0xc018159a	-2.3763185
124	0x40e2e072	7.089898
125	0xc0696eb9	-3.647383
126	0xc002ff32	-2.046826
127	0x4090a35b	4.519941
128	0xc0d10074	-6.5313053
129	0x4017fc59	2.374777
130	0x4083ba99	4.116528
131	0xc0162ee9	-2.3466132
132	0x3f8ed682	1.1159213
133	0xbdc9c1d8	-0.09851426
134	0xc02910fd	-2.641662
135	0x3f2f34ff	0.6844024
136	0xbf64bcdf	-0.89350694
137	0xc009f113	-2.155339
138	0xc0630b0a	-3.5475488
139	0x40804864	4.0088367
140	0xc19ea422	-19.830143
141	0x4110a829	9.041055
142	0x3dd97979	0.10618872
143	0xbf7c0e17	-0.98459
144	0xbfbcc13f	-1.4746474
145	0x409e7064	4.9512196
146	0xc025eeb2	-2.5926938
147	0x3e852a43	0.26008806
148	0x402c0aa7	2.6881502
149	0x40ac7f48	5.3905373
150	0x41869aa2	16.825504
151	0xc12e1584	-10.880253
152	0x3f86a3b1	1.0518705
153	0x40ed08da	7.4073305
154	0x3fe11755	1.7585245
155	0x40ee493e	7.4464407
156	0xbfd38cc6	-1.6527336
157	0x40b81a6f	5.7532268
158	0x401726e1	2.361748
159	0xc0eff759	-7.498944
160	0xc0191bdc	-2.3923254
161	0xc0379311	-2.8683512
162	0x3eb8588e	0.36005062
163	0xc019a601	-2.400757
164	0x3f888fe6	1.0668914
165	0x3ffcc21a	1.9746735
166	0xc0150047	-2.328142
167	0xbf473ce6	-0.778273
168	0x400299f7	2.0406473
169	0x418fbb07	17.966322
170	0xc0903bb9	-4.5072904
171	0x3fe559bb	1.7918009
172	0x40ec2a7d	7.3801866
173	0x40480a1b	3.1256168
174	0xbe9929b6	-0.29914635
175	0xbfc4bfff	-1.5371093
176	0x40a522fa	5.1605196
177	0xbd6bd976	-0.057580434
178	0x4116b42e	9.418989
179	0x3f71d979	0.9447246
180	0xc1037a48	-8.217354
181	0xbfdabb7e	-1.7088468
182	0xc127960a	-10.474131
183	0x407eb9ca	3.9800897
184	0x40d93f21	6.788956
185	0xc008f689	-2.1400473
186	0xc0e94c1f	-7.290542
187	0x414efcc1	12.9367075
188	0xc137768b	-11.466441
189	0xc0abaf97	-5.3651843
190	0xbf324015	-0.6962903
191	0x412ba9d1	10.728959
192	0x40930bce	4.595191
193	0x3fc5ccda	1.5453141
194	0x3facb1d4	1.3491769
195	0xbfa5c933	-1.2952026
196	0x404b8ba7	3.1803987
197	0x3ef4744b	0.47744974
198	0x3fd43634	1.6579041
199	0xbe91574f	-0.28386924
200	0xc02cffc5	-2.703111
201	0xbfb53a0d	-1.4158341
202	0xbe8444c1	-0.25833705
203	0xbf92fdde	-1.1483724
204	0xbf8a2cfe	-1.079498
205	0x40040218	2.0626278
206	0x3fd50d49	1.6644679
207	0x40eb560f	7.354255
208	0x3e983d0c	0.29734075
209	0x40b7df49	5.7460065
210	0xbf5ad1d9	-0.8547645
211	0x3f4e3360	0.8054714
212	0x3f8083fb	1.0040277
213	0xbe027357	-0.12739311
214	0xc0816ea9	-4.0447583
215	0xc039a26e	-2.900539
216	0xbe9e6b32	-0.3094116
217	0xc005e6e7	-2.0922182
218	0xbe3b4b42	-0.18290427
219	0x3fae14de	1.3600118
220	0x401d0324	2.4533167
221	0x3f023f9b	0.50878304
222	0xc0bd755a	-5.920575
223	0xbfd5c714	-1.6701379
224	0xbea040cf	-0.31299445
225	0xbfbe6e6b	-1.4877447
226	0x40d5e63e	6.6843557
227	0xc0530edf	-3.2977827
228	0xc031db3f	-2.7790067
229	0x401350e0	2.3018112
230	0x3fd11531	1.6334592
231	0xc012bede	-2.2928996
232	0xbf14758e	-0.57991874
233	0xbfeb51a5	-1.8384291
234	0xc0588503	-3.3831184
235	0x3f473e6d	0.7782963
236	0xc02aaff6	-2.6669898
237	0xc04cfb4c	-3.202838
238	0xbe567656	-0.20943579
239	0xc0819ef4	-4.0506535
240	0xc0b6d3c7	-5.7133517
241	0x3f86908b	1.0512861
242	0x405f6eab	3.4911296
243	0xc0041993	-2.064061
244	0xbeb4692a	-0.35236484
245	0xc1326717	-11.150168
246	0x4037df6e	2.873012
247	0x408f5f0d	4.480353
248	0xc01d96f6	-2.462339
249	0xbf42a603	-0.76034564
250	0x405c5ca7	3.443155
251	0x40d0d2f9	6.5257535
252	0xc071fdb5	-3.78111
253	0x40c6445c	6.1958447
254	0x3f5247f8	0.82141066
255	0xbfac2570	-1.3448925

gru.bias_ih_l1 f4 [30]
0	0xc00c89c0	-2.1959076
1	0xbe64a8a5	-0.22329958
2	0x40412e86	3.0184646
3	0x3fcc982c	1.5983939
4	0xbfdbde6f	-1.7177256
5	0x3dbb4251	0.09143508
6	0x40002260	2.002098
7	0xc010ccde	-2.262504
8	0xbe58a6f5	-0.21157439
9	0xc0145b00	-2.3180542
10	0xc0997f9f	-4.7968287
11	0xc0a61641	-5.1902165
12	0xc0ef42f3	-7.4769225
13	0xbf7cab8d	-0.98699266
14	0xbfce7fcf	-1.6132754
15	0xc107d769	-8.49009
16	0xc0029100	-2.0401
17	0xc1049ef5	-8.288808
18	0xc00564cf	-2.0842779
19	0xc11647d8	-9.39254
20	0x3fc5d3ef	1.5455302
21	0xc07efbc2	-3.984116
22	0xc122ef45	-10.183415
23	0xbf4f5b5a	-0.80998766
24	0x3fc2a954	1.5207925
25	0xc03bba57	-2.9332483
26	0x3e97e40c	0.29666173
27	0x3fcd82ee	1.6055582
28	0xc038d4c9	-2.8879874
29	0x3f15c152	0.5849811

gru.bias_hh_l1 f4 [30]
0	0xc0088007	-2.1328142
1	0xbe1d5436	-0.15364155
2	0x40312330	2.7677727
3	0x3f96bb1a	1.1775849
4	0xbfe5c7b9	-1.7951576
5	0x3e342079	0.17590512
6	0x401ad504	2.4192514
7	0xc00b783f	-2.1792142
8	0xbf288005	-0.6582034
9	0xc01ada74	-2.4195833
10	0xc0998eaf	-4.7986674
11	0xc09b58db	-4.8545966
12	0xc0f6b751	-7.7098775
13	0xbf83adf7	-1.0287465
14	0xbfe839c7	-1.8142632
15	0xc1026c64	-8.151463
16	0xc018e102	-2.3887334
17	0xc1045731	-8.271287
18	0xc005452f	-2.0823476
19	0xc116af78	-9.417839
20	0x3fd81975	1.6882769
21	0xbfd4b58e	-1.6617906
22	0x40115d7d	2.271331
23	0x40b5db86	5.6830473
24	0x409f43d7	4.977031
25	0xbf064b5a	-0.5245873
26	0x3e48c2b5	0.19605525
27	0xc02b9215	-2.6807911
28	0x3f767e10	0.96286106
29	0xbe23c1f1	-0.15991952

fc.weight f4 [7, 10]
0	0x41897b06	17.18507
1	0xc0144c61	-2.3171618
2	0x41dd9115	27.69584
3	0xc0e45b73	-7.136163
4	0xc282d82b	-65.4222
5	0x417d76c4	15.8414955
6	0x41819069	16.195513
7	0xc15ed3ce	-13.92671
8	0xc11b5c24	-9.709995
9	0x4104c859	8.298913
10	0xc29813c0	-76.038574
11	0xbfed4bbb	-1.8538736
12	0x418b7642	17.432743
13	0xc28e8982	-71.26857
14	0xc1c1e0de	-24.234798
15	0xc01091e6	-2.258905
16	0xc07db51d	-3.9641793
17	0xc23aa24f	-46.658504
18	0x419eb91a	19.840382
19	0x4226b16c	41.673264
20	0xc233b107	-44.92288
21	0xc1492b70	-12.573105
22	0xc112f563	-9.184909
23	0xc206c94c	-33.69658
24	0xc13981a3	-11.59415
25	0xc1a07812	-20.058628
26	0xc153bde6	-13.233862
27	0xc1438847	-12.220771
28	0x4175a326	15.352331
29	0x42539b2a	52.901527
30	0x41872692	16.893833
31	0xc0138450	-2.3049507
32	0x402dc6bc	2.7152548
33	0xc0e14c25	-7.040545
34	0xc13dd503	-11.864505
35	0x412e81a5	10.9066515
36	0x417dddf6	15.86669
37	0xc15bfadf	-13.748748
38	0xc119e542	-9.618471
39	0x4102f888	8.185677
40	0x420ee6ce	35.725395
41	0x41a77195	20.93046
42	0x3c0af3cd	0.008480978
43	0x41f18dbd	30.194208
44	0x4167ec4b	14.495189
45	0x41ee9c05	29.826181
46	0xc150264f	-13.009353
47	0x412595a8	10.349037
48	0x40c4d958	6.151531
49	0xc259ff2b	-54.499187
50	0x41e29e1a	28.327198
51	0x420e094f	35.50909
52	0x40f864d4	7.762308
53	0x4218025d	38.002308
54	0x413f4b59	11.955895
55	0x41d489d1	26.567293
56	0xc1940dae	-18.50668
57	0x40897d76	4.296565
58	0xc11648a0	-9.392731
59	0x409b4615	4.852305
60	0x41ff0ae7	31.880323
61	0x418ad78f	17.355253
62	0x417ca76d	15.790875
63	0xc1e5ee51	-28.741365
64	0x428ee267	71.44219
65	0x40bcf421	5.904801
66	0xc1ed8d6f	-29.69406
67	0x41b12850	22.144684
68	0x3dcef089	0.10104472
69	0xc1815198	-16.16484

fc.bias f4 [7]
0	0xc20eeef7	-35.733364
1	0xc1a80a18	-21.004929
2	0x410336b1	8.200852
3	0xc126c982	-10.424196
4	0x41c2cc24	24.349678
5	0xc208262e	-34.037285
6	0xc2239fa6	-40.905907
