models/SSD-3-hidden-1-input-2-layer-2-disc.pth (torch, 4608 bytes, 10 tensors)

gru.weight_ih_l0 f4 [9, 1]
000000 dc a5 31 bf 7b 8a 85 3f fd 13 70 bf 34 dd 27 be
       -0.69393706 1.0432886 -0.937805 -0.16392976
000010 de 64 76 be 26 28 af 3d 05 87 c8 3f ec ed 83 bf
       -0.24061915 0.085525796 1.5666205 -1.0306983
000020 2d fb ba 3f
       1.4607903

gru.weight_hh_l0 f4 [9, 3]
000000 c0 a3 9f be ef 0b 43 be 11 ac b8 3e a9 cc 2f 3f
       -0.3117962 -0.19047521 0.36068776 0.6867166
000010 7e 97 47 be 8c 62 4c 3d 21 2c 25 3f 81 69 81 3e
       -0.19491383 0.04989867 0.6452046 0.25275806
000020 ad b1 ae 3e ef 92 c9 3f 71 92 eb 3e bc ec 3d 3f
       0.3411993 1.5747966 0.46010163 0.74189353
000030 bb e7 43 3f bf 37 3d 3f f2 08 5e bd cb f5 ab 3e
       0.7652547 0.73913187 -0.05420775 0.33585963
000040 2a d3 e2 3f 39 83 7f 3f a3 74 80 be 9f 0d cf 3e
       1.7720692 0.99809605 -0.25088987 0.4044008
000050 e2 e3 da 3e 49 2d e1 3e 7d 18 ef 3e 64 46 9b 3e
       0.42751986 0.43979862 0.4669837 0.3032714
000060 27 2f 89 be 7b a3 1b 3f 54 c2 34 3d
       -0.26793787 0.60796326 0.04413064

gru.bias_ih_l0 f4 [9]
000000 c0 6e 90 bd e3 20 dd be 9a 08 29 be c1 ba 5b bf
       -0.07052374 -0.43189153 -0.16507187 -0.8583184
000010 5c d8 5a bf 7e a8 b4 bf a6 e7 de bd 4b ea 0a bf
       -0.8548639 -1.411392 -0.10884027 -0.5426375
000020 95 0a 64 bd
       -0.055674154

gru.bias_hh_l0 f4 [9]
000000 7a 62 9c be 98 71 0e 3d 6a cc ad 3e 5b 3b 8a bf
       -0.30543882 0.0347763 0.33945018 -1.0799364
000010 49 cb 4f bf e9 52 29 bf d1 fd b2 bd 44 c8 44 bf
       -0.81169564 -0.66142136 -0.08739818 -0.7686808
000020 23 88 33 bd
       -0.043831002

gru.weight_ih_l1 f4 [9, 3]
000000 93 89 01 3f a2 d9 0a be 70 f3 5d 3f b2 1c 2f bf
       0.50600547 -0.13559583 0.8669958 -0.6840316
000010 5c e8 81 bd f4 e1 17 bf f4 7e 42 3f e2 15 2c be
       -0.06343147 -0.5932915 0.75974965 -0.16805223
000020 c7 4e 8c 3f 65 a5 1e 3f 15 66 b2 3f ab f4 83 3e
       1.0961541 0.6197112 1.3937403 0.25772604
000030 16 7d d6 3e 87 fc a8 3f bf a7 e9 3e 73 cf 8d 3f
       0.41892308 1.3202065 0.45635793 1.1078933
000040 68 bf fb 3e 54 b8 0e 3f e2 13 a3 3e db b4 56 3f
       0.4916947 0.5575001 0.31851107 0.83869714
000050 e1 f1 e1 3e 9b 7f 3a 3f 72 bd cc 3e 0a 60 d7 3e
       0.4412985 0.7285096 0.39988285 0.4206546
000060 a0 f1 59 3f 0e 09 59 be 82 c6 ba 3f
       0.85134315 -0.2119486 1.459183

gru.weight_hh_l1 f4 [9, 3]
000000 69 f6 9e be 73 5c 8b bf dc 17 ef bb 4e 41 6c bc
       -0.3104737 -1.0887588 -0.0072965454 -0.014419867
000010 f1 35 13 3f de 55 bc be 01 c4 7c be f7 50 e6 3b
       0.57504183 -0.3678426 -0.24684145 0.0070286947
000020 95 40 9f be 4b 71 ce be f6 57 18 be 74 05 93 3e
       -0.3110396 -0.4032081 -0.14877304 0.28715098
000030 4f a6 11 3f eb 36 a7 3f c7 7b 47 3f 25 14 24 3f
       0.5689439 1.3063635 0.77923244 0.6409324
000040 66 7f ba 3f 06 30 46 3f 86 17 53 3e fd 9a 1b 3f
       1.4570129 0.7741703 0.20614442 0.6078337
000050 17 52 35 3f 47 af 19 bf 06 a9 a7 3e ee 1a 7e 3f
       0.70828384 -0.60033077 0.32746142 0.9925984
000060 e2 44 c9 be 25 11 07 bf 79 82 fa 3c
       -0.39310366 -0.52760535 0.030579792

gru.bias_ih_l1 f4 [9]
000000 aa d5 b2 3d 71 5a 87 3d 9a d1 01 be 07 9f b9 be
       0.087321594 0.06609047 -0.12677613 -0.3625414
000010 e4 16 3c bf be aa f3 be b9 5e 37 bf be bc 73 bd
       -0.7347243 -0.47591203 -0.7162891 -0.05950617
000020 f4 9c 86 be
       -0.2629162

gru.bias_hh_l1 f4 [9]
000000 64 2b 4b 3f 3b d5 c5 3e 24 ba 0c be 8e f7 44 bf
       0.79363084 0.38639244 -0.13742882 -0.7694024
000010 cd 80 a4 bf 2d 4c 1f bf 7b 6c c5 be 9a ea 1a bf
       -1.2851807 -0.6222561 -0.38559327 -0.60514224
000020 e1 15 3c 3f
       0.73470885

fc.weight f4 [5, 3]
000000 d3 13 7d 3f 8d 46 91 3f 4e 66 99 3f e2 f1 33 3e
       0.98858374 1.1349655 1.1984346 0.1757274
000010 cc 06 ee 3e b4 4e 93 3f 1f e1 a9 be 39 41 3f bf
       0.4648956 1.1508393 -0.33179566 -0.74708897
000020 c8 dd bf be fe 78 44 3f 34 8e af be 82 6d ab bf
       -0.37473893 0.7674712 -0.3428818 -1.3392794
000030 b9 1c 4f 3f 5b 87 ad 3f ae 66 d7 be
       0.809032 1.3556932 -0.42070526

fc.bias f4 [5]
000000 58 3d d0 be ea 06 1c be 26 cc b4 3e 93 ba 61 be
       -0.40671802 -0.15237013 0.35312003 -0.22043829
000010 98 2f 10 bf
       -0.5632262
