models/SSD-5-hidden-1-input-2-layer.pth (torch, 5406 bytes, 10 tensors)

gru.weight_ih_l0 f4 [15, 1]
0	0xbffea4d7	-1.9894055
1	0xc1004f03	-8.01929
2	0x40e6cd66	7.212573
3	0x408488b9	4.14169
4	0x3f864839	1.0490791
5	0xc0f386e6	-7.610217
6	0xc0cd3f43	-6.4139724
7	0x3d8cc481	0.06873418
8	0x4009a7e3	2.150872
9	0x3fa18ef3	1.262175
10	0x4034d5db	2.8255527
11	0x40297dd6	2.6483054
12	0x410f9819	8.974633
13	0x4052b6da	3.2924104
14	0xc10ae58a	-8.68104

gru.weight_hh_l0 f4 [15, 5]
0	0x4027e9be	2.6236415
1	0x3cc1e6f3	0.023669695
2	0x3f32b3bd	0.6980551
3	0x3fb36189	1.401414
4	0x3d80f0b3	0.0629591
5	0x400473df	2.0695722
6	0x400b769a	2.1791139
7	0xbf82c153	-1.0215248
8	0x408043d5	4.0082803
9	0x3fa6fb82	1.3045504
10	0xbf731dc1	-0.94967276
11	0x3d940274	0.072270304
12	0xbf01b522	-0.5066701
13	0xbdad0692	-0.08448519
14	0x3d22c562	0.03973902
15	0xbf9bb711	-1.2165242
16	0xc00079c1	-2.0074313
17	0x401754a1	2.3645403
18	0xbf89c3ef	-1.0762919
19	0xc00c6f8a	-2.1943078
20	0x3faf0b3d	1.3675305
21	0x3edb99aa	0.42890674
22	0x3f285b99	0.65764767
23	0x3d36ea5b	0.044657093
24	0xbf89155e	-1.0709646
25	0x3f94fc97	1.1639584
26	0xbd7cecf1	-0.061749402
27	0xbfe4efe3	-1.7885708
28	0x40379cb1	2.8689387
29	0x3f93d46a	1.1549199
30	0x3f9b39d4	1.2127023
31	0xbff86c41	-1.9408036
32	0x40057edc	2.085868
33	0x4062952c	3.5403547
34	0xbec9b14a	-0.39393073
35	0xbdeedbdf	-0.11663031
36	0x40236a12	2.553349
37	0xbee01611	-0.43766835
38	0xbea45651	-0.32097104
39	0xbf461a8b	-0.7738425
40	0xc081b537	-4.053371
41	0xbfb95645	-1.4479452
42	0x3e80705a	0.25085717
43	0xbe9614dc	-0.2931279
44	0xbe8bebac	-0.2732824
45	0xbd449471	-0.047993127
46	0x4003750c	2.054019
47	0x3f931294	1.1490045
48	0xc07e3845	-3.9721844
49	0xbed6a3bf	-0.41921803
50	0x3f8250a8	1.0180864
51	0x3f3c7e3e	0.7363013
52	0x3fd5e432	1.6710265
53	0xbf0a6135	-0.54054576
54	0xc0154164	-2.3321161
55	0x3f0a22b9	0.5395923
56	0xbe110850	-0.14163327
57	0xbf653b3c	-0.8954351
58	0x402ef420	2.7336502
59	0x3e97dded	0.29661503
60	0x3f393ec3	0.7236139
61	0xbe519b43	-0.20469384
62	0x3e9b0b47	0.3028204
63	0x3f0ad1f4	0.54226613
64	0xbf857b52	-1.0428259
65	0x3fbdd496	1.4830501
66	0x3e771d50	0.24132276
67	0x4021caaa	2.5279946
68	0x3e05fb27	0.13084088
69	0xbf97af1a	-1.1850312
70	0xbc2e15ff	-0.010625361
71	0xbd320c41	-0.043468717
72	0xbfd85168	-1.6899843
73	0xbed9bfc7	-0.42529127
74	0x3eabff7b	0.33593354

gru.bias_ih_l0 f4 [15]
0	0x3c3c5f27	0.011497295
1	0xbf177b6e	-0.59172714
2	0xbf8d8e9c	-1.1059146
3	0x3f035693	0.51303977
4	0xbf4d3083	-0.8015215
5	0x3e26019d	0.16211553
6	0xbfed7c24	-1.855351
7	0xbffdfe25	-1.9843184
8	0x3e0183a9	0.1264788
9	0xc005ea62	-2.0924306
10	0xbd3f0adb	-0.046641212
11	0xbc467e7c	-0.012115117
12	0x3d2190e3	0.039444815
13	0xbe7e28ec	-0.24820298
14	0x3c04b690	0.008100167

gru.bias_hh_l0 f4 [15]
0	0x3d98edda	0.074672416
1	0xbfabd3d4	-1.342402
2	0xbf8cfa1a	-1.1013825
3	0x3dab094c	0.083513826
4	0xbf83fd70	-1.0311718
5	0xbde0b752	-0.109724656
6	0xbfb2082a	-1.3908741
7	0xc00675c2	-2.1009374
8	0xbcd859d2	-0.026410017
9	0xc0240aba	-2.5631547
10	0xbe5b6d5c	-0.21428436
11	0xbdadaf70	-0.08480728
12	0x3e4a3496	0.19746622
13	0x3f6831c6	0.9070095
14	0xbdf89ae8	-0.12138921

gru.weight_ih_l1 f4 [15, 5]
0	0x3ee02ed4	0.43785727
1	0x3e799c49	0.24376024
2	0x3f99a374	1.2003007
3	0xbf2fc0aa	-0.6865336
4	0xbf0c2e69	-0.54758316
5	0x3e98de65	0.29857174
6	0x3efc8828	0.4932263
7	0xc055aba2	-3.3386006
8	0x3f4a2388	0.78960466
9	0x40b2d318	5.5882683
10	0x3f8e377b	1.1110681
11	0xc0394e38	-2.895399
12	0xbfc81607	-1.5631722
13	0x3fee1b1b	1.8602022
14	0x406a53d5	3.6613667
15	0x3ecaec3b	0.39633355
16	0xbf9ba918	-1.2160978
17	0xbefacc6e	-0.48984092
18	0xbe104fa8	-0.14092886
19	0x3da02e1c	0.07821295
20	0x3f60f105	0.87867767
21	0x3e9acbd9	0.30233648
22	0x3e823dcb	0.2543777
23	0xc003a0c4	-2.0566874
24	0x3ddc62b1	0.107610114
25	0x40050bd3	2.0788467
26	0xbf63d72e	-0.89000213
27	0x3f89c15b	1.0762132
28	0xbfd9f9a7	-1.7029313
29	0xbf861321	-1.0474588
30	0x3f7af4a7	0.9802956
31	0x3f471edc	0.7778146
32	0xc07efa60	-3.9840317
33	0xbf08a064	-0.53369737
34	0x4057f7a2	3.3744893
35	0xbf70655b	-0.93904656
36	0xc0040849	-2.0630057
37	0xc0c0161d	-6.0026994
38	0xbfe03cfa	-1.7518609
39	0x40b638e7	5.694446
40	0xbfc7bf71	-1.5605298
41	0xbfb47a70	-1.4099865
42	0x3ea6f3c0	0.32607841
43	0xc00b34f6	-2.1751075
44	0xbe5468bb	-0.20743077
45	0xc024c424	-2.5744715
46	0xc03dcd02	-2.9656377
47	0xc05953f3	-3.3957489
48	0xbe83bc9e	-0.2572984
49	0x40930a8a	4.5950365
50	0xbfb8aaa6	-1.4427078
51	0xbfc7c85c	-1.560802
52	0xbf35bdfa	-0.70993006
53	0x3f5760c3	0.8413202
54	0x3f90e20b	1.1318983
55	0xbf7726d9	-0.9654365
56	0x3f482236	0.781772
57	0x3f19ae38	0.6003146
58	0x3f00e809	0.5035406
59	0xbffdae6d	-1.9818856
60	0x3f926bef	1.1439189
61	0xbee3a104	-0.44458783
62	0x3c3eb6ad	0.011640233
63	0xbf1cc21a	-0.61233675
64	0xbfea5f11	-1.8310262
65	0x3ec7a0f4	0.38989985
66	0x3f0c17d5	0.54723865
67	0xbfaa3954	-1.3298745
68	0xbffec0f4	-1.9902635
69	0x400034e4	2.0032282
70	0xc010a1c2	-2.259873
71	0xbeae1e40	-0.34007454
72	0x3e05caa1	0.13065578
73	0x3f13333d	0.5750006
74	0xc0312772	-2.7680326

gru.weight_hh_l1 f4 [15, 5]
0	0xbd3c5cb4	-0.045986846
1	0xbe90f8a7	-0.28314707
2	0xbf2f90bf	-0.6858024
3	0x3ebf7f7a	0.37401944
4	0xc00e8248	-2.2267017
5	0xc007ca0a	-2.1217065
6	0xc011657f	-2.2718198
7	0x3e194b1f	0.14970063
8	0x3e831c39	0.2560747
9	0xc0482c7e	-3.1277156
10	0xbeb475ad	-0.3524603
11	0xbec211cf	-0.37904212
12	0xc02a4185	-2.660249
13	0xbf250a54	-0.64468884
14	0xbe811d25	-0.25217548
15	0x3ef5e2fb	0.48024735
16	0x3f901e47	1.125924
17	0xbfbd9805	-1.4812018
18	0x40234825	2.5512784
19	0xbff1fca7	-1.8905228
20	0x3e90bf95	0.28271165
21	0x3ea8a65c	0.32939422
22	0x3f736ac7	0.95084804
23	0x3ff9f409	1.9527599
24	0x3fd6043e	1.6720045
25	0xbf80660e	-1.0031145
26	0xbf47a85f	-0.7799129
27	0xbe014050	-0.1262219
28	0x3e3035d6	0.17208037
29	0xbf697967	-0.9120087
30	0x3ec7698e	0.3894772
31	0xc0756f9d	-3.8349373
32	0xbf784484	-0.96979547
33	0xc00f514d	-2.2393372
34	0x3f6777c9	0.9041715
35	0xbf4913c2	-0.78545773
36	0xc0987b7d	-4.7650743
37	0xc0284813	-2.629399
38	0x3f8c9f65	1.0986143
39	0x3f9b01cd	1.2109925
40	0xbc8dda53	-0.01731602
41	0xbf4f78cf	-0.81043714
42	0xbf9e8e87	-1.2387246
43	0xbe50807d	-0.20361514
44	0x3f8c7652	1.0973608
45	0xbf6428f3	-0.89124984
46	0xbf80e7f8	-1.0070791
47	0x40142b83	2.3151557
48	0xbeef6107	-0.46753713
49	0x3e7d3ccf	0.24730228
50	0x3fbe508f	1.4868335
51	0xbe22ccc1	-0.1589842
52	0x3c021f4c	0.007942032
53	0x3ff04428	1.87708
54	0xbdcfaef2	-0.1014079
55	0x3dab728b	0.08371457
56	0xbdd2d761	-0.102949865
57	0xbfc5010b	-1.5390943
58	0xbf1580dd	-0.58399755
59	0x40057463	2.0852287
60	0x3d0e852e	0.03479498
61	0x3f180744	0.59386086
62	0x3fad8baf	1.3558253
63	0xbf2afeb1	-0.6679488
64	0x4000edc2	2.0145116
65	0x3f7ef754	0.9959614
66	0xbdee0b21	-0.116232164
67	0xbefdaefa	-0.4954756
68	0x401218b2	2.2827573
69	0x3f3d51de	0.73953044
70	0xbed6a264	-0.4192077
71	0xbfae381a	-1.3610871
72	0xbed7901b	-0.4210213
73	0xbea37cf5	-0.31931272
74	0xbfc82011	-1.5634786

gru.bias_ih_l1 f4 [15]
0	0x3ea89f99	0.32934263
1	0x3ecfbc4c	0.40573347
2	0x3f72f948	0.94911623
3	0x3f576038	0.84131193
4	0x3f0ec20d	0.5576485
5	0x3f6be4c7	0.9214596
6	0xc0822c6b	-4.067922
7	0xbe261472	-0.16218737
8	0x3ebaab7c	0.36458957
9	0xbfd4a33c	-1.6612315
10	0xbee522e9	-0.44753197
11	0x3e2a2903	0.16617207
12	0xbf447590	-0.76741886
13	0xbceafe82	-0.028685812
14	0x3fa50ec3	1.289513

gru.bias_hh_l1 f4 [15]
0	0x3e588bca	0.21147075
1	0x3e2f8bb2	0.17143133
2	0x3f8a0f8f	1.0785998
3	0x3eb4b8c8	0.35297227
4	0x3e48d314	0.1961177
5	0x3f23d3d2	0.6399509
6	0xc050a622	-3.26014
7	0xbaad5b68	-0.0013226094
8	0x3e853def	0.26023814
9	0xbf72466b	-0.946387
10	0x3db5c1c1	0.08874846
11	0x3fab740e	1.3394792
12	0x3e59e290	0.21277833
13	0x3d94c8f6	0.07264893
14	0xbdf19bed	-0.117973186

fc.weight f4 [5, 5]
0	0x3f9935a4	1.1969495
1	0x3e8f6bfe	0.2801208
2	0x40ac33f9	5.3813443
3	0xc09f444f	-4.9770885
4	0x40cf5dfa	6.4802217
5	0xc0e7463c	-7.2273235
6	0x41246d62	10.276705
7	0x402c9544	2.6966105
8	0x4011aa9b	2.276038
9	0xc018cd09	-2.3875144
10	0x3f85f5c6	1.0465629
11	0x3f423bdf	0.75872606
12	0x40808bf5	4.0170846
13	0xc0ba1558	-5.8151054
14	0x409e7c6f	4.9526896
15	0x3ffae011	1.959963
16	0xc17ba474	-15.72765
17	0x3f9fe3cb	1.2491392
18	0x40b076cb	5.514501
19	0xc08c6e66	-4.3884764
20	0x406d4a2f	3.7076528
21	0xc01fc969	-2.496668
22	0xc160e959	-14.05697
23	0x406e947e	3.7278132
24	0xc0b9ab40	-5.8021545

fc.bias f4 [5]
0	0x3fe42490	1.7823658
1	0xc0263941	-2.5972445
2	0xbee83c05	-0.4535829
3	0xc041b01a	-3.0263734
4	0x407e1773	3.9701812
