models/SSD-3-hidden-1-input-2-layer-2-disc.pth (torch, 4608 bytes, 10 tensors)

gru.weight_ih_l0 f4 [9, 1]
000000 ee 5f 59 be 48 92 ed 3e 11 ff 39 40 2c 6b 6f 40
       -0.21228 0.46400666 2.906193 3.7409163
000010 4b a4 5f 40 f8 a9 35 40 18 78 6f 40 13 3b c3 bf
       3.4944026 2.838499 3.741705 -1.5252403
000020 70 ed 16 40
       2.358242

gru.weight_hh_l0 f4 [9, 3]
000000 73 c8 5a bf 96 6b d1 3e 8d 06 2e bd b9 da 24 3f
       -0.8546211 0.40902394 -0.042486716 0.64396244
000010 a8 89 6c be 3b 08 a2 bd 09 39 af be 54 96 c5 be
       -0.23099387 -0.07911726 -0.34223202 -0.38591254
000020 93 e2 78 bf 53 d2 96 3f 5d 87 25 3d 3b 4b fc 3f
       -0.97220725 1.1782936 0.040412296 1.9710459
000030 90 9c 94 3f 49 5f 19 c0 5c 91 b7 3f bf bc cb 3f
       1.1610279 -2.3964407 1.4341235 1.5916976
000040 56 d2 cc bd 16 df cb 3f bc ee 75 3f c0 ed 28 bd
       -0.10001056 1.5927455 0.96067405 -0.04124236
000050 a5 67 ec 3f d9 fa 2a 3f c4 68 11 40 6e df 98 3d
       1.846913 0.66789013 2.2720194 0.07464491
000060 b6 fd bd 3c d5 8f 28 3f 36 25 eb 3e
       0.023192268 0.6584447 0.45926827

gru.bias_ih_l0 f4 [9]
000000 91 02 7f 3c e6 9c d0 be 09 05 30 bf e6 98 c5 bf
       0.015564577 -0.40744704 -0.68757683 -1.5437286
000010 87 ea 9d bf 6d 83 d8 bf 98 b7 90 3d b6 ac b6 3e
       -1.2337197 -1.6915108 0.07066268 0.35678643
000020 e6 b4 a4 bc
       -0.02010579

gru.bias_hh_l0 f4 [9]
000000 56 9d 60 be a0 90 72 3d 3b 72 3b be 09 f7 e1 bf
       -0.21935019 0.059219956 -0.18305294 -1.7653514
000010 f8 63 98 bf 44 08 71 bf 2a 1c fa bd b2 5b 4b bf
       -1.1905508 -0.9415324 -0.12212403 -0.7943679
000020 1f 41 2e be
       -0.17017029

gru.weight_ih_l1 f4 [9, 3]
000000 6a 0e 71 40 d4 1b 8f bf a2 dc 21 40 f9 16 ad 3d
       3.7665048 -1.1180367 2.5290914 0.08451647
000010 30 c3 7b c0 6e 41 d0 3f 0d 18 c8 bf fc 37 06 c0
       -3.9337883 1.6269968 -1.563234 -2.097167
000020 9e ff 4f 40 66 2a ca 3f ab d7 27 40 6e d9 84 bf
       3.2499766 1.5794189 2.6225383 -1.0378854
000030 12 6e 2a 40 23 e7 ce c0 cd d1 0f 40 7c ec 2b 3f
       2.6629682 -6.465715 2.2471802 0.6715772
000040 5b 10 25 be 4c 50 27 c0 9a 5f b9 3e 8c 3d bd 3f
       -0.1611952 -2.614276 0.3620575 1.4784408
000050 cc da 9b 3f 18 a7 8a bf 59 49 49 3f 4a 98 df be
       1.2176147 -1.0832243 0.78627545 -0.43670875
000060 c3 43 8d 3f 14 3b ca bf 76 d5 b7 40
       1.1036304 -1.5799279 5.7448072

gru.weight_hh_l1 f4 [9, 3]
000000 c4 fc 33 3f b2 b6 14 c0 c8 09 29 bf d5 6f 9d 3f
       0.70307565 -2.3236508 -0.6603055 1.2299753
000010 75 05 57 bf 30 80 d8 3e e7 d3 04 40 39 0f 82 be
       -0.839927 0.422853 2.0754335 -0.2540224
000020 d8 28 db 3d 66 3b 09 c0 1e 5f a5 bf 9f 51 06 bf
       0.1070115 -2.1442504 -1.2919652 -0.52468294
000030 63 f6 33 41 fc 3f 70 3f dc 0b 32 40 01 bf af 40
       11.247653 0.9384763 2.7819738 5.492066
000040 96 bb 94 40 67 00 0e 3f 7f db 95 bf cc 2b 7e bf
       4.6478987 0.55469364 -1.170761 -0.9928558
000050 5e 58 2b 3d ad 4a 08 bf ef a3 bc 3f bf 43 1b 3e
       0.04183232 -0.53238946 1.4737529 0.15162562
000060 b1 f8 74 3d 7a c5 2b c0 40 a9 2c 40
       0.059807483 -2.683928 2.6978302

gru.bias_ih_l1 f4 [9]
000000 e6 3f 54 bf 63 cf 55 bc aa 3a ca 3e bc fa 4f bf
       -0.8291 -0.013049933 0.39497882 -0.81241965
000010 f1 15 c0 3f 23 a9 b4 bd c5 a3 96 bf fc fe de be
       1.5006696 -0.08821323 -1.1768728 -0.43553913
000020 3b 6c 9b be
       -0.3035601

gru.bias_hh_l1 f4 [9]
000000 17 78 fb bd 2f 50 9d 3e 62 c6 c4 3e 32 11 9c bf
       -0.12278765 0.30725238 0.38432604 -1.2192748
000010 9a 41 73 3f 78 2f 70 be 32 8e 1a 3f 8c 16 79 be
       0.95021975 -0.23455608 0.6037322 -0.24325007
000020 4c 71 d4 3f
       1.6597075

fc.weight f4 [5, 3]
000000 57 88 6a 41 ef 8f e3 3e 71 f7 38 41 a4 7e a2 3f
       14.658286 0.4444575 11.5604105 1.2694898
000010 33 8e fe bf eb 34 d5 40 07 96 aa c0 96 32 15 c0
       -1.9887146 6.6627097 -5.330814 -2.3312125
000020 61 c1 5c ba c8 cc 12 3e 63 26 51 40 be 14 d1 c0
       -0.00084211497 0.1433593 3.267968 -6.533782
000030 e9 c4 f9 40 50 1e 37 41 04 13 13 c1
       7.805287 11.4449005 -9.1921425

fc.bias f4 [5]
000000 6c b5 fc 3e 14 a0 81 be ab 20 1c 3f b2 1d 33 3e
       0.49357164 -0.25317442 0.6098735 0.17491797
000010 92 48 68 3f
       0.90735734
