models/SSD-3-hidden-1-input-2-layer-2-disc.pth (torch, 4608 bytes, 10 tensors)

gru.weight_ih_l0 f4 [9, 1]
-0.30826518 1.3903906 -4.559898 12.921022 4.537787 3.7765727 3.2905698 -5.2053604
4.2836113
00000000: efd4 9dbe 52f8 b13f afea 91c0 82bc 4e41
00000010: 8d35 9140 5eb3 7140 b298 5240 5092 a6c0
00000020: 5813 8940

gru.weight_hh_l0 f4 [9, 3]
-1.4006478 0.24134554 0.021220379 1.0829476 -0.99345 0.28683534 -0.08570722 0.785966
-0.02478166 13.170492 -8.999651 4.087119 5.225572 2.1660466 2.1273353 -0.66395456
-1.189369 3.7161396 0.7882283 -0.18089375 0.9776551 -0.050961133 1.8577862 0.18841062
0.50745595 0.5979473 0.16932277
00000000: 6d48 b3bf 4923 773e 5cd6 ad3c 079e 8a3f
00000010: bd52 7ebf 15dc 923e 4487 afbd 1135 493f
00000020: e802 cbbc 56ba 5241 92fe 0fc1 aec9 8240
00000030: e337 a740 82a0 0a40 4326 0840 edf8 29bf
00000040: 3e3d 98bf 3bd5 6d40 54c9 493f 363c 39be
00000050: 9b47 7a3f 9fbc 50bd f0cb ed3f b7ee 403e
00000060: a2e8 013f 1313 193f f362 2d3e

gru.bias_ih_l0 f4 [9]
-0.10511305 -0.42876562 -0.45703602 -6.282197 0.60838544 -2.9391875 -0.006685584 0.22924794
-0.14384301
00000000: 8345 d7bd 2b87 dbbe a000 eabe c207 c9c0
00000010: 26bf 1b3f a61b 3cc0 be12 dbbb f9bf 6a3e
00000020: 954b 13be

gru.bias_hh_l0 f4 [9]
-0.34002754 0.037900638 0.04748722 -6.5038133 0.65155435 -2.189217 -0.26995113 -1.0027359
-0.2104282
00000000: 1718 aebe b33d 1b3d f681 423d 3d1f d0c0
00000010: 44cc 263f 221c 0cc0 0937 8abe a659 80bf
00000020: 7d7a 57be

gru.weight_ih_l1 f4 [9, 3]
2.553628 -4.690163 4.2551994 1.8021972 0.1795096 0.8764896 0.10969825 -2.7127607
3.2833235 8.3848 -7.526326 5.4981003 2.4745603 -2.7021427 1.4881831 3.2243717
-0.668985 -2.1118617 -1.4700252 0.48665026 -0.689115 -1.4905363 -0.86619157 -1.0071028
2.820326 -1.3880562 1.7574391
00000000: a46e 2340 d115 96c0 982a 8840 66ae e63f
00000010: 5dd1 373e 9f61 603f 7aa9 e03d df9d 2dc0
00000020: f921 5240 2428 0641 aad7 f0c0 70f0 af40
00000030: 325f 1e40 e8ef 2cc0 c97c be3f 1b5c 4e40
00000040: 9a42 2bbf be28 07c0 c929 bcbf 392a f93e
00000050: d769 30bf e5c9 bebf bbbe 5dbf bfe8 80bf
00000060: 3980 3440 d3ab b1bf c4f3 e03f

gru.weight_hh_l1 f4 [9, 3]
0.0033723474 -2.073233 0.7731743 -0.45334864 -0.96306705 0.39226982 0.41486228 -1.5272946
0.5541084 -2.788145 -6.3392754 2.6961112 -0.9979153 -0.8689868 0.34419176 0.5772841
0.20971595 1.5134791 1.6861593 1.0109249 0.15997472 0.26041308 1.0144862 1.2511232
-1.3622882 -1.8571157 0.57604384
00000000: 9a02 5d3b d9af 04c0 c0ee 453f 501d e8be
00000010: 908b 76bf 97d7 c83e d468 d43e 647e c3bf
00000020: 0cda 0d3f f870 32c0 58db cac0 168d 2c40
00000030: 6177 7fbf eb75 5ebf e739 b03e e4c8 133f
00000040: c7bf 563e afb9 c13f 11d4 d73f fd65 813f
00000050: 6ad0 233e dd54 853e afda 813f ce24 a03f
00000060: 765f aebf f8b5 edbf 9c77 133f

gru.bias_ih_l1 f4 [9]
-0.3705582 0.34733066 -0.10587603 -1.7346563 1.2731311 -0.63918495 -0.5177277 -0.75572485
0.014379901
00000000: ceb9 bdbe 53d5 b13e 88d5 d8bd 3809 debf
00000010: f6f5 a23f a0a1 23bf cd89 04bf 2f77 41bf
00000020: ad99 6b3c

gru.bias_hh_l1 f4 [9]
0.33575088 0.66763055 -0.116529055 -2.1415112 0.7226746 -0.78552943 -1.0832381 -1.1818624
1.5295697
00000000: 8ae7 ab3e d6e9 2a3f c9a6 eebd 850e 09c0
00000010: 3401 393f 7518 49bf 8ca7 8abf 4447 97bf
00000020: f1c8 c33f

fc.weight f4 [5, 3]
0.9786737 -2.5888088 17.173582 -1.6310676 -0.71321785 6.913659 -2.7912292 1.2466277
-1.4371926 4.0660577 -0.4604293 -4.60982 11.874872 -2.6594539 -6.8186145
00000000: 5c8a 7a3f 0baf 25c0 7f63 8941 d3c6 d0bf
00000010: 7295 36bf b23c dd40 80a3 32c0 7f91 9f3f
00000020: edf5 b7bf 251d 8240 64bd ebbe a583 93c0
00000030: 7aff 3d41 7e34 2ac0 1732 dac0

fc.bias f4 [5]
-6.6649246 -0.059881784 3.2152817 0.04211373 -5.9970036
00000000: 1047 d5c0 9a46 75bd 2dc7 4d40 727f 2c3d
00000010: 74e7 bfc0
