models/SSD-5-hidden-5-input-2-layer-2-disc.pth (torch, 6336 bytes, 10 tensors)

gru.weight_ih_l0 f4 [15, 5]
-0.22663604 0.012202266 0.16449854 -0.16635275 -0.2447406 -0.017375182 -0.0079495935 -0.011872677
0.5401896 0.5128176 -0.10496938 0.35849497 0.32421428 0.5842017 0.1338128 0.6123374
0.6106926 0.33062 0.8145051 0.55060214 0.110276215 0.03432634 -0.85703677 -0.6638963
-0.39445102 0.09107223 -0.65463024 0.13495225 -0.038245432 -0.12778564 0.077969946 -0.3466843
-0.7893214 -0.14118236 -0.77594584 -0.59751385 0.072500184 0.31321067 -0.6813703 0.23795944
0.6105899 -0.6018801 -0.69401854 0.23340592 0.73789823 0.008707331 -0.28602874 -0.20126343
-0.15014902 0.37127614 -0.5324757 -0.66968006 -0.41656885 -0.5929921 -0.38520807 -0.34814325
-0.63203216 -0.18505493 -0.9274247 -0.049802877 0.4010795 0.48794147 0.07558309 0.41412154
0.4315371 0.28974527 -0.14774318 -0.21617895 0.50422573 0.7800174 -0.32529488 -0.78261125
-0.2889454 -0.87765974 -0.07496457
00000000: 4713 68be 03ec 473c 4e72 283e 6058 2abe
00000010: 489d 7abe 6656 8ebc 033f 02bc 9e85 42bc
00000020: de49 0a3f 0448 033f 30fa d6bd a78c b73e
00000030: 6aff a53e 3e8e 153f 3906 093e 25c2 1c3f
00000040: 5a56 1c3f 0647 a93e 6883 503f 43f4 0c3f
00000050: 7fd8 e13d c799 0c3d c366 5bbf 1cf5 29bf
00000060: 7cf5 c9be 1484 ba3d d995 27bf ec30 0a3e
00000070: 3ea7 1cbd 3dda 02be b5ae 9f3d 9b80 b1be
00000080: f810 4abf 1c92 10be 63a4 46bf abf6 18bf
00000090: fa7a 943d 265d a03e 496e 2ebf a4ab 733e
000000a0: 9f4f 1c3f d014 1abf 33ab 31bf f601 6f3e
000000b0: e6e6 3c3f 31a9 0e3c 5c72 92be 0018 4ebe
000000c0: aac0 19be e817 be3e 5450 08bf 2770 2bbf
000000d0: 8348 d5be 55ce 17bf fe39 c5be d53f b2be
000000e0: dccc 21bf 0a7f 3dbe b56b 6dbf 1afe 4bbd
000000f0: 4b5a cd3e 77d3 f93e 4fcb 9a3d bd07 d43e
00000100: 6ef2 dc3e 7e59 943e fd49 17be 045e 5dbe
00000110: f014 013f 38af 473f 0d8d a6be 3659 48bf
00000120: a7f0 93be 4fae 60bf 0687 99bd

gru.weight_hh_l0 f4 [15, 5]
-0.30183128 0.19271234 -0.39315942 0.22661781 -0.16427419 0.115745455 0.34650165 0.385447
0.047179874 -0.50648606 0.10337792 0.41486493 -0.35575625 -0.46483883 0.10306046 0.09719642
-0.635735 0.6617056 0.69902384 -0.056413166 -0.27616265 -0.038916457 -0.2829544 -0.47164518
0.15036824 -0.116705835 -0.17773789 -0.2556957 -0.28168392 0.014288112 0.18142015 0.40302306
0.2800662 -0.28717744 -0.09248034 -0.23170397 -0.23671548 -0.15837377 -0.653601 0.62842655
-0.43307835 0.5535414 0.07444734 -0.7906643 0.16570432 -0.7729712 0.905729 -0.5294036
-0.24189952 0.57407147 0.4649891 0.47056898 0.25331813 0.0871633 0.046627313 -0.14849427
0.17176369 0.14420973 -0.5639861 0.5593588 0.42274424 0.52738094 0.20836578 0.51967174
-0.6355218 -0.47038063 -0.06763936 0.4041213 0.60067177 -0.7524904 0.010531784 -0.62364995
0.2766384 0.2688388 -0.4694896
00000000: a189 9abe 6256 453e 314c c9be 800e 683e
00000010: 7e37 28be f40b ed3d aa68 b13e 4f59 c53e
00000020: af3f 413d 12a9 01bf ceb7 d33d 2d69 d43e
00000030: af25 b6be 5bff edbe 5d11 d33d eb0e c73d
00000040: 87bf 22bf 8a65 293f 3af3 323f 7e11 67bd
00000050: 3165 8dbe dd66 1fbd 66df 90be 7a7b f1be
00000060: 22fa 193e 7803 efbd ec00 36be 8cea 82be
00000070: e038 90be af18 6a3c 34c6 393e 0a59 ce3e
00000080: d664 8f3e ec08 93be 5566 bdbd ce43 6dbe
00000090: 8b65 72be bc2c 22be 6552 27bf 90e0 203f
000000a0: 72bc ddbe e4b4 0d3f d977 983d fa68 4abf
000000b0: 65ae 293e 71e1 45bf dbdd 673f ff86 07bf
000000c0: 82b4 77be 59f6 123f 0d13 ee3e 6bee f03e
000000d0: eab2 813e ac82 b23d 48fc 3e3d e20e 18be
000000e0: d2e2 2f3e b7ab 133e 6561 10bf 2332 0f3f
000000f0: ef71 d83e 7002 073f d75d 553e 3509 053f
00000100: 8fb1 22bf bbd5 f0be 8186 8abd fde8 ce3e
00000110: a0c5 193f 36a3 40bf 818d 2c3c 86a7 1fbf
00000120: 8ca3 8d3e 3da5 893e f160 f0be

gru.bias_ih_l0 f4 [15]
-0.025077835 0.08294617 0.2902964 0.2722752 0.17422013 -0.28551835 0.124705866 -0.058348507
-0.23064184 -0.40049043 0.11716484 -0.35269627 0.37841737 0.28443003 -0.4056394
00000000: 0870 cdbc aedf a93d bba1 943e a867 8b3e
00000010: c366 323e 762f 92be ca65 ff3d d8fe 6ebd
00000020: 602d 6cbe 150d cdbe 1ff4 ef3d 9b94 b4be
00000030: ecbf c13e d0a0 913e f8af cfbe

gru.bias_hh_l0 f4 [15]
0.09653057 -0.31632486 -0.37504664 -0.1099258 -0.39362606 -0.47478873 -0.44079006 -0.31599036
0.10865615 -0.30275738 0.1669781 -0.19533229 0.2345483 0.03715308 0.2654176
00000000: d2b1 c53d 55f5 a1be 1d06 c0be c720 e1bd
00000010: 5b89 c9be 8217 f3be 3caf e1be 7dc9 a1be
00000020: 1e87 de3d 0403 9bbe 4ffc 2a3e 3005 48be
00000030: 6e2d 703e d42d 183d d1e4 873e

gru.weight_ih_l1 f4 [15, 5]
0.37335947 -0.007715353 -0.56696904 -0.3305718 0.7815024 0.12533762 -0.7099172 -0.087434694
-0.1374423 -0.29491973 -0.5520338 0.55676466 0.4562343 0.73271555 -0.018269291 -0.17516361
0.5466899 -0.31465775 0.62966394 0.2842154 0.36179313 -0.71665686 0.023396596 0.54277354
-0.6146341 0.05769582 0.4076957 -0.86766213 -0.18563528 0.5238618 -0.31755173 0.047309242
-0.16724737 -0.32620493 0.6576028 -0.5941886 0.25518063 -0.5868952 -0.28261536 -0.025511391
0.4367668 -0.07064061 0.29622194 -0.21247241 0.22313318 -0.21770345 0.06773232 -0.1946255
-0.29538098 -0.59599537 -0.5572851 -0.6610254 0.50991553 0.36996743 -0.754444 -0.60629815
0.13771616 0.11465053 0.14142533 0.6338335 -0.30490893 0.017958634 0.6374435 -0.19417787
-0.5354677 0.45941865 0.47659376 -0.15882823 0.39506084 0.36243856 -0.25839138 -0.17298143
-0.20745012 -0.5672205 0.5532186
00000000: f928 bf3e 12d1 fcbb e224 11bf b540 a9be
00000010: 8b10 483f 8158 003e 22bd 35bf f610 b3bd
00000020: adbd 0cbe b8ff 96be 1652 0dbf 2188 0e3f
00000030: 8b97 e93e 3f93 3b3f 7ba9 95bc 175e 33be
00000040: dff3 0b3f d21a a1be a831 213f ae84 913e
00000050: f33c b93e d376 37bf 38aa bf3c 35f3 0a3f
00000060: a958 1dbf 7452 6c3d 7ebd d03e 1b1f 5ebf
00000070: 2d17 3ebe cf1b 063f 2496 a2be 56c7 413d
00000080: e542 2bbe 5504 a7be a858 283f be1c 18bf
00000090: 09a7 823e c43e 16bf f6b2 90be 44fd d0bc
000000a0: e69f df3e 06ac 90bd 67aa 973e 5e92 59be
000000b0: 067d 643e a7ed 5ebe 3eb7 8a3d e84b 47be
000000c0: 2d3c 97be 2793 18bf 3caa 0ebf f638 29bf
000000d0: d389 023f 5f6c bd3e 3e23 41bf 5b36 1bbf
000000e0: 7705 0d3e e6cd ea3d cdd1 103e ea42 223f
000000f0: 061d 9cbe fc1d 933c 7f2f 233f 90d6 46be
00000100: 6914 09bf ec38 eb3e 1904 f43e dea3 22be
00000110: 6a45 ca3e 8c91 b93e e04b 84be 0b22 31be
00000120: ce6d 54be 5d35 11bf bc9f 0d3f

gru.weight_hh_l1 f4 [15, 5]
0.28921047 0.3340107 0.10560382 0.42439532 0.0040515386 0.044280745 0.02766737 0.19849229
0.5232899 0.4539013 -0.008686141 -0.22041488 -0.062695645 -0.2979699 -0.4594104 -0.26036063
-0.0030827634 0.07115819 0.32542184 -0.04569196 -0.093321 -0.06497493 -0.38232332 0.4182989
0.20193627 -0.7642217 0.4894018 -0.08429386 -0.3098919 0.57822156 -0.5062597 -0.1948086
-0.18394646 -0.60348284 -0.26107073 -0.033180162 0.41031206 0.027588319 -0.58565634 -0.069123946
0.12435499 0.39155385 -0.6116314 -0.16564794 0.58155274 -0.11680051 0.20284279 -0.29091233
-0.5619377 0.20108771 -0.25302133 0.2914871 -0.40962014 -0.6529159 0.40573138 -0.2152858
-0.040722992 -0.6208133 -0.50022227 -0.11848478 0.08710525 -0.13764766 0.6953975 0.23750702
0.7670444 0.24940002 -0.1714245 0.5569567 0.2036641 -0.2810392 -0.5800058 0.11510407
-0.2576091 -0.26346716 0.54584026
00000000: 6513 943e 7303 ab3e d146 d83d 584a d93e
00000010: c5c2 843b ba5f 353d aea6 e23c 9041 4b3e
00000020: 54f6 053f c065 e83e 5150 0ebc 70b4 61be
00000030: 9366 80bd 838f 98be d737 ebbe fd4d 85be
00000040: 3008 4abb 63bb 913d b19d a63e 7e27 3bbd
00000050: 151f bfbd 9311 85bd e2bf c3be 462b d63e
00000060: 62c8 4e3e 09a4 43bf df92 fa3e 42a2 acbd
00000070: 27aa 9ebe 5406 143f 3c9a 01bf e87b 47be
00000080: 765c 3cbe da7d 1abf 10ab 85be ece7 07bd
00000090: 6c14 d23e e600 e23c 93ed 15bf db90 8dbd
000000a0: d4ad fe3d bf79 c83e e093 1cbf 9d9f 29be
000000b0: a4e0 143f 1b35 efbd 05b6 4f3e 76f2 94be
000000c0: 26db 0fbf f0e9 4d3e 038c 81be cc3d 953e
000000d0: bbb9 d1be 7f25 27bf 06bc cf3e e173 5cbe
000000e0: 27cd 26bd 9fed 1ebf 910e 00bf 26a8 f2bd
000000f0: 3d64 b23d 82f3 0cbe 9205 323f 0a35 733e
00000100: 065d 443f b862 7f3e e789 2fbe b794 0e3f
00000110: 528d 503e 5fe4 8fbe 437b 14bf afbb eb3d
00000120: 57e5 83be 2be5 86be 30bc 0b3f

gru.bias_ih_l1 f4 [15]
0.45604414 0.3870985 0.030288152 0.09630227 -0.22365354 -0.30949217 -0.014124983 -0.000665999
0.043155756 0.30106908 0.11259832 -0.6297888 0.117134504 0.34791484 0.31473902
00000000: 9e7e e93e c631 c63e dc1e f83c 203a c53d
00000010: 6f05 65be c275 9ebe 796c 67bc 7096 2eba
00000020: 17c4 303d ba25 9a3e f399 e63d d739 21bf
00000030: 37e4 ef3d e521 b23e 7925 a13e

gru.bias_hh_l1 f4 [15]
-0.061648466 0.062906146 -0.20586331 -0.15931898 -0.17898823 -0.2979839 -0.07596525 -0.37570554
-0.29713494 -0.39409664 -0.7873835 -0.5002536 0.05923208 0.22774768 0.10464697
00000000: 1a83 7cbd f0d4 803d d5cd 52be 8424 23be
00000010: b148 37be 5991 98be ab93 9bbd 7a5c c0be
00000020: 1222 98be 09c7 c9be f791 49bf 9f10 00bf
00000030: 569d 723d b036 693e 2751 d63d

fc.weight f4 [25, 5]
0.42921355 0.6904582 0.11493949 -0.37716803 0.06961868 0.2679783 -0.43213502 0.46854618
-0.11118795 -0.11735538 -0.055602074 0.5374972 -0.041344356 0.34678027 -0.39251512 -0.8600815
-0.75077045 -0.14448808 -0.007321138 0.35982114 -0.4940197 0.27005205 -0.22422533 0.44908512
0.015529028 0.8481866 -0.13719663 0.7509249 0.02685796 -0.048601203 0.7425003 -0.4030727
0.47356313 -0.37975022 -0.20639575 -0.036702927 0.16221605 -0.20330425 0.3590532 -0.44274974
-0.26318842 -0.12861127 0.03332161 0.5659151 0.5151467 -0.52997154 0.3384983 -0.18004492
0.26445445 0.12913567 0.021243453 0.1660799 -0.18476748 -0.24904355 0.11514491 0.72253025
-0.33572665 0.7440909 -0.30634114 0.17440946 -0.8002627 0.07073827 -0.6053361 -0.33387855
0.035131726 -0.56329376 -0.08176267 -0.08200752 0.6374754 -0.21175884 -0.40956742 0.6074618
-0.36945927 -0.5332901 -0.09701561 0.41736344 0.20804024 0.48395675 -0.32926267 -0.36646834
0.065124005 -0.36135864 0.8175319 -0.0445857 -0.38976854 -0.47856903 0.49891374 -0.19750607
0.57059705 -0.058629937 -0.7009795 -0.28191122 -0.19788769 0.34839043 0.4528685 -0.14410895
-0.20003031 -0.8113926 -0.018563442 0.74535614 0.27461287 -0.04960024 0.108452894 -0.5284375
-0.14088285 0.84069115 -0.06803999 -0.04946262 0.11310966 0.12150215 0.049739167 0.23419243
-0.6714817 -0.13343726 -0.5538842 -0.7341959 -0.70434 0.04519555 0.09202053 -0.045433536
-0.1182969 -0.23175953 0.049936056 -0.40694964 0.4336402
00000000: e1c1 db3e dec1 303f 6565 eb3d 2b1c c1be
00000010: 3d94 8e3d 7434 893e cd40 ddbe 49e5 ef3e
00000020: 82b6 e3bd 0458 f0bd 00bf 63bd 6b99 093f
00000030: b358 29bd 2f8d b13e bef7 c8be 4d2e 5cbf
00000040: 7e32 40bf aff4 13be 28e6 efbb 7a3a b83e
00000050: 26f0 fcbe 4344 8a3e 539b 65be 7cee e53e
00000060: 776d 7e3c c222 593f 467d 0cbe 9d3c 403f
00000070: 3905 dc3c 0e12 47bd 8014 3e3f 8c5f cebe
00000080: de76 f23e 9f6e c2be 6859 53be cf55 16bd
00000090: f71b 263e fd2e 50be d2d5 b73e 18b0 e2be
000000a0: a2c0 86be acb2 03be 3e7c 083d d0df 103f
000000b0: a7e0 033f 37ac 07bf a64f ad3e b25d 38be
000000c0: 9366 873e 243c 043e c006 ae3c d910 2a3e
000000d0: b033 3dbe 4605 7fbe 18d1 eb3d bef7 383f
000000e0: 5de4 abbe be7c 3e3f bfd8 9cbe 6598 323e
000000f0: 04de 4cbf 3adf 903d 4ff7 1abf 21f2 aabe
00000100: 49e6 0f3d 0534 10bf 3073 a7bd 8ff3 a7bd
00000110: 9631 233f 4fd7 58be d2b2 d1be 9e82 1b3f
00000120: c429 bdbe b385 08bf 1fb0 c6bd a9b0 d53e
00000130: 8008 553e 2ec9 f73e 1e95 a8be bda1 bbbe
00000140: bc5f 853d 0004 b9be c549 513f 7f9f 36bd
00000150: be8f c7be 0007 f5be 9f71 ff3e 083f 4abe
00000160: a612 123f f225 70bd 6473 33bf ab56 90be
00000170: 12a3 4abe 3b60 b23e 61de e73e 4c91 13be
00000180: bfd4 4cbe 6db7 4fbf 5c12 98bc a9cf 3e3f
00000190: 0f9a 8c3e 9f29 4bbd 8d1c de3d ae47 07bf
000001a0: 9843 10be 8937 573f 8d58 8bbd 5199 4abd
000001b0: 0aa6 e73d 1fd6 f83d 4cbb 4b3d 24d0 6f3e
000001c0: 3ae6 2bbf c7a3 08be 5bcb 0dbf 43f4 3bbf
000001d0: a04f 34bf f81e 393d 4275 bc3d 8418 3abd
000001e0: a545 f2bd 5f52 6dbe c089 4c3d b45b d0be
000001f0: 1706 de3e

fc.bias f4 [25]
0.013637289 0.09129588 -0.3980078 0.4017226 -0.33617026 -0.14485307 0.25625074 -0.29288483
0.28702193 0.19546264 -0.41328844 0.4114023 -0.3126337 0.135828 -0.38159233 0.0035186624
-0.16624317 -0.3674286 0.34554765 -0.25698748 -0.4115782 0.2966402 -0.23504503 0.23331676
-0.27847683
00000000: f06e 5f3c 56f9 ba3d aec7 cbbe 96ae cd3e
00000010: 821e acbe 5d54 14be 4c33 833e 00f5 95be
00000020: 8af4 923e 5c27 483e 8b9a d3be 52a3 d23e
00000030: 8611 a0be 7f16 0b3e 1260 c3be 5c99 663b
00000040: a63b 2abe 9a1f bcbe 9feb b03e dd93 83be
00000050: 61ba d2be 39e1 973e a5af 70be 97ea 6e3e
00000060: 8494 8ebe
